func.func @range_builtin(%n: i32) -> dictionary<i32, i32> {
  %zero = "arith.constant"() <{value = 0}> : () -> i32
  %is_terminal = "arith.cmpi"(%n, %zero) <{"predicate" = 3}> : (i32, i32) -> i1
  %res = "scf.if"(%is_terminal) ({
    %empty = sdql.empty_dictionary : dictionary<i32, i32>
    "scf.yield"(%empty) : (dictionary<i32, i32>) -> ()
  }, {
    %one = "arith.constant"() <{value = 1}> : () -> i32
    %smaller_n = "arith.subi"(%n, %one) : (i32, i32) -> i32
    %prev_range = "func.call"(%smaller_n) <{callee = @range}> : (i32) -> dictionary<i32, i32>
    %true = "arith.constant"() <{value = 1}> : () -> i32
    %extension = sdql.create_dictionary %smaller_n, %true : i32, i32 -> dictionary<i32, i32>

    // return %extension + %prev_range
    %added = sdql.dictionary_add %extension %prev_range : dictionary<i32, i32>, dictionary<i32, i32> -> dictionary<i32, i32>
    "scf.yield"(%added) : (dictionary<i32, i32>) -> ()
  }) : (i1) -> dictionary<i32, i32>
  func.return %res : dictionary<i32, i32>
}
%customer = sdql.load "datasets/tpch/customer.tbl" : record<"c_custkey" : dictionary<i32, i32>, "c_name" : dictionary<i32, memref<25xi8>>, "c_address" : dictionary<i32, memref<40xi8>>, "c_nationkey" : dictionary<i32, i32>, "c_phone" : dictionary<i32, memref<15xi8>>, "c_acctbal" : dictionary<i32, f64>, "c_mktsegment" : dictionary<i32, memref<10xi8>>, "c_comment" : dictionary<i32, memref<117xi8>>, "size" : i32>
%orders = sdql.load "datasets/tpch/orders.tbl" : record<"o_orderkey" : dictionary<i32, i32>, "o_custkey" : dictionary<i32, i32>, "o_orderstatus" : dictionary<i32, memref<1xi8>>, "o_totalprice" : dictionary<i32, f64>, "o_orderdate" : dictionary<i32, i32>, "o_orderpriority" : dictionary<i32, memref<15xi8>>, "o_clerk" : dictionary<i32, memref<15xi8>>, "o_shippriority" : dictionary<i32, i32>, "o_comment" : dictionary<i32, memref<79xi8>>, "size" : i32>
%lineitem = sdql.load "datasets/tpch/lineitem.tbl" : record<"l_orderkey" : dictionary<i32, i32>, "l_partkey" : dictionary<i32, i32>, "l_suppkey" : dictionary<i32, i32>, "l_linenumber" : dictionary<i32, i32>, "l_quantity" : dictionary<i32, f64>, "l_extendedprice" : dictionary<i32, f64>, "l_discount" : dictionary<i32, f64>, "l_tax" : dictionary<i32, f64>, "l_returnflag" : dictionary<i32, memref<1xi8>>, "l_linestatus" : dictionary<i32, memref<1xi8>>, "l_shipdate" : dictionary<i32, i32>, "l_commitdate" : dictionary<i32, i32>, "l_receiptdate" : dictionary<i32, i32>, "l_shipinstruct" : dictionary<i32, memref<25xi8>>, "l_shipmode" : dictionary<i32, memref<10xi8>>, "l_comment" : dictionary<i32, memref<44xi8>>, "size" : i32>
%nation = sdql.load "datasets/tpch/nation.tbl" : record<"n_nationkey" : dictionary<i32, i32>, "n_name" : dictionary<i32, memref<25xi8>>, "n_regionkey" : dictionary<i32, i32>, "n_comment" : dictionary<i32, memref<152xi8>>, "size" : i32>
// R
%constds_0 = "arith.constant"() <{value = dense<[82]> : memref<?xi8>}> : () -> memref<?xi8>
%consti_1 = "arith.constant"() <{value = 2 : i32}> : () -> i32
%r = sdql.external "ConstantString", %constds_0, %consti_1 : memref<?xi8>, i32 -> memref<1xi8>
%fieldnode_2 = sdql.access_record %nation "size" : record<"n_nationkey": dictionary<i32, i32>, "n_name": dictionary<i32, memref<25xi8>>, "n_regionkey": dictionary<i32, i32>, "n_comment": dictionary<i32, memref<152xi8>>, "size": i32> -> i32
%rangenode_3 = "func.call"(%fieldnode_2) <{callee = @range_builtin}> : (i32) -> dictionary<i32, i32>
%n_h = sdql.sum %rangenode_3 : dictionary<i32, i32> -> dictionary<i32, record<"_" : memref<25xi8>>> {
^bb_4(%i: i32, %_: i32):
  %fieldnode_6 = sdql.access_record %nation "n_nationkey" : record<"n_nationkey": dictionary<i32, i32>, "n_name": dictionary<i32, memref<25xi8>>, "n_regionkey": dictionary<i32, i32>, "n_comment": dictionary<i32, memref<152xi8>>, "size": i32> -> dictionary<i32, i32>
  %get_5 = sdql.lookup_dictionary %fieldnode_6 [%i : i32] : dictionary<i32, i32> -> i32
  %fieldnode_8 = sdql.access_record %nation "n_name" : record<"n_nationkey": dictionary<i32, i32>, "n_name": dictionary<i32, memref<25xi8>>, "n_regionkey": dictionary<i32, i32>, "n_comment": dictionary<i32, memref<152xi8>>, "size": i32> -> dictionary<i32, memref<25xi8>>
  %get_7 = sdql.lookup_dictionary %fieldnode_8 [%i : i32] : dictionary<i32, memref<25xi8>> -> memref<25xi8>
  %fieldnode_10 = sdql.access_record %nation "n_regionkey" : record<"n_nationkey": dictionary<i32, i32>, "n_name": dictionary<i32, memref<25xi8>>, "n_regionkey": dictionary<i32, i32>, "n_comment": dictionary<i32, memref<152xi8>>, "size": i32> -> dictionary<i32, i32>
  %get_9 = sdql.lookup_dictionary %fieldnode_10 [%i : i32] : dictionary<i32, i32> -> i32
  %fieldnode_12 = sdql.access_record %nation "n_comment" : record<"n_nationkey": dictionary<i32, i32>, "n_name": dictionary<i32, memref<25xi8>>, "n_regionkey": dictionary<i32, i32>, "n_comment": dictionary<i32, memref<152xi8>>, "size": i32> -> dictionary<i32, memref<152xi8>>
  %get_11 = sdql.lookup_dictionary %fieldnode_12 [%i : i32] : dictionary<i32, memref<152xi8>> -> memref<152xi8>
  %n = sdql.create_record {fields = ["n_nationkey", "n_name", "n_regionkey", "n_comment"]} %get_5, %get_7, %get_9, %get_11 : i32, memref<25xi8>, i32, memref<152xi8> -> record<"n_nationkey": i32, "n_name": memref<25xi8>, "n_regionkey": i32, "n_comment": memref<152xi8>>
  %fieldnode_15 = sdql.access_record %n "n_nationkey" : record<"n_nationkey": i32, "n_name": memref<25xi8>, "n_regionkey": i32, "n_comment": memref<152xi8>> -> i32
  %uniq_14 = sdql.unique %fieldnode_15 : i32 -> i32
  %fieldnode_16 = sdql.access_record %n "n_name" : record<"n_nationkey": i32, "n_name": memref<25xi8>, "n_regionkey": i32, "n_comment": memref<152xi8>> -> memref<25xi8>
  %recnode_17 = sdql.create_record {fields = ["_"]} %fieldnode_16 : memref<25xi8> -> record<"_": memref<25xi8>>
  %dict_13 = sdql.create_dictionary %uniq_14, %recnode_17 : i32, record<"_" : memref<25xi8>> -> dictionary<i32, record<"_" : memref<25xi8>>>
  sdql.yield %dict_13 : dictionary<i32, record<"_" : memref<25xi8>>>
}
%fieldnode_18 = sdql.access_record %customer "size" : record<"c_custkey": dictionary<i32, i32>, "c_name": dictionary<i32, memref<25xi8>>, "c_address": dictionary<i32, memref<40xi8>>, "c_nationkey": dictionary<i32, i32>, "c_phone": dictionary<i32, memref<15xi8>>, "c_acctbal": dictionary<i32, f64>, "c_mktsegment": dictionary<i32, memref<10xi8>>, "c_comment": dictionary<i32, memref<117xi8>>, "size": i32> -> i32
%rangenode_19 = "func.call"(%fieldnode_18) <{callee = @range_builtin}> : (i32) -> dictionary<i32, i32>
%c_h = sdql.sum %rangenode_19 : dictionary<i32, i32> -> dictionary<i32, record<"_" : i32, "_" : memref<25xi8>, "_" : f64, "_" : memref<40xi8>, "_" : i32, "_" : memref<15xi8>, "_" : memref<117xi8>>> {
^bb_20(%i: i32, %_: i32):
  %fieldnode_22 = sdql.access_record %customer "c_custkey" : record<"c_custkey": dictionary<i32, i32>, "c_name": dictionary<i32, memref<25xi8>>, "c_address": dictionary<i32, memref<40xi8>>, "c_nationkey": dictionary<i32, i32>, "c_phone": dictionary<i32, memref<15xi8>>, "c_acctbal": dictionary<i32, f64>, "c_mktsegment": dictionary<i32, memref<10xi8>>, "c_comment": dictionary<i32, memref<117xi8>>, "size": i32> -> dictionary<i32, i32>
  %get_21 = sdql.lookup_dictionary %fieldnode_22 [%i : i32] : dictionary<i32, i32> -> i32
  %fieldnode_24 = sdql.access_record %customer "c_name" : record<"c_custkey": dictionary<i32, i32>, "c_name": dictionary<i32, memref<25xi8>>, "c_address": dictionary<i32, memref<40xi8>>, "c_nationkey": dictionary<i32, i32>, "c_phone": dictionary<i32, memref<15xi8>>, "c_acctbal": dictionary<i32, f64>, "c_mktsegment": dictionary<i32, memref<10xi8>>, "c_comment": dictionary<i32, memref<117xi8>>, "size": i32> -> dictionary<i32, memref<25xi8>>
  %get_23 = sdql.lookup_dictionary %fieldnode_24 [%i : i32] : dictionary<i32, memref<25xi8>> -> memref<25xi8>
  %fieldnode_26 = sdql.access_record %customer "c_address" : record<"c_custkey": dictionary<i32, i32>, "c_name": dictionary<i32, memref<25xi8>>, "c_address": dictionary<i32, memref<40xi8>>, "c_nationkey": dictionary<i32, i32>, "c_phone": dictionary<i32, memref<15xi8>>, "c_acctbal": dictionary<i32, f64>, "c_mktsegment": dictionary<i32, memref<10xi8>>, "c_comment": dictionary<i32, memref<117xi8>>, "size": i32> -> dictionary<i32, memref<40xi8>>
  %get_25 = sdql.lookup_dictionary %fieldnode_26 [%i : i32] : dictionary<i32, memref<40xi8>> -> memref<40xi8>
  %fieldnode_28 = sdql.access_record %customer "c_nationkey" : record<"c_custkey": dictionary<i32, i32>, "c_name": dictionary<i32, memref<25xi8>>, "c_address": dictionary<i32, memref<40xi8>>, "c_nationkey": dictionary<i32, i32>, "c_phone": dictionary<i32, memref<15xi8>>, "c_acctbal": dictionary<i32, f64>, "c_mktsegment": dictionary<i32, memref<10xi8>>, "c_comment": dictionary<i32, memref<117xi8>>, "size": i32> -> dictionary<i32, i32>
  %get_27 = sdql.lookup_dictionary %fieldnode_28 [%i : i32] : dictionary<i32, i32> -> i32
  %fieldnode_30 = sdql.access_record %customer "c_phone" : record<"c_custkey": dictionary<i32, i32>, "c_name": dictionary<i32, memref<25xi8>>, "c_address": dictionary<i32, memref<40xi8>>, "c_nationkey": dictionary<i32, i32>, "c_phone": dictionary<i32, memref<15xi8>>, "c_acctbal": dictionary<i32, f64>, "c_mktsegment": dictionary<i32, memref<10xi8>>, "c_comment": dictionary<i32, memref<117xi8>>, "size": i32> -> dictionary<i32, memref<15xi8>>
  %get_29 = sdql.lookup_dictionary %fieldnode_30 [%i : i32] : dictionary<i32, memref<15xi8>> -> memref<15xi8>
  %fieldnode_32 = sdql.access_record %customer "c_acctbal" : record<"c_custkey": dictionary<i32, i32>, "c_name": dictionary<i32, memref<25xi8>>, "c_address": dictionary<i32, memref<40xi8>>, "c_nationkey": dictionary<i32, i32>, "c_phone": dictionary<i32, memref<15xi8>>, "c_acctbal": dictionary<i32, f64>, "c_mktsegment": dictionary<i32, memref<10xi8>>, "c_comment": dictionary<i32, memref<117xi8>>, "size": i32> -> dictionary<i32, f64>
  %get_31 = sdql.lookup_dictionary %fieldnode_32 [%i : i32] : dictionary<i32, f64> -> f64
  %fieldnode_34 = sdql.access_record %customer "c_mktsegment" : record<"c_custkey": dictionary<i32, i32>, "c_name": dictionary<i32, memref<25xi8>>, "c_address": dictionary<i32, memref<40xi8>>, "c_nationkey": dictionary<i32, i32>, "c_phone": dictionary<i32, memref<15xi8>>, "c_acctbal": dictionary<i32, f64>, "c_mktsegment": dictionary<i32, memref<10xi8>>, "c_comment": dictionary<i32, memref<117xi8>>, "size": i32> -> dictionary<i32, memref<10xi8>>
  %get_33 = sdql.lookup_dictionary %fieldnode_34 [%i : i32] : dictionary<i32, memref<10xi8>> -> memref<10xi8>
  %fieldnode_36 = sdql.access_record %customer "c_comment" : record<"c_custkey": dictionary<i32, i32>, "c_name": dictionary<i32, memref<25xi8>>, "c_address": dictionary<i32, memref<40xi8>>, "c_nationkey": dictionary<i32, i32>, "c_phone": dictionary<i32, memref<15xi8>>, "c_acctbal": dictionary<i32, f64>, "c_mktsegment": dictionary<i32, memref<10xi8>>, "c_comment": dictionary<i32, memref<117xi8>>, "size": i32> -> dictionary<i32, memref<117xi8>>
  %get_35 = sdql.lookup_dictionary %fieldnode_36 [%i : i32] : dictionary<i32, memref<117xi8>> -> memref<117xi8>
  %c = sdql.create_record {fields = ["c_custkey", "c_name", "c_address", "c_nationkey", "c_phone", "c_acctbal", "c_mktsegment", "c_comment"]} %get_21, %get_23, %get_25, %get_27, %get_29, %get_31, %get_33, %get_35 : i32, memref<25xi8>, memref<40xi8>, i32, memref<15xi8>, f64, memref<10xi8>, memref<117xi8> -> record<"c_custkey": i32, "c_name": memref<25xi8>, "c_address": memref<40xi8>, "c_nationkey": i32, "c_phone": memref<15xi8>, "c_acctbal": f64, "c_mktsegment": memref<10xi8>, "c_comment": memref<117xi8>>
  %fieldnode_39 = sdql.access_record %c "c_custkey" : record<"c_custkey": i32, "c_name": memref<25xi8>, "c_address": memref<40xi8>, "c_nationkey": i32, "c_phone": memref<15xi8>, "c_acctbal": f64, "c_mktsegment": memref<10xi8>, "c_comment": memref<117xi8>> -> i32
  %uniq_38 = sdql.unique %fieldnode_39 : i32 -> i32
  %fieldnode_40 = sdql.access_record %c "c_custkey" : record<"c_custkey": i32, "c_name": memref<25xi8>, "c_address": memref<40xi8>, "c_nationkey": i32, "c_phone": memref<15xi8>, "c_acctbal": f64, "c_mktsegment": memref<10xi8>, "c_comment": memref<117xi8>> -> i32
  %fieldnode_41 = sdql.access_record %c "c_name" : record<"c_custkey": i32, "c_name": memref<25xi8>, "c_address": memref<40xi8>, "c_nationkey": i32, "c_phone": memref<15xi8>, "c_acctbal": f64, "c_mktsegment": memref<10xi8>, "c_comment": memref<117xi8>> -> memref<25xi8>
  %fieldnode_42 = sdql.access_record %c "c_acctbal" : record<"c_custkey": i32, "c_name": memref<25xi8>, "c_address": memref<40xi8>, "c_nationkey": i32, "c_phone": memref<15xi8>, "c_acctbal": f64, "c_mktsegment": memref<10xi8>, "c_comment": memref<117xi8>> -> f64
  %fieldnode_43 = sdql.access_record %c "c_address" : record<"c_custkey": i32, "c_name": memref<25xi8>, "c_address": memref<40xi8>, "c_nationkey": i32, "c_phone": memref<15xi8>, "c_acctbal": f64, "c_mktsegment": memref<10xi8>, "c_comment": memref<117xi8>> -> memref<40xi8>
  %fieldnode_44 = sdql.access_record %c "c_nationkey" : record<"c_custkey": i32, "c_name": memref<25xi8>, "c_address": memref<40xi8>, "c_nationkey": i32, "c_phone": memref<15xi8>, "c_acctbal": f64, "c_mktsegment": memref<10xi8>, "c_comment": memref<117xi8>> -> i32
  %fieldnode_45 = sdql.access_record %c "c_phone" : record<"c_custkey": i32, "c_name": memref<25xi8>, "c_address": memref<40xi8>, "c_nationkey": i32, "c_phone": memref<15xi8>, "c_acctbal": f64, "c_mktsegment": memref<10xi8>, "c_comment": memref<117xi8>> -> memref<15xi8>
  %fieldnode_46 = sdql.access_record %c "c_comment" : record<"c_custkey": i32, "c_name": memref<25xi8>, "c_address": memref<40xi8>, "c_nationkey": i32, "c_phone": memref<15xi8>, "c_acctbal": f64, "c_mktsegment": memref<10xi8>, "c_comment": memref<117xi8>> -> memref<117xi8>
  %recnode_47 = sdql.create_record {fields = ["_", "_", "_", "_", "_", "_", "_"]} %fieldnode_40, %fieldnode_41, %fieldnode_42, %fieldnode_43, %fieldnode_44, %fieldnode_45, %fieldnode_46 : i32, memref<25xi8>, f64, memref<40xi8>, i32, memref<15xi8>, memref<117xi8> -> record<"_": i32, "_": memref<25xi8>, "_": f64, "_": memref<40xi8>, "_": i32, "_": memref<15xi8>, "_": memref<117xi8>>
  %dict_37 = sdql.create_dictionary %uniq_38, %recnode_47 : i32, record<"_" : i32, "_" : memref<25xi8>, "_" : f64, "_" : memref<40xi8>, "_" : i32, "_" : memref<15xi8>, "_" : memref<117xi8>> -> dictionary<i32, record<"_" : i32, "_" : memref<25xi8>, "_" : f64, "_" : memref<40xi8>, "_" : i32, "_" : memref<15xi8>, "_" : memref<117xi8>>>
  sdql.yield %dict_37 : dictionary<i32, record<"_" : i32, "_" : memref<25xi8>, "_" : f64, "_" : memref<40xi8>, "_" : i32, "_" : memref<15xi8>, "_" : memref<117xi8>>>
}
%fieldnode_48 = sdql.access_record %orders "size" : record<"o_orderkey": dictionary<i32, i32>, "o_custkey": dictionary<i32, i32>, "o_orderstatus": dictionary<i32, memref<1xi8>>, "o_totalprice": dictionary<i32, f64>, "o_orderdate": dictionary<i32, i32>, "o_orderpriority": dictionary<i32, memref<15xi8>>, "o_clerk": dictionary<i32, memref<15xi8>>, "o_shippriority": dictionary<i32, i32>, "o_comment": dictionary<i32, memref<79xi8>>, "size": i32> -> i32
%rangenode_49 = "func.call"(%fieldnode_48) <{callee = @range_builtin}> : (i32) -> dictionary<i32, i32>
%o_h = sdql.sum %rangenode_49 : dictionary<i32, i32> -> dictionary<i32, record<"c_custkey" : i32, "c_name" : memref<25xi8>, "c_acctbal" : f64, "c_address" : memref<40xi8>, "c_phone" : memref<15xi8>, "c_comment" : memref<117xi8>, "n_name" : memref<25xi8>>> {
^bb_50(%i: i32, %_: i32):
  %fieldnode_52 = sdql.access_record %orders "o_orderkey" : record<"o_orderkey": dictionary<i32, i32>, "o_custkey": dictionary<i32, i32>, "o_orderstatus": dictionary<i32, memref<1xi8>>, "o_totalprice": dictionary<i32, f64>, "o_orderdate": dictionary<i32, i32>, "o_orderpriority": dictionary<i32, memref<15xi8>>, "o_clerk": dictionary<i32, memref<15xi8>>, "o_shippriority": dictionary<i32, i32>, "o_comment": dictionary<i32, memref<79xi8>>, "size": i32> -> dictionary<i32, i32>
  %get_51 = sdql.lookup_dictionary %fieldnode_52 [%i : i32] : dictionary<i32, i32> -> i32
  %fieldnode_54 = sdql.access_record %orders "o_custkey" : record<"o_orderkey": dictionary<i32, i32>, "o_custkey": dictionary<i32, i32>, "o_orderstatus": dictionary<i32, memref<1xi8>>, "o_totalprice": dictionary<i32, f64>, "o_orderdate": dictionary<i32, i32>, "o_orderpriority": dictionary<i32, memref<15xi8>>, "o_clerk": dictionary<i32, memref<15xi8>>, "o_shippriority": dictionary<i32, i32>, "o_comment": dictionary<i32, memref<79xi8>>, "size": i32> -> dictionary<i32, i32>
  %get_53 = sdql.lookup_dictionary %fieldnode_54 [%i : i32] : dictionary<i32, i32> -> i32
  %fieldnode_56 = sdql.access_record %orders "o_orderstatus" : record<"o_orderkey": dictionary<i32, i32>, "o_custkey": dictionary<i32, i32>, "o_orderstatus": dictionary<i32, memref<1xi8>>, "o_totalprice": dictionary<i32, f64>, "o_orderdate": dictionary<i32, i32>, "o_orderpriority": dictionary<i32, memref<15xi8>>, "o_clerk": dictionary<i32, memref<15xi8>>, "o_shippriority": dictionary<i32, i32>, "o_comment": dictionary<i32, memref<79xi8>>, "size": i32> -> dictionary<i32, memref<1xi8>>
  %get_55 = sdql.lookup_dictionary %fieldnode_56 [%i : i32] : dictionary<i32, memref<1xi8>> -> memref<1xi8>
  %fieldnode_58 = sdql.access_record %orders "o_totalprice" : record<"o_orderkey": dictionary<i32, i32>, "o_custkey": dictionary<i32, i32>, "o_orderstatus": dictionary<i32, memref<1xi8>>, "o_totalprice": dictionary<i32, f64>, "o_orderdate": dictionary<i32, i32>, "o_orderpriority": dictionary<i32, memref<15xi8>>, "o_clerk": dictionary<i32, memref<15xi8>>, "o_shippriority": dictionary<i32, i32>, "o_comment": dictionary<i32, memref<79xi8>>, "size": i32> -> dictionary<i32, f64>
  %get_57 = sdql.lookup_dictionary %fieldnode_58 [%i : i32] : dictionary<i32, f64> -> f64
  %fieldnode_60 = sdql.access_record %orders "o_orderdate" : record<"o_orderkey": dictionary<i32, i32>, "o_custkey": dictionary<i32, i32>, "o_orderstatus": dictionary<i32, memref<1xi8>>, "o_totalprice": dictionary<i32, f64>, "o_orderdate": dictionary<i32, i32>, "o_orderpriority": dictionary<i32, memref<15xi8>>, "o_clerk": dictionary<i32, memref<15xi8>>, "o_shippriority": dictionary<i32, i32>, "o_comment": dictionary<i32, memref<79xi8>>, "size": i32> -> dictionary<i32, i32>
  %get_59 = sdql.lookup_dictionary %fieldnode_60 [%i : i32] : dictionary<i32, i32> -> i32
  %fieldnode_62 = sdql.access_record %orders "o_orderpriority" : record<"o_orderkey": dictionary<i32, i32>, "o_custkey": dictionary<i32, i32>, "o_orderstatus": dictionary<i32, memref<1xi8>>, "o_totalprice": dictionary<i32, f64>, "o_orderdate": dictionary<i32, i32>, "o_orderpriority": dictionary<i32, memref<15xi8>>, "o_clerk": dictionary<i32, memref<15xi8>>, "o_shippriority": dictionary<i32, i32>, "o_comment": dictionary<i32, memref<79xi8>>, "size": i32> -> dictionary<i32, memref<15xi8>>
  %get_61 = sdql.lookup_dictionary %fieldnode_62 [%i : i32] : dictionary<i32, memref<15xi8>> -> memref<15xi8>
  %fieldnode_64 = sdql.access_record %orders "o_clerk" : record<"o_orderkey": dictionary<i32, i32>, "o_custkey": dictionary<i32, i32>, "o_orderstatus": dictionary<i32, memref<1xi8>>, "o_totalprice": dictionary<i32, f64>, "o_orderdate": dictionary<i32, i32>, "o_orderpriority": dictionary<i32, memref<15xi8>>, "o_clerk": dictionary<i32, memref<15xi8>>, "o_shippriority": dictionary<i32, i32>, "o_comment": dictionary<i32, memref<79xi8>>, "size": i32> -> dictionary<i32, memref<15xi8>>
  %get_63 = sdql.lookup_dictionary %fieldnode_64 [%i : i32] : dictionary<i32, memref<15xi8>> -> memref<15xi8>
  %fieldnode_66 = sdql.access_record %orders "o_shippriority" : record<"o_orderkey": dictionary<i32, i32>, "o_custkey": dictionary<i32, i32>, "o_orderstatus": dictionary<i32, memref<1xi8>>, "o_totalprice": dictionary<i32, f64>, "o_orderdate": dictionary<i32, i32>, "o_orderpriority": dictionary<i32, memref<15xi8>>, "o_clerk": dictionary<i32, memref<15xi8>>, "o_shippriority": dictionary<i32, i32>, "o_comment": dictionary<i32, memref<79xi8>>, "size": i32> -> dictionary<i32, i32>
  %get_65 = sdql.lookup_dictionary %fieldnode_66 [%i : i32] : dictionary<i32, i32> -> i32
  %fieldnode_68 = sdql.access_record %orders "o_comment" : record<"o_orderkey": dictionary<i32, i32>, "o_custkey": dictionary<i32, i32>, "o_orderstatus": dictionary<i32, memref<1xi8>>, "o_totalprice": dictionary<i32, f64>, "o_orderdate": dictionary<i32, i32>, "o_orderpriority": dictionary<i32, memref<15xi8>>, "o_clerk": dictionary<i32, memref<15xi8>>, "o_shippriority": dictionary<i32, i32>, "o_comment": dictionary<i32, memref<79xi8>>, "size": i32> -> dictionary<i32, memref<79xi8>>
  %get_67 = sdql.lookup_dictionary %fieldnode_68 [%i : i32] : dictionary<i32, memref<79xi8>> -> memref<79xi8>
  %o = sdql.create_record {fields = ["o_orderkey", "o_custkey", "o_orderstatus", "o_totalprice", "o_orderdate", "o_orderpriority", "o_clerk", "o_shippriority", "o_comment"]} %get_51, %get_53, %get_55, %get_57, %get_59, %get_61, %get_63, %get_65, %get_67 : i32, i32, memref<1xi8>, f64, i32, memref<15xi8>, memref<15xi8>, i32, memref<79xi8> -> record<"o_orderkey": i32, "o_custkey": i32, "o_orderstatus": memref<1xi8>, "o_totalprice": f64, "o_orderdate": i32, "o_orderpriority": memref<15xi8>, "o_clerk": memref<15xi8>, "o_shippriority": i32, "o_comment": memref<79xi8>>
  %constda_69 = "arith.constant"() <{value = 19931001 : i32}> : () -> i32
  %fieldnode_70 = sdql.access_record %o "o_orderdate" : record<"o_orderkey": i32, "o_custkey": i32, "o_orderstatus": memref<1xi8>, "o_totalprice": f64, "o_orderdate": i32, "o_orderpriority": memref<15xi8>, "o_clerk": memref<15xi8>, "o_shippriority": i32, "o_comment": memref<79xi8>> -> i32
  %cmpi_71 = "arith.cmpi"(%constda_69, %fieldnode_70) <{predicate = 3}> : (i32, i32) -> i1
  %if_72 = "scf.if"(%cmpi_71) ({
    %fieldnode_73 = sdql.access_record %o "o_orderdate" : record<"o_orderkey": i32, "o_custkey": i32, "o_orderstatus": memref<1xi8>, "o_totalprice": f64, "o_orderdate": i32, "o_orderpriority": memref<15xi8>, "o_clerk": memref<15xi8>, "o_shippriority": i32, "o_comment": memref<79xi8>> -> i32
    %constda_74 = "arith.constant"() <{value = 19940101 : i32}> : () -> i32
    %cmpi_75 = "arith.cmpi"(%fieldnode_73, %constda_74) <{predicate = 2}> : (i32, i32) -> i1
    "scf.yield"(%cmpi_75) : (i1) -> ()
  }, {
    %constv_76 = "arith.constant"() <{value = 0 : i1}> : () -> i1
    "scf.yield"(%constv_76) : (i1) -> ()
  }) : (i1) -> i1
  %if_77 = "scf.if"(%if_72) ({
    %fieldnode_81 = sdql.access_record %o "o_custkey" : record<"o_orderkey": i32, "o_custkey": i32, "o_orderstatus": memref<1xi8>, "o_totalprice": f64, "o_orderdate": i32, "o_orderpriority": memref<15xi8>, "o_clerk": memref<15xi8>, "o_shippriority": i32, "o_comment": memref<79xi8>> -> i32
    %get_80 = sdql.lookup_dictionary %c_h [%fieldnode_81 : i32] : dictionary<i32, record<"_" : i32, "_" : memref<25xi8>, "_" : f64, "_" : memref<40xi8>, "_" : i32, "_" : memref<15xi8>, "_" : memref<117xi8>>> -> record<"_" : i32, "_" : memref<25xi8>, "_" : f64, "_" : memref<40xi8>, "_" : i32, "_" : memref<15xi8>, "_" : memref<117xi8>>
    %dict_82 = sdql.empty_dictionary : record<"_" : i32, "_" : memref<25xi8>, "_" : f64, "_" : memref<40xi8>, "_" : i32, "_" : memref<15xi8>, "_" : memref<117xi8>>
    %cmp_83 = sdql.cmp %get_80, %dict_82 : record<"_" : i32, "_" : memref<25xi8>, "_" : f64, "_" : memref<40xi8>, "_" : i32, "_" : memref<15xi8>, "_" : memref<117xi8>>, record<"_" : i32, "_" : memref<25xi8>, "_" : f64, "_" : memref<40xi8>, "_" : i32, "_" : memref<15xi8>, "_" : memref<117xi8>> -> i1
    %zero_78 = "arith.constant"() <{value = 0 : i1}> : () -> i1
    %neg_79 = "arith.cmpi"(%cmp_83, %zero_78) <{predicate = 0}> : (i1, i1) -> i1
    "scf.yield"(%neg_79) : (i1) -> ()
  }, {
    %constv_84 = "arith.constant"() <{value = 0 : i1}> : () -> i1
    "scf.yield"(%constv_84) : (i1) -> ()
  }) : (i1) -> i1
  %if_85 = "scf.if"(%if_77) ({
    %fieldnode_88 = sdql.access_record %o "o_orderkey" : record<"o_orderkey": i32, "o_custkey": i32, "o_orderstatus": memref<1xi8>, "o_totalprice": f64, "o_orderdate": i32, "o_orderpriority": memref<15xi8>, "o_clerk": memref<15xi8>, "o_shippriority": i32, "o_comment": memref<79xi8>> -> i32
    %uniq_87 = sdql.unique %fieldnode_88 : i32 -> i32
    %fieldnode_91 = sdql.access_record %o "o_custkey" : record<"o_orderkey": i32, "o_custkey": i32, "o_orderstatus": memref<1xi8>, "o_totalprice": f64, "o_orderdate": i32, "o_orderpriority": memref<15xi8>, "o_clerk": memref<15xi8>, "o_shippriority": i32, "o_comment": memref<79xi8>> -> i32
    %get_90 = sdql.lookup_dictionary %c_h [%fieldnode_91 : i32] : dictionary<i32, record<"_" : i32, "_" : memref<25xi8>, "_" : f64, "_" : memref<40xi8>, "_" : i32, "_" : memref<15xi8>, "_" : memref<117xi8>>> -> record<"_" : i32, "_" : memref<25xi8>, "_" : f64, "_" : memref<40xi8>, "_" : i32, "_" : memref<15xi8>, "_" : memref<117xi8>>
    %consti_92 = "arith.constant"() <{value = 0 : i32}> : () -> i32
    %get_89 = sdql.access_record %get_90 "%consti_92" : record<"_" : i32, "_" : memref<25xi8>, "_" : f64, "_" : memref<40xi8>, "_" : i32, "_" : memref<15xi8>, "_" : memref<117xi8>> -> i32
    %fieldnode_95 = sdql.access_record %o "o_custkey" : record<"o_orderkey": i32, "o_custkey": i32, "o_orderstatus": memref<1xi8>, "o_totalprice": f64, "o_orderdate": i32, "o_orderpriority": memref<15xi8>, "o_clerk": memref<15xi8>, "o_shippriority": i32, "o_comment": memref<79xi8>> -> i32
    %get_94 = sdql.lookup_dictionary %c_h [%fieldnode_95 : i32] : dictionary<i32, record<"_" : i32, "_" : memref<25xi8>, "_" : f64, "_" : memref<40xi8>, "_" : i32, "_" : memref<15xi8>, "_" : memref<117xi8>>> -> record<"_" : i32, "_" : memref<25xi8>, "_" : f64, "_" : memref<40xi8>, "_" : i32, "_" : memref<15xi8>, "_" : memref<117xi8>>
    %consti_96 = "arith.constant"() <{value = 1 : i32}> : () -> i32
    %get_93 = sdql.access_record %get_94 "%consti_96" : record<"_" : i32, "_" : memref<25xi8>, "_" : f64, "_" : memref<40xi8>, "_" : i32, "_" : memref<15xi8>, "_" : memref<117xi8>> -> memref<25xi8>
    %fieldnode_99 = sdql.access_record %o "o_custkey" : record<"o_orderkey": i32, "o_custkey": i32, "o_orderstatus": memref<1xi8>, "o_totalprice": f64, "o_orderdate": i32, "o_orderpriority": memref<15xi8>, "o_clerk": memref<15xi8>, "o_shippriority": i32, "o_comment": memref<79xi8>> -> i32
    %get_98 = sdql.lookup_dictionary %c_h [%fieldnode_99 : i32] : dictionary<i32, record<"_" : i32, "_" : memref<25xi8>, "_" : f64, "_" : memref<40xi8>, "_" : i32, "_" : memref<15xi8>, "_" : memref<117xi8>>> -> record<"_" : i32, "_" : memref<25xi8>, "_" : f64, "_" : memref<40xi8>, "_" : i32, "_" : memref<15xi8>, "_" : memref<117xi8>>
    %consti_100 = "arith.constant"() <{value = 2 : i32}> : () -> i32
    %get_97 = sdql.access_record %get_98 "%consti_100" : record<"_" : i32, "_" : memref<25xi8>, "_" : f64, "_" : memref<40xi8>, "_" : i32, "_" : memref<15xi8>, "_" : memref<117xi8>> -> f64
    %fieldnode_103 = sdql.access_record %o "o_custkey" : record<"o_orderkey": i32, "o_custkey": i32, "o_orderstatus": memref<1xi8>, "o_totalprice": f64, "o_orderdate": i32, "o_orderpriority": memref<15xi8>, "o_clerk": memref<15xi8>, "o_shippriority": i32, "o_comment": memref<79xi8>> -> i32
    %get_102 = sdql.lookup_dictionary %c_h [%fieldnode_103 : i32] : dictionary<i32, record<"_" : i32, "_" : memref<25xi8>, "_" : f64, "_" : memref<40xi8>, "_" : i32, "_" : memref<15xi8>, "_" : memref<117xi8>>> -> record<"_" : i32, "_" : memref<25xi8>, "_" : f64, "_" : memref<40xi8>, "_" : i32, "_" : memref<15xi8>, "_" : memref<117xi8>>
    %consti_104 = "arith.constant"() <{value = 3 : i32}> : () -> i32
    %get_101 = sdql.access_record %get_102 "%consti_104" : record<"_" : i32, "_" : memref<25xi8>, "_" : f64, "_" : memref<40xi8>, "_" : i32, "_" : memref<15xi8>, "_" : memref<117xi8>> -> memref<40xi8>
    %fieldnode_107 = sdql.access_record %o "o_custkey" : record<"o_orderkey": i32, "o_custkey": i32, "o_orderstatus": memref<1xi8>, "o_totalprice": f64, "o_orderdate": i32, "o_orderpriority": memref<15xi8>, "o_clerk": memref<15xi8>, "o_shippriority": i32, "o_comment": memref<79xi8>> -> i32
    %get_106 = sdql.lookup_dictionary %c_h [%fieldnode_107 : i32] : dictionary<i32, record<"_" : i32, "_" : memref<25xi8>, "_" : f64, "_" : memref<40xi8>, "_" : i32, "_" : memref<15xi8>, "_" : memref<117xi8>>> -> record<"_" : i32, "_" : memref<25xi8>, "_" : f64, "_" : memref<40xi8>, "_" : i32, "_" : memref<15xi8>, "_" : memref<117xi8>>
    %consti_108 = "arith.constant"() <{value = 5 : i32}> : () -> i32
    %get_105 = sdql.access_record %get_106 "%consti_108" : record<"_" : i32, "_" : memref<25xi8>, "_" : f64, "_" : memref<40xi8>, "_" : i32, "_" : memref<15xi8>, "_" : memref<117xi8>> -> memref<15xi8>
    %fieldnode_111 = sdql.access_record %o "o_custkey" : record<"o_orderkey": i32, "o_custkey": i32, "o_orderstatus": memref<1xi8>, "o_totalprice": f64, "o_orderdate": i32, "o_orderpriority": memref<15xi8>, "o_clerk": memref<15xi8>, "o_shippriority": i32, "o_comment": memref<79xi8>> -> i32
    %get_110 = sdql.lookup_dictionary %c_h [%fieldnode_111 : i32] : dictionary<i32, record<"_" : i32, "_" : memref<25xi8>, "_" : f64, "_" : memref<40xi8>, "_" : i32, "_" : memref<15xi8>, "_" : memref<117xi8>>> -> record<"_" : i32, "_" : memref<25xi8>, "_" : f64, "_" : memref<40xi8>, "_" : i32, "_" : memref<15xi8>, "_" : memref<117xi8>>
    %consti_112 = "arith.constant"() <{value = 6 : i32}> : () -> i32
    %get_109 = sdql.access_record %get_110 "%consti_112" : record<"_" : i32, "_" : memref<25xi8>, "_" : f64, "_" : memref<40xi8>, "_" : i32, "_" : memref<15xi8>, "_" : memref<117xi8>> -> memref<117xi8>
    %fieldnode_117 = sdql.access_record %o "o_custkey" : record<"o_orderkey": i32, "o_custkey": i32, "o_orderstatus": memref<1xi8>, "o_totalprice": f64, "o_orderdate": i32, "o_orderpriority": memref<15xi8>, "o_clerk": memref<15xi8>, "o_shippriority": i32, "o_comment": memref<79xi8>> -> i32
    %get_116 = sdql.lookup_dictionary %c_h [%fieldnode_117 : i32] : dictionary<i32, record<"_" : i32, "_" : memref<25xi8>, "_" : f64, "_" : memref<40xi8>, "_" : i32, "_" : memref<15xi8>, "_" : memref<117xi8>>> -> record<"_" : i32, "_" : memref<25xi8>, "_" : f64, "_" : memref<40xi8>, "_" : i32, "_" : memref<15xi8>, "_" : memref<117xi8>>
    %consti_118 = "arith.constant"() <{value = 4 : i32}> : () -> i32
    %get_115 = sdql.access_record %get_116 "%consti_118" : record<"_" : i32, "_" : memref<25xi8>, "_" : f64, "_" : memref<40xi8>, "_" : i32, "_" : memref<15xi8>, "_" : memref<117xi8>> -> i32
    %get_114 = sdql.lookup_dictionary %n_h [%get_115 : i32] : dictionary<i32, record<"_" : memref<25xi8>>> -> record<"_" : memref<25xi8>>
    %consti_119 = "arith.constant"() <{value = 0 : i32}> : () -> i32
    %get_113 = sdql.access_record %get_114 "%consti_119" : record<"_" : memref<25xi8>> -> memref<25xi8>
    %recnode_120 = sdql.create_record {fields = ["c_custkey", "c_name", "c_acctbal", "c_address", "c_phone", "c_comment", "n_name"]} %get_89, %get_93, %get_97, %get_101, %get_105, %get_109, %get_113 : i32, memref<25xi8>, f64, memref<40xi8>, memref<15xi8>, memref<117xi8>, memref<25xi8> -> record<"c_custkey": i32, "c_name": memref<25xi8>, "c_acctbal": f64, "c_address": memref<40xi8>, "c_phone": memref<15xi8>, "c_comment": memref<117xi8>, "n_name": memref<25xi8>>
    %dict_86 = sdql.create_dictionary %uniq_87, %recnode_120 : i32, record<"c_custkey" : i32, "c_name" : memref<25xi8>, "c_acctbal" : f64, "c_address" : memref<40xi8>, "c_phone" : memref<15xi8>, "c_comment" : memref<117xi8>, "n_name" : memref<25xi8>> -> dictionary<i32, record<"c_custkey" : i32, "c_name" : memref<25xi8>, "c_acctbal" : f64, "c_address" : memref<40xi8>, "c_phone" : memref<15xi8>, "c_comment" : memref<117xi8>, "n_name" : memref<25xi8>>>
    "scf.yield"(%dict_86) : (dictionary<i32, record<"c_custkey" : i32, "c_name" : memref<25xi8>, "c_acctbal" : f64, "c_address" : memref<40xi8>, "c_phone" : memref<15xi8>, "c_comment" : memref<117xi8>, "n_name" : memref<25xi8>>>) -> ()
  }, {
    %dict_121 = sdql.empty_dictionary : dictionary<i32, record<"c_custkey" : i32, "c_name" : memref<25xi8>, "c_acctbal" : f64, "c_address" : memref<40xi8>, "c_phone" : memref<15xi8>, "c_comment" : memref<117xi8>, "n_name" : memref<25xi8>>>
    "scf.yield"(%dict_121) : (dictionary<i32, record<"c_custkey" : i32, "c_name" : memref<25xi8>, "c_acctbal" : f64, "c_address" : memref<40xi8>, "c_phone" : memref<15xi8>, "c_comment" : memref<117xi8>, "n_name" : memref<25xi8>>>) -> ()
  }) : (i1) -> dictionary<i32, record<"c_custkey" : i32, "c_name" : memref<25xi8>, "c_acctbal" : f64, "c_address" : memref<40xi8>, "c_phone" : memref<15xi8>, "c_comment" : memref<117xi8>, "n_name" : memref<25xi8>>>
  sdql.yield %if_85 : dictionary<i32, record<"c_custkey" : i32, "c_name" : memref<25xi8>, "c_acctbal" : f64, "c_address" : memref<40xi8>, "c_phone" : memref<15xi8>, "c_comment" : memref<117xi8>, "n_name" : memref<25xi8>>>
}
%fieldnode_122 = sdql.access_record %lineitem "size" : record<"l_orderkey": dictionary<i32, i32>, "l_partkey": dictionary<i32, i32>, "l_suppkey": dictionary<i32, i32>, "l_linenumber": dictionary<i32, i32>, "l_quantity": dictionary<i32, f64>, "l_extendedprice": dictionary<i32, f64>, "l_discount": dictionary<i32, f64>, "l_tax": dictionary<i32, f64>, "l_returnflag": dictionary<i32, memref<1xi8>>, "l_linestatus": dictionary<i32, memref<1xi8>>, "l_shipdate": dictionary<i32, i32>, "l_commitdate": dictionary<i32, i32>, "l_receiptdate": dictionary<i32, i32>, "l_shipinstruct": dictionary<i32, memref<25xi8>>, "l_shipmode": dictionary<i32, memref<10xi8>>, "l_comment": dictionary<i32, memref<44xi8>>, "size": i32> -> i32
%rangenode_123 = "func.call"(%fieldnode_122) <{callee = @range_builtin}> : (i32) -> dictionary<i32, i32>
%l_h = sdql.sum %rangenode_123 : dictionary<i32, i32> -> dictionary<record<"c_custkey" : i32, "c_name" : memref<25xi8>, "c_acctbal" : f64, "n_name" : memref<25xi8>, "c_address" : memref<40xi8>, "c_phone" : memref<15xi8>, "c_comment" : memref<117xi8>>, f64> {
^bb_124(%i: i32, %_: i32):
  %fieldnode_126 = sdql.access_record %lineitem "l_orderkey" : record<"l_orderkey": dictionary<i32, i32>, "l_partkey": dictionary<i32, i32>, "l_suppkey": dictionary<i32, i32>, "l_linenumber": dictionary<i32, i32>, "l_quantity": dictionary<i32, f64>, "l_extendedprice": dictionary<i32, f64>, "l_discount": dictionary<i32, f64>, "l_tax": dictionary<i32, f64>, "l_returnflag": dictionary<i32, memref<1xi8>>, "l_linestatus": dictionary<i32, memref<1xi8>>, "l_shipdate": dictionary<i32, i32>, "l_commitdate": dictionary<i32, i32>, "l_receiptdate": dictionary<i32, i32>, "l_shipinstruct": dictionary<i32, memref<25xi8>>, "l_shipmode": dictionary<i32, memref<10xi8>>, "l_comment": dictionary<i32, memref<44xi8>>, "size": i32> -> dictionary<i32, i32>
  %get_125 = sdql.lookup_dictionary %fieldnode_126 [%i : i32] : dictionary<i32, i32> -> i32
  %fieldnode_128 = sdql.access_record %lineitem "l_partkey" : record<"l_orderkey": dictionary<i32, i32>, "l_partkey": dictionary<i32, i32>, "l_suppkey": dictionary<i32, i32>, "l_linenumber": dictionary<i32, i32>, "l_quantity": dictionary<i32, f64>, "l_extendedprice": dictionary<i32, f64>, "l_discount": dictionary<i32, f64>, "l_tax": dictionary<i32, f64>, "l_returnflag": dictionary<i32, memref<1xi8>>, "l_linestatus": dictionary<i32, memref<1xi8>>, "l_shipdate": dictionary<i32, i32>, "l_commitdate": dictionary<i32, i32>, "l_receiptdate": dictionary<i32, i32>, "l_shipinstruct": dictionary<i32, memref<25xi8>>, "l_shipmode": dictionary<i32, memref<10xi8>>, "l_comment": dictionary<i32, memref<44xi8>>, "size": i32> -> dictionary<i32, i32>
  %get_127 = sdql.lookup_dictionary %fieldnode_128 [%i : i32] : dictionary<i32, i32> -> i32
  %fieldnode_130 = sdql.access_record %lineitem "l_suppkey" : record<"l_orderkey": dictionary<i32, i32>, "l_partkey": dictionary<i32, i32>, "l_suppkey": dictionary<i32, i32>, "l_linenumber": dictionary<i32, i32>, "l_quantity": dictionary<i32, f64>, "l_extendedprice": dictionary<i32, f64>, "l_discount": dictionary<i32, f64>, "l_tax": dictionary<i32, f64>, "l_returnflag": dictionary<i32, memref<1xi8>>, "l_linestatus": dictionary<i32, memref<1xi8>>, "l_shipdate": dictionary<i32, i32>, "l_commitdate": dictionary<i32, i32>, "l_receiptdate": dictionary<i32, i32>, "l_shipinstruct": dictionary<i32, memref<25xi8>>, "l_shipmode": dictionary<i32, memref<10xi8>>, "l_comment": dictionary<i32, memref<44xi8>>, "size": i32> -> dictionary<i32, i32>
  %get_129 = sdql.lookup_dictionary %fieldnode_130 [%i : i32] : dictionary<i32, i32> -> i32
  %fieldnode_132 = sdql.access_record %lineitem "l_linenumber" : record<"l_orderkey": dictionary<i32, i32>, "l_partkey": dictionary<i32, i32>, "l_suppkey": dictionary<i32, i32>, "l_linenumber": dictionary<i32, i32>, "l_quantity": dictionary<i32, f64>, "l_extendedprice": dictionary<i32, f64>, "l_discount": dictionary<i32, f64>, "l_tax": dictionary<i32, f64>, "l_returnflag": dictionary<i32, memref<1xi8>>, "l_linestatus": dictionary<i32, memref<1xi8>>, "l_shipdate": dictionary<i32, i32>, "l_commitdate": dictionary<i32, i32>, "l_receiptdate": dictionary<i32, i32>, "l_shipinstruct": dictionary<i32, memref<25xi8>>, "l_shipmode": dictionary<i32, memref<10xi8>>, "l_comment": dictionary<i32, memref<44xi8>>, "size": i32> -> dictionary<i32, i32>
  %get_131 = sdql.lookup_dictionary %fieldnode_132 [%i : i32] : dictionary<i32, i32> -> i32
  %fieldnode_134 = sdql.access_record %lineitem "l_quantity" : record<"l_orderkey": dictionary<i32, i32>, "l_partkey": dictionary<i32, i32>, "l_suppkey": dictionary<i32, i32>, "l_linenumber": dictionary<i32, i32>, "l_quantity": dictionary<i32, f64>, "l_extendedprice": dictionary<i32, f64>, "l_discount": dictionary<i32, f64>, "l_tax": dictionary<i32, f64>, "l_returnflag": dictionary<i32, memref<1xi8>>, "l_linestatus": dictionary<i32, memref<1xi8>>, "l_shipdate": dictionary<i32, i32>, "l_commitdate": dictionary<i32, i32>, "l_receiptdate": dictionary<i32, i32>, "l_shipinstruct": dictionary<i32, memref<25xi8>>, "l_shipmode": dictionary<i32, memref<10xi8>>, "l_comment": dictionary<i32, memref<44xi8>>, "size": i32> -> dictionary<i32, f64>
  %get_133 = sdql.lookup_dictionary %fieldnode_134 [%i : i32] : dictionary<i32, f64> -> f64
  %fieldnode_136 = sdql.access_record %lineitem "l_extendedprice" : record<"l_orderkey": dictionary<i32, i32>, "l_partkey": dictionary<i32, i32>, "l_suppkey": dictionary<i32, i32>, "l_linenumber": dictionary<i32, i32>, "l_quantity": dictionary<i32, f64>, "l_extendedprice": dictionary<i32, f64>, "l_discount": dictionary<i32, f64>, "l_tax": dictionary<i32, f64>, "l_returnflag": dictionary<i32, memref<1xi8>>, "l_linestatus": dictionary<i32, memref<1xi8>>, "l_shipdate": dictionary<i32, i32>, "l_commitdate": dictionary<i32, i32>, "l_receiptdate": dictionary<i32, i32>, "l_shipinstruct": dictionary<i32, memref<25xi8>>, "l_shipmode": dictionary<i32, memref<10xi8>>, "l_comment": dictionary<i32, memref<44xi8>>, "size": i32> -> dictionary<i32, f64>
  %get_135 = sdql.lookup_dictionary %fieldnode_136 [%i : i32] : dictionary<i32, f64> -> f64
  %fieldnode_138 = sdql.access_record %lineitem "l_discount" : record<"l_orderkey": dictionary<i32, i32>, "l_partkey": dictionary<i32, i32>, "l_suppkey": dictionary<i32, i32>, "l_linenumber": dictionary<i32, i32>, "l_quantity": dictionary<i32, f64>, "l_extendedprice": dictionary<i32, f64>, "l_discount": dictionary<i32, f64>, "l_tax": dictionary<i32, f64>, "l_returnflag": dictionary<i32, memref<1xi8>>, "l_linestatus": dictionary<i32, memref<1xi8>>, "l_shipdate": dictionary<i32, i32>, "l_commitdate": dictionary<i32, i32>, "l_receiptdate": dictionary<i32, i32>, "l_shipinstruct": dictionary<i32, memref<25xi8>>, "l_shipmode": dictionary<i32, memref<10xi8>>, "l_comment": dictionary<i32, memref<44xi8>>, "size": i32> -> dictionary<i32, f64>
  %get_137 = sdql.lookup_dictionary %fieldnode_138 [%i : i32] : dictionary<i32, f64> -> f64
  %fieldnode_140 = sdql.access_record %lineitem "l_tax" : record<"l_orderkey": dictionary<i32, i32>, "l_partkey": dictionary<i32, i32>, "l_suppkey": dictionary<i32, i32>, "l_linenumber": dictionary<i32, i32>, "l_quantity": dictionary<i32, f64>, "l_extendedprice": dictionary<i32, f64>, "l_discount": dictionary<i32, f64>, "l_tax": dictionary<i32, f64>, "l_returnflag": dictionary<i32, memref<1xi8>>, "l_linestatus": dictionary<i32, memref<1xi8>>, "l_shipdate": dictionary<i32, i32>, "l_commitdate": dictionary<i32, i32>, "l_receiptdate": dictionary<i32, i32>, "l_shipinstruct": dictionary<i32, memref<25xi8>>, "l_shipmode": dictionary<i32, memref<10xi8>>, "l_comment": dictionary<i32, memref<44xi8>>, "size": i32> -> dictionary<i32, f64>
  %get_139 = sdql.lookup_dictionary %fieldnode_140 [%i : i32] : dictionary<i32, f64> -> f64
  %fieldnode_142 = sdql.access_record %lineitem "l_returnflag" : record<"l_orderkey": dictionary<i32, i32>, "l_partkey": dictionary<i32, i32>, "l_suppkey": dictionary<i32, i32>, "l_linenumber": dictionary<i32, i32>, "l_quantity": dictionary<i32, f64>, "l_extendedprice": dictionary<i32, f64>, "l_discount": dictionary<i32, f64>, "l_tax": dictionary<i32, f64>, "l_returnflag": dictionary<i32, memref<1xi8>>, "l_linestatus": dictionary<i32, memref<1xi8>>, "l_shipdate": dictionary<i32, i32>, "l_commitdate": dictionary<i32, i32>, "l_receiptdate": dictionary<i32, i32>, "l_shipinstruct": dictionary<i32, memref<25xi8>>, "l_shipmode": dictionary<i32, memref<10xi8>>, "l_comment": dictionary<i32, memref<44xi8>>, "size": i32> -> dictionary<i32, memref<1xi8>>
  %get_141 = sdql.lookup_dictionary %fieldnode_142 [%i : i32] : dictionary<i32, memref<1xi8>> -> memref<1xi8>
  %fieldnode_144 = sdql.access_record %lineitem "l_linestatus" : record<"l_orderkey": dictionary<i32, i32>, "l_partkey": dictionary<i32, i32>, "l_suppkey": dictionary<i32, i32>, "l_linenumber": dictionary<i32, i32>, "l_quantity": dictionary<i32, f64>, "l_extendedprice": dictionary<i32, f64>, "l_discount": dictionary<i32, f64>, "l_tax": dictionary<i32, f64>, "l_returnflag": dictionary<i32, memref<1xi8>>, "l_linestatus": dictionary<i32, memref<1xi8>>, "l_shipdate": dictionary<i32, i32>, "l_commitdate": dictionary<i32, i32>, "l_receiptdate": dictionary<i32, i32>, "l_shipinstruct": dictionary<i32, memref<25xi8>>, "l_shipmode": dictionary<i32, memref<10xi8>>, "l_comment": dictionary<i32, memref<44xi8>>, "size": i32> -> dictionary<i32, memref<1xi8>>
  %get_143 = sdql.lookup_dictionary %fieldnode_144 [%i : i32] : dictionary<i32, memref<1xi8>> -> memref<1xi8>
  %fieldnode_146 = sdql.access_record %lineitem "l_shipdate" : record<"l_orderkey": dictionary<i32, i32>, "l_partkey": dictionary<i32, i32>, "l_suppkey": dictionary<i32, i32>, "l_linenumber": dictionary<i32, i32>, "l_quantity": dictionary<i32, f64>, "l_extendedprice": dictionary<i32, f64>, "l_discount": dictionary<i32, f64>, "l_tax": dictionary<i32, f64>, "l_returnflag": dictionary<i32, memref<1xi8>>, "l_linestatus": dictionary<i32, memref<1xi8>>, "l_shipdate": dictionary<i32, i32>, "l_commitdate": dictionary<i32, i32>, "l_receiptdate": dictionary<i32, i32>, "l_shipinstruct": dictionary<i32, memref<25xi8>>, "l_shipmode": dictionary<i32, memref<10xi8>>, "l_comment": dictionary<i32, memref<44xi8>>, "size": i32> -> dictionary<i32, i32>
  %get_145 = sdql.lookup_dictionary %fieldnode_146 [%i : i32] : dictionary<i32, i32> -> i32
  %fieldnode_148 = sdql.access_record %lineitem "l_commitdate" : record<"l_orderkey": dictionary<i32, i32>, "l_partkey": dictionary<i32, i32>, "l_suppkey": dictionary<i32, i32>, "l_linenumber": dictionary<i32, i32>, "l_quantity": dictionary<i32, f64>, "l_extendedprice": dictionary<i32, f64>, "l_discount": dictionary<i32, f64>, "l_tax": dictionary<i32, f64>, "l_returnflag": dictionary<i32, memref<1xi8>>, "l_linestatus": dictionary<i32, memref<1xi8>>, "l_shipdate": dictionary<i32, i32>, "l_commitdate": dictionary<i32, i32>, "l_receiptdate": dictionary<i32, i32>, "l_shipinstruct": dictionary<i32, memref<25xi8>>, "l_shipmode": dictionary<i32, memref<10xi8>>, "l_comment": dictionary<i32, memref<44xi8>>, "size": i32> -> dictionary<i32, i32>
  %get_147 = sdql.lookup_dictionary %fieldnode_148 [%i : i32] : dictionary<i32, i32> -> i32
  %fieldnode_150 = sdql.access_record %lineitem "l_receiptdate" : record<"l_orderkey": dictionary<i32, i32>, "l_partkey": dictionary<i32, i32>, "l_suppkey": dictionary<i32, i32>, "l_linenumber": dictionary<i32, i32>, "l_quantity": dictionary<i32, f64>, "l_extendedprice": dictionary<i32, f64>, "l_discount": dictionary<i32, f64>, "l_tax": dictionary<i32, f64>, "l_returnflag": dictionary<i32, memref<1xi8>>, "l_linestatus": dictionary<i32, memref<1xi8>>, "l_shipdate": dictionary<i32, i32>, "l_commitdate": dictionary<i32, i32>, "l_receiptdate": dictionary<i32, i32>, "l_shipinstruct": dictionary<i32, memref<25xi8>>, "l_shipmode": dictionary<i32, memref<10xi8>>, "l_comment": dictionary<i32, memref<44xi8>>, "size": i32> -> dictionary<i32, i32>
  %get_149 = sdql.lookup_dictionary %fieldnode_150 [%i : i32] : dictionary<i32, i32> -> i32
  %fieldnode_152 = sdql.access_record %lineitem "l_shipinstruct" : record<"l_orderkey": dictionary<i32, i32>, "l_partkey": dictionary<i32, i32>, "l_suppkey": dictionary<i32, i32>, "l_linenumber": dictionary<i32, i32>, "l_quantity": dictionary<i32, f64>, "l_extendedprice": dictionary<i32, f64>, "l_discount": dictionary<i32, f64>, "l_tax": dictionary<i32, f64>, "l_returnflag": dictionary<i32, memref<1xi8>>, "l_linestatus": dictionary<i32, memref<1xi8>>, "l_shipdate": dictionary<i32, i32>, "l_commitdate": dictionary<i32, i32>, "l_receiptdate": dictionary<i32, i32>, "l_shipinstruct": dictionary<i32, memref<25xi8>>, "l_shipmode": dictionary<i32, memref<10xi8>>, "l_comment": dictionary<i32, memref<44xi8>>, "size": i32> -> dictionary<i32, memref<25xi8>>
  %get_151 = sdql.lookup_dictionary %fieldnode_152 [%i : i32] : dictionary<i32, memref<25xi8>> -> memref<25xi8>
  %fieldnode_154 = sdql.access_record %lineitem "l_shipmode" : record<"l_orderkey": dictionary<i32, i32>, "l_partkey": dictionary<i32, i32>, "l_suppkey": dictionary<i32, i32>, "l_linenumber": dictionary<i32, i32>, "l_quantity": dictionary<i32, f64>, "l_extendedprice": dictionary<i32, f64>, "l_discount": dictionary<i32, f64>, "l_tax": dictionary<i32, f64>, "l_returnflag": dictionary<i32, memref<1xi8>>, "l_linestatus": dictionary<i32, memref<1xi8>>, "l_shipdate": dictionary<i32, i32>, "l_commitdate": dictionary<i32, i32>, "l_receiptdate": dictionary<i32, i32>, "l_shipinstruct": dictionary<i32, memref<25xi8>>, "l_shipmode": dictionary<i32, memref<10xi8>>, "l_comment": dictionary<i32, memref<44xi8>>, "size": i32> -> dictionary<i32, memref<10xi8>>
  %get_153 = sdql.lookup_dictionary %fieldnode_154 [%i : i32] : dictionary<i32, memref<10xi8>> -> memref<10xi8>
  %fieldnode_156 = sdql.access_record %lineitem "l_comment" : record<"l_orderkey": dictionary<i32, i32>, "l_partkey": dictionary<i32, i32>, "l_suppkey": dictionary<i32, i32>, "l_linenumber": dictionary<i32, i32>, "l_quantity": dictionary<i32, f64>, "l_extendedprice": dictionary<i32, f64>, "l_discount": dictionary<i32, f64>, "l_tax": dictionary<i32, f64>, "l_returnflag": dictionary<i32, memref<1xi8>>, "l_linestatus": dictionary<i32, memref<1xi8>>, "l_shipdate": dictionary<i32, i32>, "l_commitdate": dictionary<i32, i32>, "l_receiptdate": dictionary<i32, i32>, "l_shipinstruct": dictionary<i32, memref<25xi8>>, "l_shipmode": dictionary<i32, memref<10xi8>>, "l_comment": dictionary<i32, memref<44xi8>>, "size": i32> -> dictionary<i32, memref<44xi8>>
  %get_155 = sdql.lookup_dictionary %fieldnode_156 [%i : i32] : dictionary<i32, memref<44xi8>> -> memref<44xi8>
  %l = sdql.create_record {fields = ["l_orderkey", "l_partkey", "l_suppkey", "l_linenumber", "l_quantity", "l_extendedprice", "l_discount", "l_tax", "l_returnflag", "l_linestatus", "l_shipdate", "l_commitdate", "l_receiptdate", "l_shipinstruct", "l_shipmode", "l_comment"]} %get_125, %get_127, %get_129, %get_131, %get_133, %get_135, %get_137, %get_139, %get_141, %get_143, %get_145, %get_147, %get_149, %get_151, %get_153, %get_155 : i32, i32, i32, i32, f64, f64, f64, f64, memref<1xi8>, memref<1xi8>, i32, i32, i32, memref<25xi8>, memref<10xi8>, memref<44xi8> -> record<"l_orderkey": i32, "l_partkey": i32, "l_suppkey": i32, "l_linenumber": i32, "l_quantity": f64, "l_extendedprice": f64, "l_discount": f64, "l_tax": f64, "l_returnflag": memref<1xi8>, "l_linestatus": memref<1xi8>, "l_shipdate": i32, "l_commitdate": i32, "l_receiptdate": i32, "l_shipinstruct": memref<25xi8>, "l_shipmode": memref<10xi8>, "l_comment": memref<44xi8>>
  %fieldnode_157 = sdql.access_record %l "l_returnflag" : record<"l_orderkey": i32, "l_partkey": i32, "l_suppkey": i32, "l_linenumber": i32, "l_quantity": f64, "l_extendedprice": f64, "l_discount": f64, "l_tax": f64, "l_returnflag": memref<1xi8>, "l_linestatus": memref<1xi8>, "l_shipdate": i32, "l_commitdate": i32, "l_receiptdate": i32, "l_shipinstruct": memref<25xi8>, "l_shipmode": memref<10xi8>, "l_comment": memref<44xi8>> -> memref<1xi8>
  %cmp_158 = sdql.cmp %fieldnode_157, %r : memref<1xi8>, memref<1xi8> -> i1
  %if_159 = "scf.if"(%cmp_158) ({
    %fieldnode_163 = sdql.access_record %l "l_orderkey" : record<"l_orderkey": i32, "l_partkey": i32, "l_suppkey": i32, "l_linenumber": i32, "l_quantity": f64, "l_extendedprice": f64, "l_discount": f64, "l_tax": f64, "l_returnflag": memref<1xi8>, "l_linestatus": memref<1xi8>, "l_shipdate": i32, "l_commitdate": i32, "l_receiptdate": i32, "l_shipinstruct": memref<25xi8>, "l_shipmode": memref<10xi8>, "l_comment": memref<44xi8>> -> i32
    %get_162 = sdql.lookup_dictionary %o_h [%fieldnode_163 : i32] : dictionary<i32, record<"c_custkey" : i32, "c_name" : memref<25xi8>, "c_acctbal" : f64, "c_address" : memref<40xi8>, "c_phone" : memref<15xi8>, "c_comment" : memref<117xi8>, "n_name" : memref<25xi8>>> -> record<"c_custkey" : i32, "c_name" : memref<25xi8>, "c_acctbal" : f64, "c_address" : memref<40xi8>, "c_phone" : memref<15xi8>, "c_comment" : memref<117xi8>, "n_name" : memref<25xi8>>
    %dict_164 = sdql.empty_dictionary : record<"c_custkey" : i32, "c_name" : memref<25xi8>, "c_acctbal" : f64, "c_address" : memref<40xi8>, "c_phone" : memref<15xi8>, "c_comment" : memref<117xi8>, "n_name" : memref<25xi8>>
    %cmp_165 = sdql.cmp %get_162, %dict_164 : record<"c_custkey" : i32, "c_name" : memref<25xi8>, "c_acctbal" : f64, "c_address" : memref<40xi8>, "c_phone" : memref<15xi8>, "c_comment" : memref<117xi8>, "n_name" : memref<25xi8>>, record<"c_custkey" : i32, "c_name" : memref<25xi8>, "c_acctbal" : f64, "c_address" : memref<40xi8>, "c_phone" : memref<15xi8>, "c_comment" : memref<117xi8>, "n_name" : memref<25xi8>> -> i1
    %zero_160 = "arith.constant"() <{value = 0 : i1}> : () -> i1
    %neg_161 = "arith.cmpi"(%cmp_165, %zero_160) <{predicate = 0}> : (i1, i1) -> i1
    "scf.yield"(%neg_161) : (i1) -> ()
  }, {
    %constv_166 = "arith.constant"() <{value = 0 : i1}> : () -> i1
    "scf.yield"(%constv_166) : (i1) -> ()
  }) : (i1) -> i1
  %if_167 = "scf.if"(%if_159) ({
    %fieldnode_171 = sdql.access_record %l "l_orderkey" : record<"l_orderkey": i32, "l_partkey": i32, "l_suppkey": i32, "l_linenumber": i32, "l_quantity": f64, "l_extendedprice": f64, "l_discount": f64, "l_tax": f64, "l_returnflag": memref<1xi8>, "l_linestatus": memref<1xi8>, "l_shipdate": i32, "l_commitdate": i32, "l_receiptdate": i32, "l_shipinstruct": memref<25xi8>, "l_shipmode": memref<10xi8>, "l_comment": memref<44xi8>> -> i32
    %get_170 = sdql.lookup_dictionary %o_h [%fieldnode_171 : i32] : dictionary<i32, record<"c_custkey" : i32, "c_name" : memref<25xi8>, "c_acctbal" : f64, "c_address" : memref<40xi8>, "c_phone" : memref<15xi8>, "c_comment" : memref<117xi8>, "n_name" : memref<25xi8>>> -> record<"c_custkey" : i32, "c_name" : memref<25xi8>, "c_acctbal" : f64, "c_address" : memref<40xi8>, "c_phone" : memref<15xi8>, "c_comment" : memref<117xi8>, "n_name" : memref<25xi8>>
    %consti_172 = "arith.constant"() <{value = 0 : i32}> : () -> i32
    %get_169 = sdql.access_record %get_170 "%consti_172" : record<"c_custkey" : i32, "c_name" : memref<25xi8>, "c_acctbal" : f64, "c_address" : memref<40xi8>, "c_phone" : memref<15xi8>, "c_comment" : memref<117xi8>, "n_name" : memref<25xi8>> -> i32
    %fieldnode_175 = sdql.access_record %l "l_orderkey" : record<"l_orderkey": i32, "l_partkey": i32, "l_suppkey": i32, "l_linenumber": i32, "l_quantity": f64, "l_extendedprice": f64, "l_discount": f64, "l_tax": f64, "l_returnflag": memref<1xi8>, "l_linestatus": memref<1xi8>, "l_shipdate": i32, "l_commitdate": i32, "l_receiptdate": i32, "l_shipinstruct": memref<25xi8>, "l_shipmode": memref<10xi8>, "l_comment": memref<44xi8>> -> i32
    %get_174 = sdql.lookup_dictionary %o_h [%fieldnode_175 : i32] : dictionary<i32, record<"c_custkey" : i32, "c_name" : memref<25xi8>, "c_acctbal" : f64, "c_address" : memref<40xi8>, "c_phone" : memref<15xi8>, "c_comment" : memref<117xi8>, "n_name" : memref<25xi8>>> -> record<"c_custkey" : i32, "c_name" : memref<25xi8>, "c_acctbal" : f64, "c_address" : memref<40xi8>, "c_phone" : memref<15xi8>, "c_comment" : memref<117xi8>, "n_name" : memref<25xi8>>
    %consti_176 = "arith.constant"() <{value = 1 : i32}> : () -> i32
    %get_173 = sdql.access_record %get_174 "%consti_176" : record<"c_custkey" : i32, "c_name" : memref<25xi8>, "c_acctbal" : f64, "c_address" : memref<40xi8>, "c_phone" : memref<15xi8>, "c_comment" : memref<117xi8>, "n_name" : memref<25xi8>> -> memref<25xi8>
    %fieldnode_179 = sdql.access_record %l "l_orderkey" : record<"l_orderkey": i32, "l_partkey": i32, "l_suppkey": i32, "l_linenumber": i32, "l_quantity": f64, "l_extendedprice": f64, "l_discount": f64, "l_tax": f64, "l_returnflag": memref<1xi8>, "l_linestatus": memref<1xi8>, "l_shipdate": i32, "l_commitdate": i32, "l_receiptdate": i32, "l_shipinstruct": memref<25xi8>, "l_shipmode": memref<10xi8>, "l_comment": memref<44xi8>> -> i32
    %get_178 = sdql.lookup_dictionary %o_h [%fieldnode_179 : i32] : dictionary<i32, record<"c_custkey" : i32, "c_name" : memref<25xi8>, "c_acctbal" : f64, "c_address" : memref<40xi8>, "c_phone" : memref<15xi8>, "c_comment" : memref<117xi8>, "n_name" : memref<25xi8>>> -> record<"c_custkey" : i32, "c_name" : memref<25xi8>, "c_acctbal" : f64, "c_address" : memref<40xi8>, "c_phone" : memref<15xi8>, "c_comment" : memref<117xi8>, "n_name" : memref<25xi8>>
    %consti_180 = "arith.constant"() <{value = 2 : i32}> : () -> i32
    %get_177 = sdql.access_record %get_178 "%consti_180" : record<"c_custkey" : i32, "c_name" : memref<25xi8>, "c_acctbal" : f64, "c_address" : memref<40xi8>, "c_phone" : memref<15xi8>, "c_comment" : memref<117xi8>, "n_name" : memref<25xi8>> -> f64
    %fieldnode_183 = sdql.access_record %l "l_orderkey" : record<"l_orderkey": i32, "l_partkey": i32, "l_suppkey": i32, "l_linenumber": i32, "l_quantity": f64, "l_extendedprice": f64, "l_discount": f64, "l_tax": f64, "l_returnflag": memref<1xi8>, "l_linestatus": memref<1xi8>, "l_shipdate": i32, "l_commitdate": i32, "l_receiptdate": i32, "l_shipinstruct": memref<25xi8>, "l_shipmode": memref<10xi8>, "l_comment": memref<44xi8>> -> i32
    %get_182 = sdql.lookup_dictionary %o_h [%fieldnode_183 : i32] : dictionary<i32, record<"c_custkey" : i32, "c_name" : memref<25xi8>, "c_acctbal" : f64, "c_address" : memref<40xi8>, "c_phone" : memref<15xi8>, "c_comment" : memref<117xi8>, "n_name" : memref<25xi8>>> -> record<"c_custkey" : i32, "c_name" : memref<25xi8>, "c_acctbal" : f64, "c_address" : memref<40xi8>, "c_phone" : memref<15xi8>, "c_comment" : memref<117xi8>, "n_name" : memref<25xi8>>
    %consti_184 = "arith.constant"() <{value = 6 : i32}> : () -> i32
    %get_181 = sdql.access_record %get_182 "%consti_184" : record<"c_custkey" : i32, "c_name" : memref<25xi8>, "c_acctbal" : f64, "c_address" : memref<40xi8>, "c_phone" : memref<15xi8>, "c_comment" : memref<117xi8>, "n_name" : memref<25xi8>> -> memref<25xi8>
    %fieldnode_187 = sdql.access_record %l "l_orderkey" : record<"l_orderkey": i32, "l_partkey": i32, "l_suppkey": i32, "l_linenumber": i32, "l_quantity": f64, "l_extendedprice": f64, "l_discount": f64, "l_tax": f64, "l_returnflag": memref<1xi8>, "l_linestatus": memref<1xi8>, "l_shipdate": i32, "l_commitdate": i32, "l_receiptdate": i32, "l_shipinstruct": memref<25xi8>, "l_shipmode": memref<10xi8>, "l_comment": memref<44xi8>> -> i32
    %get_186 = sdql.lookup_dictionary %o_h [%fieldnode_187 : i32] : dictionary<i32, record<"c_custkey" : i32, "c_name" : memref<25xi8>, "c_acctbal" : f64, "c_address" : memref<40xi8>, "c_phone" : memref<15xi8>, "c_comment" : memref<117xi8>, "n_name" : memref<25xi8>>> -> record<"c_custkey" : i32, "c_name" : memref<25xi8>, "c_acctbal" : f64, "c_address" : memref<40xi8>, "c_phone" : memref<15xi8>, "c_comment" : memref<117xi8>, "n_name" : memref<25xi8>>
    %consti_188 = "arith.constant"() <{value = 3 : i32}> : () -> i32
    %get_185 = sdql.access_record %get_186 "%consti_188" : record<"c_custkey" : i32, "c_name" : memref<25xi8>, "c_acctbal" : f64, "c_address" : memref<40xi8>, "c_phone" : memref<15xi8>, "c_comment" : memref<117xi8>, "n_name" : memref<25xi8>> -> memref<40xi8>
    %fieldnode_191 = sdql.access_record %l "l_orderkey" : record<"l_orderkey": i32, "l_partkey": i32, "l_suppkey": i32, "l_linenumber": i32, "l_quantity": f64, "l_extendedprice": f64, "l_discount": f64, "l_tax": f64, "l_returnflag": memref<1xi8>, "l_linestatus": memref<1xi8>, "l_shipdate": i32, "l_commitdate": i32, "l_receiptdate": i32, "l_shipinstruct": memref<25xi8>, "l_shipmode": memref<10xi8>, "l_comment": memref<44xi8>> -> i32
    %get_190 = sdql.lookup_dictionary %o_h [%fieldnode_191 : i32] : dictionary<i32, record<"c_custkey" : i32, "c_name" : memref<25xi8>, "c_acctbal" : f64, "c_address" : memref<40xi8>, "c_phone" : memref<15xi8>, "c_comment" : memref<117xi8>, "n_name" : memref<25xi8>>> -> record<"c_custkey" : i32, "c_name" : memref<25xi8>, "c_acctbal" : f64, "c_address" : memref<40xi8>, "c_phone" : memref<15xi8>, "c_comment" : memref<117xi8>, "n_name" : memref<25xi8>>
    %consti_192 = "arith.constant"() <{value = 4 : i32}> : () -> i32
    %get_189 = sdql.access_record %get_190 "%consti_192" : record<"c_custkey" : i32, "c_name" : memref<25xi8>, "c_acctbal" : f64, "c_address" : memref<40xi8>, "c_phone" : memref<15xi8>, "c_comment" : memref<117xi8>, "n_name" : memref<25xi8>> -> memref<15xi8>
    %fieldnode_195 = sdql.access_record %l "l_orderkey" : record<"l_orderkey": i32, "l_partkey": i32, "l_suppkey": i32, "l_linenumber": i32, "l_quantity": f64, "l_extendedprice": f64, "l_discount": f64, "l_tax": f64, "l_returnflag": memref<1xi8>, "l_linestatus": memref<1xi8>, "l_shipdate": i32, "l_commitdate": i32, "l_receiptdate": i32, "l_shipinstruct": memref<25xi8>, "l_shipmode": memref<10xi8>, "l_comment": memref<44xi8>> -> i32
    %get_194 = sdql.lookup_dictionary %o_h [%fieldnode_195 : i32] : dictionary<i32, record<"c_custkey" : i32, "c_name" : memref<25xi8>, "c_acctbal" : f64, "c_address" : memref<40xi8>, "c_phone" : memref<15xi8>, "c_comment" : memref<117xi8>, "n_name" : memref<25xi8>>> -> record<"c_custkey" : i32, "c_name" : memref<25xi8>, "c_acctbal" : f64, "c_address" : memref<40xi8>, "c_phone" : memref<15xi8>, "c_comment" : memref<117xi8>, "n_name" : memref<25xi8>>
    %consti_196 = "arith.constant"() <{value = 5 : i32}> : () -> i32
    %get_193 = sdql.access_record %get_194 "%consti_196" : record<"c_custkey" : i32, "c_name" : memref<25xi8>, "c_acctbal" : f64, "c_address" : memref<40xi8>, "c_phone" : memref<15xi8>, "c_comment" : memref<117xi8>, "n_name" : memref<25xi8>> -> memref<117xi8>
    %recnode_197 = sdql.create_record {fields = ["c_custkey", "c_name", "c_acctbal", "n_name", "c_address", "c_phone", "c_comment"]} %get_169, %get_173, %get_177, %get_181, %get_185, %get_189, %get_193 : i32, memref<25xi8>, f64, memref<25xi8>, memref<40xi8>, memref<15xi8>, memref<117xi8> -> record<"c_custkey": i32, "c_name": memref<25xi8>, "c_acctbal": f64, "n_name": memref<25xi8>, "c_address": memref<40xi8>, "c_phone": memref<15xi8>, "c_comment": memref<117xi8>>
    %fieldnode_199 = sdql.access_record %l "l_extendedprice" : record<"l_orderkey": i32, "l_partkey": i32, "l_suppkey": i32, "l_linenumber": i32, "l_quantity": f64, "l_extendedprice": f64, "l_discount": f64, "l_tax": f64, "l_returnflag": memref<1xi8>, "l_linestatus": memref<1xi8>, "l_shipdate": i32, "l_commitdate": i32, "l_receiptdate": i32, "l_shipinstruct": memref<25xi8>, "l_shipmode": memref<10xi8>, "l_comment": memref<44xi8>> -> f64
    %constd_201 = "arith.constant"() <{value = 1.0  : f64}> : () -> f64
    %fieldnode_203 = sdql.access_record %l "l_discount" : record<"l_orderkey": i32, "l_partkey": i32, "l_suppkey": i32, "l_linenumber": i32, "l_quantity": f64, "l_extendedprice": f64, "l_discount": f64, "l_tax": f64, "l_returnflag": memref<1xi8>, "l_linestatus": memref<1xi8>, "l_shipdate": i32, "l_commitdate": i32, "l_receiptdate": i32, "l_shipinstruct": memref<25xi8>, "l_shipmode": memref<10xi8>, "l_comment": memref<44xi8>> -> f64
    %zero_204 = "arith.constant"() <{value = 0.0 : f64}> : () -> f64
    %negf_202 = "arith.subf"(%zero_204, %fieldnode_203) <{fastmath = #arith.fastmath<none>}> : (f64, f64) -> f64
    %addf_200 = "arith.addf"(%constd_201, %negf_202) <{fastmath = #arith.fastmath<none>}> : (f64, f64) -> f64
    %multf_198 = "arith.mulf"(%fieldnode_199, %addf_200) <{fastmath = #arith.fastmath<none>}> : (f64, f64) -> f64
    %dict_168 = sdql.create_dictionary %recnode_197, %multf_198 : record<"c_custkey" : i32, "c_name" : memref<25xi8>, "c_acctbal" : f64, "n_name" : memref<25xi8>, "c_address" : memref<40xi8>, "c_phone" : memref<15xi8>, "c_comment" : memref<117xi8>>, f64 -> dictionary<record<"c_custkey" : i32, "c_name" : memref<25xi8>, "c_acctbal" : f64, "n_name" : memref<25xi8>, "c_address" : memref<40xi8>, "c_phone" : memref<15xi8>, "c_comment" : memref<117xi8>>, f64>
    "scf.yield"(%dict_168) : (dictionary<record<"c_custkey" : i32, "c_name" : memref<25xi8>, "c_acctbal" : f64, "n_name" : memref<25xi8>, "c_address" : memref<40xi8>, "c_phone" : memref<15xi8>, "c_comment" : memref<117xi8>>, f64>) -> ()
  }, {
    %dict_205 = sdql.empty_dictionary : dictionary<record<"c_custkey" : i32, "c_name" : memref<25xi8>, "c_acctbal" : f64, "n_name" : memref<25xi8>, "c_address" : memref<40xi8>, "c_phone" : memref<15xi8>, "c_comment" : memref<117xi8>>, f64>
    "scf.yield"(%dict_205) : (dictionary<record<"c_custkey" : i32, "c_name" : memref<25xi8>, "c_acctbal" : f64, "n_name" : memref<25xi8>, "c_address" : memref<40xi8>, "c_phone" : memref<15xi8>, "c_comment" : memref<117xi8>>, f64>) -> ()
  }) : (i1) -> dictionary<record<"c_custkey" : i32, "c_name" : memref<25xi8>, "c_acctbal" : f64, "n_name" : memref<25xi8>, "c_address" : memref<40xi8>, "c_phone" : memref<15xi8>, "c_comment" : memref<117xi8>>, f64>
  sdql.yield %if_167 : dictionary<record<"c_custkey" : i32, "c_name" : memref<25xi8>, "c_acctbal" : f64, "n_name" : memref<25xi8>, "c_address" : memref<40xi8>, "c_phone" : memref<15xi8>, "c_comment" : memref<117xi8>>, f64>
}
%sum_206 = sdql.sum %l_h : dictionary<record<"c_custkey" : i32, "c_name" : memref<25xi8>, "c_acctbal" : f64, "n_name" : memref<25xi8>, "c_address" : memref<40xi8>, "c_phone" : memref<15xi8>, "c_comment" : memref<117xi8>>, f64> -> dictionary<record<"c_custkey" : i32, "c_name" : memref<25xi8>, "revenue" : f64, "c_acctbal" : f64, "n_name" : memref<25xi8>, "c_phone" : memref<15xi8>, "c_address" : memref<40xi8>, "c_comment" : memref<117xi8>>, i32> {
^bb_207(%k: record<"c_custkey" : i32, "c_name" : memref<25xi8>, "c_acctbal" : f64, "n_name" : memref<25xi8>, "c_address" : memref<40xi8>, "c_phone" : memref<15xi8>, "c_comment" : memref<117xi8>>, %v: f64):
  %fieldnode_210 = sdql.access_record %k "c_custkey" : record<"c_custkey": i32, "c_name": memref<25xi8>, "c_acctbal": f64, "n_name": memref<25xi8>, "c_address": memref<40xi8>, "c_phone": memref<15xi8>, "c_comment": memref<117xi8>> -> i32
  %fieldnode_211 = sdql.access_record %k "c_name" : record<"c_custkey": i32, "c_name": memref<25xi8>, "c_acctbal": f64, "n_name": memref<25xi8>, "c_address": memref<40xi8>, "c_phone": memref<15xi8>, "c_comment": memref<117xi8>> -> memref<25xi8>
  %fieldnode_212 = sdql.access_record %k "c_acctbal" : record<"c_custkey": i32, "c_name": memref<25xi8>, "c_acctbal": f64, "n_name": memref<25xi8>, "c_address": memref<40xi8>, "c_phone": memref<15xi8>, "c_comment": memref<117xi8>> -> f64
  %fieldnode_213 = sdql.access_record %k "n_name" : record<"c_custkey": i32, "c_name": memref<25xi8>, "c_acctbal": f64, "n_name": memref<25xi8>, "c_address": memref<40xi8>, "c_phone": memref<15xi8>, "c_comment": memref<117xi8>> -> memref<25xi8>
  %fieldnode_214 = sdql.access_record %k "c_phone" : record<"c_custkey": i32, "c_name": memref<25xi8>, "c_acctbal": f64, "n_name": memref<25xi8>, "c_address": memref<40xi8>, "c_phone": memref<15xi8>, "c_comment": memref<117xi8>> -> memref<15xi8>
  %fieldnode_215 = sdql.access_record %k "c_address" : record<"c_custkey": i32, "c_name": memref<25xi8>, "c_acctbal": f64, "n_name": memref<25xi8>, "c_address": memref<40xi8>, "c_phone": memref<15xi8>, "c_comment": memref<117xi8>> -> memref<40xi8>
  %fieldnode_216 = sdql.access_record %k "c_comment" : record<"c_custkey": i32, "c_name": memref<25xi8>, "c_acctbal": f64, "n_name": memref<25xi8>, "c_address": memref<40xi8>, "c_phone": memref<15xi8>, "c_comment": memref<117xi8>> -> memref<117xi8>
  %recnode_217 = sdql.create_record {fields = ["c_custkey", "c_name", "revenue", "c_acctbal", "n_name", "c_phone", "c_address", "c_comment"]} %fieldnode_210, %fieldnode_211, %v, %fieldnode_212, %fieldnode_213, %fieldnode_214, %fieldnode_215, %fieldnode_216 : i32, memref<25xi8>, f64, f64, memref<25xi8>, memref<15xi8>, memref<40xi8>, memref<117xi8> -> record<"c_custkey": i32, "c_name": memref<25xi8>, "revenue": f64, "c_acctbal": f64, "n_name": memref<25xi8>, "c_phone": memref<15xi8>, "c_address": memref<40xi8>, "c_comment": memref<117xi8>>
  %uniq_209 = sdql.unique %recnode_217 : record<"c_custkey" : i32, "c_name" : memref<25xi8>, "revenue" : f64, "c_acctbal" : f64, "n_name" : memref<25xi8>, "c_phone" : memref<15xi8>, "c_address" : memref<40xi8>, "c_comment" : memref<117xi8>> -> record<"c_custkey" : i32, "c_name" : memref<25xi8>, "revenue" : f64, "c_acctbal" : f64, "n_name" : memref<25xi8>, "c_phone" : memref<15xi8>, "c_address" : memref<40xi8>, "c_comment" : memref<117xi8>>
  %consti_218 = "arith.constant"() <{value = 1 : i32}> : () -> i32
  %dict_208 = sdql.create_dictionary %uniq_209, %consti_218 : record<"c_custkey" : i32, "c_name" : memref<25xi8>, "revenue" : f64, "c_acctbal" : f64, "n_name" : memref<25xi8>, "c_phone" : memref<15xi8>, "c_address" : memref<40xi8>, "c_comment" : memref<117xi8>>, i32 -> dictionary<record<"c_custkey" : i32, "c_name" : memref<25xi8>, "revenue" : f64, "c_acctbal" : f64, "n_name" : memref<25xi8>, "c_phone" : memref<15xi8>, "c_address" : memref<40xi8>, "c_comment" : memref<117xi8>>, i32>
  sdql.yield %dict_208 : dictionary<record<"c_custkey" : i32, "c_name" : memref<25xi8>, "revenue" : f64, "c_acctbal" : f64, "n_name" : memref<25xi8>, "c_phone" : memref<15xi8>, "c_address" : memref<40xi8>, "c_comment" : memref<117xi8>>, i32>
}
