func.func @range_builtin(%n: i32) -> dictionary<i32, i32> {
  %zero = "arith.constant"() <{value = 0}> : () -> i32
  %is_terminal = "arith.cmpi"(%n, %zero) <{"predicate" = 3}> : (i32, i32) -> i1
  %res = "scf.if"(%is_terminal) ({
    %empty = sdql.empty_dictionary : dictionary<i32, i32>
    "scf.yield"(%empty) : (dictionary<i32, i32>) -> ()
  }, {
    %one = "arith.constant"() <{value = 1}> : () -> i32
    %smaller_n = "arith.subi"(%n, %one) : (i32, i32) -> i32
    %prev_range = "func.call"(%smaller_n) <{callee = @range}> : (i32) -> dictionary<i32, i32>
    %true = "arith.constant"() <{value = 1}> : () -> i32
    %extension = sdql.create_dictionary %smaller_n, %true : i32, i32 -> dictionary<i32, i32>

    // return %extension + %prev_range
    %added = sdql.dictionary_add %extension %prev_range : dictionary<i32, i32>, dictionary<i32, i32> -> dictionary<i32, i32>
    "scf.yield"(%added) : (dictionary<i32, i32>) -> ()
  }) : (i1) -> dictionary<i32, i32>
  func.return %res : dictionary<i32, i32>
}
%lineitem = sdql.load "datasets/tpch/lineitem.tbl" : record<"l_orderkey" : dictionary<i32, i32>, "l_partkey" : dictionary<i32, i32>, "l_suppkey" : dictionary<i32, i32>, "l_linenumber" : dictionary<i32, i32>, "l_quantity" : dictionary<i32, f64>, "l_extendedprice" : dictionary<i32, f64>, "l_discount" : dictionary<i32, f64>, "l_tax" : dictionary<i32, f64>, "l_returnflag" : dictionary<i32, memref<1xi8>>, "l_linestatus" : dictionary<i32, memref<1xi8>>, "l_shipdate" : dictionary<i32, i32>, "l_commitdate" : dictionary<i32, i32>, "l_receiptdate" : dictionary<i32, i32>, "l_shipinstruct" : dictionary<i32, memref<25xi8>>, "l_shipmode" : dictionary<i32, memref<10xi8>>, "l_comment" : dictionary<i32, memref<44xi8>>, "size" : i32>
%part = sdql.load "datasets/tpch/part.tbl" : record<"p_partkey" : dictionary<i32, i32>, "p_name" : dictionary<i32, memref<55xi8>>, "p_mfgr" : dictionary<i32, memref<25xi8>>, "p_brand" : dictionary<i32, memref<10xi8>>, "p_type" : dictionary<i32, memref<25xi8>>, "p_size" : dictionary<i32, i32>, "p_container" : dictionary<i32, memref<10xi8>>, "p_retailprice" : dictionary<i32, f64>, "p_comment" : dictionary<i32, memref<23xi8>>, "size" : i32>
// PROMO
%constds_0 = "arith.constant"() <{value = dense<[80, 82, 79, 77, 79]> : memref<?xi8>}> : () -> memref<?xi8>
%consti_1 = "arith.constant"() <{value = 6 : i32}> : () -> i32
%promo = sdql.external "ConstantString", %constds_0, %consti_1 : memref<?xi8>, i32 -> memref<5xi8>
%fieldnode_2 = sdql.access_record %part "size" : record<"p_partkey": dictionary<i32, i32>, "p_name": dictionary<i32, memref<55xi8>>, "p_mfgr": dictionary<i32, memref<25xi8>>, "p_brand": dictionary<i32, memref<10xi8>>, "p_type": dictionary<i32, memref<25xi8>>, "p_size": dictionary<i32, i32>, "p_container": dictionary<i32, memref<10xi8>>, "p_retailprice": dictionary<i32, f64>, "p_comment": dictionary<i32, memref<23xi8>>, "size": i32> -> i32
%rangenode_3 = "func.call"(%fieldnode_2) <{callee = @range_builtin}> : (i32) -> dictionary<i32, i32>
%p_h = sdql.sum %rangenode_3 : dictionary<i32, i32> -> dictionary<i32, record<"_" : i32>> {
^bb_4(%i: i32, %_: i32):
  %fieldnode_6 = sdql.access_record %part "p_partkey" : record<"p_partkey": dictionary<i32, i32>, "p_name": dictionary<i32, memref<55xi8>>, "p_mfgr": dictionary<i32, memref<25xi8>>, "p_brand": dictionary<i32, memref<10xi8>>, "p_type": dictionary<i32, memref<25xi8>>, "p_size": dictionary<i32, i32>, "p_container": dictionary<i32, memref<10xi8>>, "p_retailprice": dictionary<i32, f64>, "p_comment": dictionary<i32, memref<23xi8>>, "size": i32> -> dictionary<i32, i32>
  %get_5 = sdql.lookup_dictionary %fieldnode_6 [%i : i32] : dictionary<i32, i32> -> i32
  %fieldnode_8 = sdql.access_record %part "p_name" : record<"p_partkey": dictionary<i32, i32>, "p_name": dictionary<i32, memref<55xi8>>, "p_mfgr": dictionary<i32, memref<25xi8>>, "p_brand": dictionary<i32, memref<10xi8>>, "p_type": dictionary<i32, memref<25xi8>>, "p_size": dictionary<i32, i32>, "p_container": dictionary<i32, memref<10xi8>>, "p_retailprice": dictionary<i32, f64>, "p_comment": dictionary<i32, memref<23xi8>>, "size": i32> -> dictionary<i32, memref<55xi8>>
  %get_7 = sdql.lookup_dictionary %fieldnode_8 [%i : i32] : dictionary<i32, memref<55xi8>> -> memref<55xi8>
  %fieldnode_10 = sdql.access_record %part "p_mfgr" : record<"p_partkey": dictionary<i32, i32>, "p_name": dictionary<i32, memref<55xi8>>, "p_mfgr": dictionary<i32, memref<25xi8>>, "p_brand": dictionary<i32, memref<10xi8>>, "p_type": dictionary<i32, memref<25xi8>>, "p_size": dictionary<i32, i32>, "p_container": dictionary<i32, memref<10xi8>>, "p_retailprice": dictionary<i32, f64>, "p_comment": dictionary<i32, memref<23xi8>>, "size": i32> -> dictionary<i32, memref<25xi8>>
  %get_9 = sdql.lookup_dictionary %fieldnode_10 [%i : i32] : dictionary<i32, memref<25xi8>> -> memref<25xi8>
  %fieldnode_12 = sdql.access_record %part "p_brand" : record<"p_partkey": dictionary<i32, i32>, "p_name": dictionary<i32, memref<55xi8>>, "p_mfgr": dictionary<i32, memref<25xi8>>, "p_brand": dictionary<i32, memref<10xi8>>, "p_type": dictionary<i32, memref<25xi8>>, "p_size": dictionary<i32, i32>, "p_container": dictionary<i32, memref<10xi8>>, "p_retailprice": dictionary<i32, f64>, "p_comment": dictionary<i32, memref<23xi8>>, "size": i32> -> dictionary<i32, memref<10xi8>>
  %get_11 = sdql.lookup_dictionary %fieldnode_12 [%i : i32] : dictionary<i32, memref<10xi8>> -> memref<10xi8>
  %fieldnode_14 = sdql.access_record %part "p_type" : record<"p_partkey": dictionary<i32, i32>, "p_name": dictionary<i32, memref<55xi8>>, "p_mfgr": dictionary<i32, memref<25xi8>>, "p_brand": dictionary<i32, memref<10xi8>>, "p_type": dictionary<i32, memref<25xi8>>, "p_size": dictionary<i32, i32>, "p_container": dictionary<i32, memref<10xi8>>, "p_retailprice": dictionary<i32, f64>, "p_comment": dictionary<i32, memref<23xi8>>, "size": i32> -> dictionary<i32, memref<25xi8>>
  %get_13 = sdql.lookup_dictionary %fieldnode_14 [%i : i32] : dictionary<i32, memref<25xi8>> -> memref<25xi8>
  %fieldnode_16 = sdql.access_record %part "p_size" : record<"p_partkey": dictionary<i32, i32>, "p_name": dictionary<i32, memref<55xi8>>, "p_mfgr": dictionary<i32, memref<25xi8>>, "p_brand": dictionary<i32, memref<10xi8>>, "p_type": dictionary<i32, memref<25xi8>>, "p_size": dictionary<i32, i32>, "p_container": dictionary<i32, memref<10xi8>>, "p_retailprice": dictionary<i32, f64>, "p_comment": dictionary<i32, memref<23xi8>>, "size": i32> -> dictionary<i32, i32>
  %get_15 = sdql.lookup_dictionary %fieldnode_16 [%i : i32] : dictionary<i32, i32> -> i32
  %fieldnode_18 = sdql.access_record %part "p_container" : record<"p_partkey": dictionary<i32, i32>, "p_name": dictionary<i32, memref<55xi8>>, "p_mfgr": dictionary<i32, memref<25xi8>>, "p_brand": dictionary<i32, memref<10xi8>>, "p_type": dictionary<i32, memref<25xi8>>, "p_size": dictionary<i32, i32>, "p_container": dictionary<i32, memref<10xi8>>, "p_retailprice": dictionary<i32, f64>, "p_comment": dictionary<i32, memref<23xi8>>, "size": i32> -> dictionary<i32, memref<10xi8>>
  %get_17 = sdql.lookup_dictionary %fieldnode_18 [%i : i32] : dictionary<i32, memref<10xi8>> -> memref<10xi8>
  %fieldnode_20 = sdql.access_record %part "p_retailprice" : record<"p_partkey": dictionary<i32, i32>, "p_name": dictionary<i32, memref<55xi8>>, "p_mfgr": dictionary<i32, memref<25xi8>>, "p_brand": dictionary<i32, memref<10xi8>>, "p_type": dictionary<i32, memref<25xi8>>, "p_size": dictionary<i32, i32>, "p_container": dictionary<i32, memref<10xi8>>, "p_retailprice": dictionary<i32, f64>, "p_comment": dictionary<i32, memref<23xi8>>, "size": i32> -> dictionary<i32, f64>
  %get_19 = sdql.lookup_dictionary %fieldnode_20 [%i : i32] : dictionary<i32, f64> -> f64
  %fieldnode_22 = sdql.access_record %part "p_comment" : record<"p_partkey": dictionary<i32, i32>, "p_name": dictionary<i32, memref<55xi8>>, "p_mfgr": dictionary<i32, memref<25xi8>>, "p_brand": dictionary<i32, memref<10xi8>>, "p_type": dictionary<i32, memref<25xi8>>, "p_size": dictionary<i32, i32>, "p_container": dictionary<i32, memref<10xi8>>, "p_retailprice": dictionary<i32, f64>, "p_comment": dictionary<i32, memref<23xi8>>, "size": i32> -> dictionary<i32, memref<23xi8>>
  %get_21 = sdql.lookup_dictionary %fieldnode_22 [%i : i32] : dictionary<i32, memref<23xi8>> -> memref<23xi8>
  %p = sdql.create_record {fields = ["p_partkey", "p_name", "p_mfgr", "p_brand", "p_type", "p_size", "p_container", "p_retailprice", "p_comment"]} %get_5, %get_7, %get_9, %get_11, %get_13, %get_15, %get_17, %get_19, %get_21 : i32, memref<55xi8>, memref<25xi8>, memref<10xi8>, memref<25xi8>, i32, memref<10xi8>, f64, memref<23xi8> -> record<"p_partkey": i32, "p_name": memref<55xi8>, "p_mfgr": memref<25xi8>, "p_brand": memref<10xi8>, "p_type": memref<25xi8>, "p_size": i32, "p_container": memref<10xi8>, "p_retailprice": f64, "p_comment": memref<23xi8>>
  %fieldnode_23 = sdql.access_record %p "p_type" : record<"p_partkey": i32, "p_name": memref<55xi8>, "p_mfgr": memref<25xi8>, "p_brand": memref<10xi8>, "p_type": memref<25xi8>, "p_size": i32, "p_container": memref<10xi8>, "p_retailprice": f64, "p_comment": memref<23xi8>> -> memref<25xi8>
  %external_24 = sdql.external "StrStartsWith", %fieldnode_23, %promo : memref<25xi8>, memref<5xi8> -> i1
  %if_25 = "scf.if"(%external_24) ({
    %fieldnode_28 = sdql.access_record %p "p_partkey" : record<"p_partkey": i32, "p_name": memref<55xi8>, "p_mfgr": memref<25xi8>, "p_brand": memref<10xi8>, "p_type": memref<25xi8>, "p_size": i32, "p_container": memref<10xi8>, "p_retailprice": f64, "p_comment": memref<23xi8>> -> i32
    %uniq_27 = sdql.unique %fieldnode_28 : i32 -> i32
    %fieldnode_29 = sdql.access_record %p "p_partkey" : record<"p_partkey": i32, "p_name": memref<55xi8>, "p_mfgr": memref<25xi8>, "p_brand": memref<10xi8>, "p_type": memref<25xi8>, "p_size": i32, "p_container": memref<10xi8>, "p_retailprice": f64, "p_comment": memref<23xi8>> -> i32
    %recnode_30 = sdql.create_record {fields = ["_"]} %fieldnode_29 : i32 -> record<"_": i32>
    %dict_26 = sdql.create_dictionary %uniq_27, %recnode_30 : i32, record<"_" : i32> -> dictionary<i32, record<"_" : i32>>
    "scf.yield"(%dict_26) : (dictionary<i32, record<"_" : i32>>) -> ()
  }, {
    %dict_31 = sdql.empty_dictionary : dictionary<i32, record<"_" : i32>>
    "scf.yield"(%dict_31) : (dictionary<i32, record<"_" : i32>>) -> ()
  }) : (i1) -> dictionary<i32, record<"_" : i32>>
  sdql.yield %if_25 : dictionary<i32, record<"_" : i32>>
}
%fieldnode_32 = sdql.access_record %lineitem "size" : record<"l_orderkey": dictionary<i32, i32>, "l_partkey": dictionary<i32, i32>, "l_suppkey": dictionary<i32, i32>, "l_linenumber": dictionary<i32, i32>, "l_quantity": dictionary<i32, f64>, "l_extendedprice": dictionary<i32, f64>, "l_discount": dictionary<i32, f64>, "l_tax": dictionary<i32, f64>, "l_returnflag": dictionary<i32, memref<1xi8>>, "l_linestatus": dictionary<i32, memref<1xi8>>, "l_shipdate": dictionary<i32, i32>, "l_commitdate": dictionary<i32, i32>, "l_receiptdate": dictionary<i32, i32>, "l_shipinstruct": dictionary<i32, memref<25xi8>>, "l_shipmode": dictionary<i32, memref<10xi8>>, "l_comment": dictionary<i32, memref<44xi8>>, "size": i32> -> i32
%rangenode_33 = "func.call"(%fieldnode_32) <{callee = @range_builtin}> : (i32) -> dictionary<i32, i32>
%l_t = sdql.sum %rangenode_33 : dictionary<i32, i32> -> record<"a" : f64, "b" : f64> {
^bb_34(%i: i32, %_: i32):
  %fieldnode_36 = sdql.access_record %lineitem "l_orderkey" : record<"l_orderkey": dictionary<i32, i32>, "l_partkey": dictionary<i32, i32>, "l_suppkey": dictionary<i32, i32>, "l_linenumber": dictionary<i32, i32>, "l_quantity": dictionary<i32, f64>, "l_extendedprice": dictionary<i32, f64>, "l_discount": dictionary<i32, f64>, "l_tax": dictionary<i32, f64>, "l_returnflag": dictionary<i32, memref<1xi8>>, "l_linestatus": dictionary<i32, memref<1xi8>>, "l_shipdate": dictionary<i32, i32>, "l_commitdate": dictionary<i32, i32>, "l_receiptdate": dictionary<i32, i32>, "l_shipinstruct": dictionary<i32, memref<25xi8>>, "l_shipmode": dictionary<i32, memref<10xi8>>, "l_comment": dictionary<i32, memref<44xi8>>, "size": i32> -> dictionary<i32, i32>
  %get_35 = sdql.lookup_dictionary %fieldnode_36 [%i : i32] : dictionary<i32, i32> -> i32
  %fieldnode_38 = sdql.access_record %lineitem "l_partkey" : record<"l_orderkey": dictionary<i32, i32>, "l_partkey": dictionary<i32, i32>, "l_suppkey": dictionary<i32, i32>, "l_linenumber": dictionary<i32, i32>, "l_quantity": dictionary<i32, f64>, "l_extendedprice": dictionary<i32, f64>, "l_discount": dictionary<i32, f64>, "l_tax": dictionary<i32, f64>, "l_returnflag": dictionary<i32, memref<1xi8>>, "l_linestatus": dictionary<i32, memref<1xi8>>, "l_shipdate": dictionary<i32, i32>, "l_commitdate": dictionary<i32, i32>, "l_receiptdate": dictionary<i32, i32>, "l_shipinstruct": dictionary<i32, memref<25xi8>>, "l_shipmode": dictionary<i32, memref<10xi8>>, "l_comment": dictionary<i32, memref<44xi8>>, "size": i32> -> dictionary<i32, i32>
  %get_37 = sdql.lookup_dictionary %fieldnode_38 [%i : i32] : dictionary<i32, i32> -> i32
  %fieldnode_40 = sdql.access_record %lineitem "l_suppkey" : record<"l_orderkey": dictionary<i32, i32>, "l_partkey": dictionary<i32, i32>, "l_suppkey": dictionary<i32, i32>, "l_linenumber": dictionary<i32, i32>, "l_quantity": dictionary<i32, f64>, "l_extendedprice": dictionary<i32, f64>, "l_discount": dictionary<i32, f64>, "l_tax": dictionary<i32, f64>, "l_returnflag": dictionary<i32, memref<1xi8>>, "l_linestatus": dictionary<i32, memref<1xi8>>, "l_shipdate": dictionary<i32, i32>, "l_commitdate": dictionary<i32, i32>, "l_receiptdate": dictionary<i32, i32>, "l_shipinstruct": dictionary<i32, memref<25xi8>>, "l_shipmode": dictionary<i32, memref<10xi8>>, "l_comment": dictionary<i32, memref<44xi8>>, "size": i32> -> dictionary<i32, i32>
  %get_39 = sdql.lookup_dictionary %fieldnode_40 [%i : i32] : dictionary<i32, i32> -> i32
  %fieldnode_42 = sdql.access_record %lineitem "l_linenumber" : record<"l_orderkey": dictionary<i32, i32>, "l_partkey": dictionary<i32, i32>, "l_suppkey": dictionary<i32, i32>, "l_linenumber": dictionary<i32, i32>, "l_quantity": dictionary<i32, f64>, "l_extendedprice": dictionary<i32, f64>, "l_discount": dictionary<i32, f64>, "l_tax": dictionary<i32, f64>, "l_returnflag": dictionary<i32, memref<1xi8>>, "l_linestatus": dictionary<i32, memref<1xi8>>, "l_shipdate": dictionary<i32, i32>, "l_commitdate": dictionary<i32, i32>, "l_receiptdate": dictionary<i32, i32>, "l_shipinstruct": dictionary<i32, memref<25xi8>>, "l_shipmode": dictionary<i32, memref<10xi8>>, "l_comment": dictionary<i32, memref<44xi8>>, "size": i32> -> dictionary<i32, i32>
  %get_41 = sdql.lookup_dictionary %fieldnode_42 [%i : i32] : dictionary<i32, i32> -> i32
  %fieldnode_44 = sdql.access_record %lineitem "l_quantity" : record<"l_orderkey": dictionary<i32, i32>, "l_partkey": dictionary<i32, i32>, "l_suppkey": dictionary<i32, i32>, "l_linenumber": dictionary<i32, i32>, "l_quantity": dictionary<i32, f64>, "l_extendedprice": dictionary<i32, f64>, "l_discount": dictionary<i32, f64>, "l_tax": dictionary<i32, f64>, "l_returnflag": dictionary<i32, memref<1xi8>>, "l_linestatus": dictionary<i32, memref<1xi8>>, "l_shipdate": dictionary<i32, i32>, "l_commitdate": dictionary<i32, i32>, "l_receiptdate": dictionary<i32, i32>, "l_shipinstruct": dictionary<i32, memref<25xi8>>, "l_shipmode": dictionary<i32, memref<10xi8>>, "l_comment": dictionary<i32, memref<44xi8>>, "size": i32> -> dictionary<i32, f64>
  %get_43 = sdql.lookup_dictionary %fieldnode_44 [%i : i32] : dictionary<i32, f64> -> f64
  %fieldnode_46 = sdql.access_record %lineitem "l_extendedprice" : record<"l_orderkey": dictionary<i32, i32>, "l_partkey": dictionary<i32, i32>, "l_suppkey": dictionary<i32, i32>, "l_linenumber": dictionary<i32, i32>, "l_quantity": dictionary<i32, f64>, "l_extendedprice": dictionary<i32, f64>, "l_discount": dictionary<i32, f64>, "l_tax": dictionary<i32, f64>, "l_returnflag": dictionary<i32, memref<1xi8>>, "l_linestatus": dictionary<i32, memref<1xi8>>, "l_shipdate": dictionary<i32, i32>, "l_commitdate": dictionary<i32, i32>, "l_receiptdate": dictionary<i32, i32>, "l_shipinstruct": dictionary<i32, memref<25xi8>>, "l_shipmode": dictionary<i32, memref<10xi8>>, "l_comment": dictionary<i32, memref<44xi8>>, "size": i32> -> dictionary<i32, f64>
  %get_45 = sdql.lookup_dictionary %fieldnode_46 [%i : i32] : dictionary<i32, f64> -> f64
  %fieldnode_48 = sdql.access_record %lineitem "l_discount" : record<"l_orderkey": dictionary<i32, i32>, "l_partkey": dictionary<i32, i32>, "l_suppkey": dictionary<i32, i32>, "l_linenumber": dictionary<i32, i32>, "l_quantity": dictionary<i32, f64>, "l_extendedprice": dictionary<i32, f64>, "l_discount": dictionary<i32, f64>, "l_tax": dictionary<i32, f64>, "l_returnflag": dictionary<i32, memref<1xi8>>, "l_linestatus": dictionary<i32, memref<1xi8>>, "l_shipdate": dictionary<i32, i32>, "l_commitdate": dictionary<i32, i32>, "l_receiptdate": dictionary<i32, i32>, "l_shipinstruct": dictionary<i32, memref<25xi8>>, "l_shipmode": dictionary<i32, memref<10xi8>>, "l_comment": dictionary<i32, memref<44xi8>>, "size": i32> -> dictionary<i32, f64>
  %get_47 = sdql.lookup_dictionary %fieldnode_48 [%i : i32] : dictionary<i32, f64> -> f64
  %fieldnode_50 = sdql.access_record %lineitem "l_tax" : record<"l_orderkey": dictionary<i32, i32>, "l_partkey": dictionary<i32, i32>, "l_suppkey": dictionary<i32, i32>, "l_linenumber": dictionary<i32, i32>, "l_quantity": dictionary<i32, f64>, "l_extendedprice": dictionary<i32, f64>, "l_discount": dictionary<i32, f64>, "l_tax": dictionary<i32, f64>, "l_returnflag": dictionary<i32, memref<1xi8>>, "l_linestatus": dictionary<i32, memref<1xi8>>, "l_shipdate": dictionary<i32, i32>, "l_commitdate": dictionary<i32, i32>, "l_receiptdate": dictionary<i32, i32>, "l_shipinstruct": dictionary<i32, memref<25xi8>>, "l_shipmode": dictionary<i32, memref<10xi8>>, "l_comment": dictionary<i32, memref<44xi8>>, "size": i32> -> dictionary<i32, f64>
  %get_49 = sdql.lookup_dictionary %fieldnode_50 [%i : i32] : dictionary<i32, f64> -> f64
  %fieldnode_52 = sdql.access_record %lineitem "l_returnflag" : record<"l_orderkey": dictionary<i32, i32>, "l_partkey": dictionary<i32, i32>, "l_suppkey": dictionary<i32, i32>, "l_linenumber": dictionary<i32, i32>, "l_quantity": dictionary<i32, f64>, "l_extendedprice": dictionary<i32, f64>, "l_discount": dictionary<i32, f64>, "l_tax": dictionary<i32, f64>, "l_returnflag": dictionary<i32, memref<1xi8>>, "l_linestatus": dictionary<i32, memref<1xi8>>, "l_shipdate": dictionary<i32, i32>, "l_commitdate": dictionary<i32, i32>, "l_receiptdate": dictionary<i32, i32>, "l_shipinstruct": dictionary<i32, memref<25xi8>>, "l_shipmode": dictionary<i32, memref<10xi8>>, "l_comment": dictionary<i32, memref<44xi8>>, "size": i32> -> dictionary<i32, memref<1xi8>>
  %get_51 = sdql.lookup_dictionary %fieldnode_52 [%i : i32] : dictionary<i32, memref<1xi8>> -> memref<1xi8>
  %fieldnode_54 = sdql.access_record %lineitem "l_linestatus" : record<"l_orderkey": dictionary<i32, i32>, "l_partkey": dictionary<i32, i32>, "l_suppkey": dictionary<i32, i32>, "l_linenumber": dictionary<i32, i32>, "l_quantity": dictionary<i32, f64>, "l_extendedprice": dictionary<i32, f64>, "l_discount": dictionary<i32, f64>, "l_tax": dictionary<i32, f64>, "l_returnflag": dictionary<i32, memref<1xi8>>, "l_linestatus": dictionary<i32, memref<1xi8>>, "l_shipdate": dictionary<i32, i32>, "l_commitdate": dictionary<i32, i32>, "l_receiptdate": dictionary<i32, i32>, "l_shipinstruct": dictionary<i32, memref<25xi8>>, "l_shipmode": dictionary<i32, memref<10xi8>>, "l_comment": dictionary<i32, memref<44xi8>>, "size": i32> -> dictionary<i32, memref<1xi8>>
  %get_53 = sdql.lookup_dictionary %fieldnode_54 [%i : i32] : dictionary<i32, memref<1xi8>> -> memref<1xi8>
  %fieldnode_56 = sdql.access_record %lineitem "l_shipdate" : record<"l_orderkey": dictionary<i32, i32>, "l_partkey": dictionary<i32, i32>, "l_suppkey": dictionary<i32, i32>, "l_linenumber": dictionary<i32, i32>, "l_quantity": dictionary<i32, f64>, "l_extendedprice": dictionary<i32, f64>, "l_discount": dictionary<i32, f64>, "l_tax": dictionary<i32, f64>, "l_returnflag": dictionary<i32, memref<1xi8>>, "l_linestatus": dictionary<i32, memref<1xi8>>, "l_shipdate": dictionary<i32, i32>, "l_commitdate": dictionary<i32, i32>, "l_receiptdate": dictionary<i32, i32>, "l_shipinstruct": dictionary<i32, memref<25xi8>>, "l_shipmode": dictionary<i32, memref<10xi8>>, "l_comment": dictionary<i32, memref<44xi8>>, "size": i32> -> dictionary<i32, i32>
  %get_55 = sdql.lookup_dictionary %fieldnode_56 [%i : i32] : dictionary<i32, i32> -> i32
  %fieldnode_58 = sdql.access_record %lineitem "l_commitdate" : record<"l_orderkey": dictionary<i32, i32>, "l_partkey": dictionary<i32, i32>, "l_suppkey": dictionary<i32, i32>, "l_linenumber": dictionary<i32, i32>, "l_quantity": dictionary<i32, f64>, "l_extendedprice": dictionary<i32, f64>, "l_discount": dictionary<i32, f64>, "l_tax": dictionary<i32, f64>, "l_returnflag": dictionary<i32, memref<1xi8>>, "l_linestatus": dictionary<i32, memref<1xi8>>, "l_shipdate": dictionary<i32, i32>, "l_commitdate": dictionary<i32, i32>, "l_receiptdate": dictionary<i32, i32>, "l_shipinstruct": dictionary<i32, memref<25xi8>>, "l_shipmode": dictionary<i32, memref<10xi8>>, "l_comment": dictionary<i32, memref<44xi8>>, "size": i32> -> dictionary<i32, i32>
  %get_57 = sdql.lookup_dictionary %fieldnode_58 [%i : i32] : dictionary<i32, i32> -> i32
  %fieldnode_60 = sdql.access_record %lineitem "l_receiptdate" : record<"l_orderkey": dictionary<i32, i32>, "l_partkey": dictionary<i32, i32>, "l_suppkey": dictionary<i32, i32>, "l_linenumber": dictionary<i32, i32>, "l_quantity": dictionary<i32, f64>, "l_extendedprice": dictionary<i32, f64>, "l_discount": dictionary<i32, f64>, "l_tax": dictionary<i32, f64>, "l_returnflag": dictionary<i32, memref<1xi8>>, "l_linestatus": dictionary<i32, memref<1xi8>>, "l_shipdate": dictionary<i32, i32>, "l_commitdate": dictionary<i32, i32>, "l_receiptdate": dictionary<i32, i32>, "l_shipinstruct": dictionary<i32, memref<25xi8>>, "l_shipmode": dictionary<i32, memref<10xi8>>, "l_comment": dictionary<i32, memref<44xi8>>, "size": i32> -> dictionary<i32, i32>
  %get_59 = sdql.lookup_dictionary %fieldnode_60 [%i : i32] : dictionary<i32, i32> -> i32
  %fieldnode_62 = sdql.access_record %lineitem "l_shipinstruct" : record<"l_orderkey": dictionary<i32, i32>, "l_partkey": dictionary<i32, i32>, "l_suppkey": dictionary<i32, i32>, "l_linenumber": dictionary<i32, i32>, "l_quantity": dictionary<i32, f64>, "l_extendedprice": dictionary<i32, f64>, "l_discount": dictionary<i32, f64>, "l_tax": dictionary<i32, f64>, "l_returnflag": dictionary<i32, memref<1xi8>>, "l_linestatus": dictionary<i32, memref<1xi8>>, "l_shipdate": dictionary<i32, i32>, "l_commitdate": dictionary<i32, i32>, "l_receiptdate": dictionary<i32, i32>, "l_shipinstruct": dictionary<i32, memref<25xi8>>, "l_shipmode": dictionary<i32, memref<10xi8>>, "l_comment": dictionary<i32, memref<44xi8>>, "size": i32> -> dictionary<i32, memref<25xi8>>
  %get_61 = sdql.lookup_dictionary %fieldnode_62 [%i : i32] : dictionary<i32, memref<25xi8>> -> memref<25xi8>
  %fieldnode_64 = sdql.access_record %lineitem "l_shipmode" : record<"l_orderkey": dictionary<i32, i32>, "l_partkey": dictionary<i32, i32>, "l_suppkey": dictionary<i32, i32>, "l_linenumber": dictionary<i32, i32>, "l_quantity": dictionary<i32, f64>, "l_extendedprice": dictionary<i32, f64>, "l_discount": dictionary<i32, f64>, "l_tax": dictionary<i32, f64>, "l_returnflag": dictionary<i32, memref<1xi8>>, "l_linestatus": dictionary<i32, memref<1xi8>>, "l_shipdate": dictionary<i32, i32>, "l_commitdate": dictionary<i32, i32>, "l_receiptdate": dictionary<i32, i32>, "l_shipinstruct": dictionary<i32, memref<25xi8>>, "l_shipmode": dictionary<i32, memref<10xi8>>, "l_comment": dictionary<i32, memref<44xi8>>, "size": i32> -> dictionary<i32, memref<10xi8>>
  %get_63 = sdql.lookup_dictionary %fieldnode_64 [%i : i32] : dictionary<i32, memref<10xi8>> -> memref<10xi8>
  %fieldnode_66 = sdql.access_record %lineitem "l_comment" : record<"l_orderkey": dictionary<i32, i32>, "l_partkey": dictionary<i32, i32>, "l_suppkey": dictionary<i32, i32>, "l_linenumber": dictionary<i32, i32>, "l_quantity": dictionary<i32, f64>, "l_extendedprice": dictionary<i32, f64>, "l_discount": dictionary<i32, f64>, "l_tax": dictionary<i32, f64>, "l_returnflag": dictionary<i32, memref<1xi8>>, "l_linestatus": dictionary<i32, memref<1xi8>>, "l_shipdate": dictionary<i32, i32>, "l_commitdate": dictionary<i32, i32>, "l_receiptdate": dictionary<i32, i32>, "l_shipinstruct": dictionary<i32, memref<25xi8>>, "l_shipmode": dictionary<i32, memref<10xi8>>, "l_comment": dictionary<i32, memref<44xi8>>, "size": i32> -> dictionary<i32, memref<44xi8>>
  %get_65 = sdql.lookup_dictionary %fieldnode_66 [%i : i32] : dictionary<i32, memref<44xi8>> -> memref<44xi8>
  %l = sdql.create_record {fields = ["l_orderkey", "l_partkey", "l_suppkey", "l_linenumber", "l_quantity", "l_extendedprice", "l_discount", "l_tax", "l_returnflag", "l_linestatus", "l_shipdate", "l_commitdate", "l_receiptdate", "l_shipinstruct", "l_shipmode", "l_comment"]} %get_35, %get_37, %get_39, %get_41, %get_43, %get_45, %get_47, %get_49, %get_51, %get_53, %get_55, %get_57, %get_59, %get_61, %get_63, %get_65 : i32, i32, i32, i32, f64, f64, f64, f64, memref<1xi8>, memref<1xi8>, i32, i32, i32, memref<25xi8>, memref<10xi8>, memref<44xi8> -> record<"l_orderkey": i32, "l_partkey": i32, "l_suppkey": i32, "l_linenumber": i32, "l_quantity": f64, "l_extendedprice": f64, "l_discount": f64, "l_tax": f64, "l_returnflag": memref<1xi8>, "l_linestatus": memref<1xi8>, "l_shipdate": i32, "l_commitdate": i32, "l_receiptdate": i32, "l_shipinstruct": memref<25xi8>, "l_shipmode": memref<10xi8>, "l_comment": memref<44xi8>>
  %constda_67 = "arith.constant"() <{value = 19950901 : i32}> : () -> i32
  %fieldnode_68 = sdql.access_record %l "l_shipdate" : record<"l_orderkey": i32, "l_partkey": i32, "l_suppkey": i32, "l_linenumber": i32, "l_quantity": f64, "l_extendedprice": f64, "l_discount": f64, "l_tax": f64, "l_returnflag": memref<1xi8>, "l_linestatus": memref<1xi8>, "l_shipdate": i32, "l_commitdate": i32, "l_receiptdate": i32, "l_shipinstruct": memref<25xi8>, "l_shipmode": memref<10xi8>, "l_comment": memref<44xi8>> -> i32
  %cmpi_69 = "arith.cmpi"(%constda_67, %fieldnode_68) <{predicate = 3}> : (i32, i32) -> i1
  %if_70 = "scf.if"(%cmpi_69) ({
    %fieldnode_71 = sdql.access_record %l "l_shipdate" : record<"l_orderkey": i32, "l_partkey": i32, "l_suppkey": i32, "l_linenumber": i32, "l_quantity": f64, "l_extendedprice": f64, "l_discount": f64, "l_tax": f64, "l_returnflag": memref<1xi8>, "l_linestatus": memref<1xi8>, "l_shipdate": i32, "l_commitdate": i32, "l_receiptdate": i32, "l_shipinstruct": memref<25xi8>, "l_shipmode": memref<10xi8>, "l_comment": memref<44xi8>> -> i32
    %constda_72 = "arith.constant"() <{value = 19951001 : i32}> : () -> i32
    %cmpi_73 = "arith.cmpi"(%fieldnode_71, %constda_72) <{predicate = 2}> : (i32, i32) -> i1
    "scf.yield"(%cmpi_73) : (i1) -> ()
  }, {
    %constv_74 = "arith.constant"() <{value = 0 : i1}> : () -> i1
    "scf.yield"(%constv_74) : (i1) -> ()
  }) : (i1) -> i1
  %if_75 = "scf.if"(%if_70) ({
    %fieldnode_79 = sdql.access_record %l "l_partkey" : record<"l_orderkey": i32, "l_partkey": i32, "l_suppkey": i32, "l_linenumber": i32, "l_quantity": f64, "l_extendedprice": f64, "l_discount": f64, "l_tax": f64, "l_returnflag": memref<1xi8>, "l_linestatus": memref<1xi8>, "l_shipdate": i32, "l_commitdate": i32, "l_receiptdate": i32, "l_shipinstruct": memref<25xi8>, "l_shipmode": memref<10xi8>, "l_comment": memref<44xi8>> -> i32
    %get_78 = sdql.lookup_dictionary %p_h [%fieldnode_79 : i32] : dictionary<i32, record<"_" : i32>> -> record<"_" : i32>
    %dict_80 = sdql.empty_dictionary : record<"_" : i32>
    %cmp_81 = sdql.cmp %get_78, %dict_80 : record<"_" : i32>, record<"_" : i32> -> i1
    %zero_76 = "arith.constant"() <{value = 0 : i1}> : () -> i1
    %neg_77 = "arith.cmpi"(%cmp_81, %zero_76) <{predicate = 0}> : (i1, i1) -> i1
    %if_82 = "scf.if"(%neg_77) ({
      %fieldnode_84 = sdql.access_record %l "l_extendedprice" : record<"l_orderkey": i32, "l_partkey": i32, "l_suppkey": i32, "l_linenumber": i32, "l_quantity": f64, "l_extendedprice": f64, "l_discount": f64, "l_tax": f64, "l_returnflag": memref<1xi8>, "l_linestatus": memref<1xi8>, "l_shipdate": i32, "l_commitdate": i32, "l_receiptdate": i32, "l_shipinstruct": memref<25xi8>, "l_shipmode": memref<10xi8>, "l_comment": memref<44xi8>> -> f64
      %constd_86 = "arith.constant"() <{value = 1.0  : f64}> : () -> f64
      %fieldnode_88 = sdql.access_record %l "l_discount" : record<"l_orderkey": i32, "l_partkey": i32, "l_suppkey": i32, "l_linenumber": i32, "l_quantity": f64, "l_extendedprice": f64, "l_discount": f64, "l_tax": f64, "l_returnflag": memref<1xi8>, "l_linestatus": memref<1xi8>, "l_shipdate": i32, "l_commitdate": i32, "l_receiptdate": i32, "l_shipinstruct": memref<25xi8>, "l_shipmode": memref<10xi8>, "l_comment": memref<44xi8>> -> f64
      %zero_89 = "arith.constant"() <{value = 0.0 : f64}> : () -> f64
      %negf_87 = "arith.subf"(%zero_89, %fieldnode_88) <{fastmath = #arith.fastmath<none>}> : (f64, f64) -> f64
      %addf_85 = "arith.addf"(%constd_86, %negf_87) <{fastmath = #arith.fastmath<none>}> : (f64, f64) -> f64
      %multf_83 = "arith.mulf"(%fieldnode_84, %addf_85) <{fastmath = #arith.fastmath<none>}> : (f64, f64) -> f64
      "scf.yield"(%multf_83) : (f64) -> ()
    }, {
      %constd_90 = "arith.constant"() <{value = 0.0  : f64}> : () -> f64
      "scf.yield"(%constd_90) : (f64) -> ()
    }) : (i1) -> f64
    %fieldnode_92 = sdql.access_record %l "l_extendedprice" : record<"l_orderkey": i32, "l_partkey": i32, "l_suppkey": i32, "l_linenumber": i32, "l_quantity": f64, "l_extendedprice": f64, "l_discount": f64, "l_tax": f64, "l_returnflag": memref<1xi8>, "l_linestatus": memref<1xi8>, "l_shipdate": i32, "l_commitdate": i32, "l_receiptdate": i32, "l_shipinstruct": memref<25xi8>, "l_shipmode": memref<10xi8>, "l_comment": memref<44xi8>> -> f64
    %constd_94 = "arith.constant"() <{value = 1.0  : f64}> : () -> f64
    %fieldnode_96 = sdql.access_record %l "l_discount" : record<"l_orderkey": i32, "l_partkey": i32, "l_suppkey": i32, "l_linenumber": i32, "l_quantity": f64, "l_extendedprice": f64, "l_discount": f64, "l_tax": f64, "l_returnflag": memref<1xi8>, "l_linestatus": memref<1xi8>, "l_shipdate": i32, "l_commitdate": i32, "l_receiptdate": i32, "l_shipinstruct": memref<25xi8>, "l_shipmode": memref<10xi8>, "l_comment": memref<44xi8>> -> f64
    %zero_97 = "arith.constant"() <{value = 0.0 : f64}> : () -> f64
    %negf_95 = "arith.subf"(%zero_97, %fieldnode_96) <{fastmath = #arith.fastmath<none>}> : (f64, f64) -> f64
    %addf_93 = "arith.addf"(%constd_94, %negf_95) <{fastmath = #arith.fastmath<none>}> : (f64, f64) -> f64
    %multf_91 = "arith.mulf"(%fieldnode_92, %addf_93) <{fastmath = #arith.fastmath<none>}> : (f64, f64) -> f64
    %recnode_98 = sdql.create_record {fields = ["a", "b"]} %if_82, %multf_91 : f64, f64 -> record<"a": f64, "b": f64>
    "scf.yield"(%recnode_98) : (record<"a" : f64, "b" : f64>) -> ()
  }, {
    %dict_99 = sdql.empty_dictionary : record<"a" : f64, "b" : f64>
    "scf.yield"(%dict_99) : (record<"a" : f64, "b" : f64>) -> ()
  }) : (i1) -> record<"a" : f64, "b" : f64>
  sdql.yield %if_75 : record<"a" : f64, "b" : f64>
}
%consti_102 = "arith.constant"() <{value = 100 : i32}> : () -> i32
%fieldnode_103 = sdql.access_record %l_t "a" : record<"a": f64, "b": f64> -> f64
%multf_101 = "arith.mulf"(%consti_102, %fieldnode_103) <{fastmath = #arith.fastmath<none>}> : (i32, f64) -> f64
%fieldnode_104 = sdql.access_record %l_t "b" : record<"a": f64, "b": f64> -> f64
%external_105 = sdql.external "inv", %fieldnode_104 : f64 -> f64
%multf_100 = "arith.mulf"(%multf_101, %external_105) <{fastmath = #arith.fastmath<none>}> : (f64, f64) -> f64
