func.func @range_builtin(%n: i32) -> dictionary<i32, i32> {
  %zero = "arith.constant"() <{value = 0}> : () -> i32
  %is_terminal = "arith.cmpi"(%n, %zero) <{"predicate" = 3}> : (i32, i32) -> i1
  %res = "scf.if"(%is_terminal) ({
    %empty = sdql.empty_dictionary : dictionary<i32, i32>
    "scf.yield"(%empty) : (dictionary<i32, i32>) -> ()
  }, {
    %one = "arith.constant"() <{value = 1}> : () -> i32
    %smaller_n = "arith.subi"(%n, %one) : (i32, i32) -> i32
    %prev_range = "func.call"(%smaller_n) <{callee = @range_builtin}> : (i32) -> dictionary<i32, i32>
    %true = "arith.constant"() <{value = 1}> : () -> i32
    %extension = sdql.create_dictionary %smaller_n, %true : i32, i32 -> dictionary<i32, i32>

    // return %extension + %prev_range
    %added = sdql.dictionary_add %extension %prev_range : dictionary<i32, i32>, dictionary<i32, i32> -> dictionary<i32, i32>
    "scf.yield"(%added) : (dictionary<i32, i32>) -> ()
  }) : (i1) -> dictionary<i32, i32>
  func.return %res : dictionary<i32, i32>
}
%lineitem = sdql.load "datasets/tpch/lineitem.tbl" : record<"l_orderkey" : dictionary<i32, i32>, "l_partkey" : dictionary<i32, i32>, "l_suppkey" : dictionary<i32, i32>, "l_linenumber" : dictionary<i32, i32>, "l_quantity" : dictionary<i32, f64>, "l_extendedprice" : dictionary<i32, f64>, "l_discount" : dictionary<i32, f64>, "l_tax" : dictionary<i32, f64>, "l_returnflag" : dictionary<i32, memref<1xi8>>, "l_linestatus" : dictionary<i32, memref<1xi8>>, "l_shipdate" : dictionary<i32, i32>, "l_commitdate" : dictionary<i32, i32>, "l_receiptdate" : dictionary<i32, i32>, "l_shipinstruct" : dictionary<i32, memref<25xi8>>, "l_shipmode" : dictionary<i32, memref<10xi8>>, "l_comment" : dictionary<i32, memref<44xi8>>, "size" : i32>
%part = sdql.load "datasets/tpch/part.tbl" : record<"p_partkey" : dictionary<i32, i32>, "p_name" : dictionary<i32, memref<55xi8>>, "p_mfgr" : dictionary<i32, memref<25xi8>>, "p_brand" : dictionary<i32, memref<10xi8>>, "p_type" : dictionary<i32, memref<25xi8>>, "p_size" : dictionary<i32, i32>, "p_container" : dictionary<i32, memref<10xi8>>, "p_retailprice" : dictionary<i32, f64>, "p_comment" : dictionary<i32, memref<23xi8>>, "size" : i32>
// Brand#23
%constds_0 = "arith.constant"() <{value = dense<[66, 114, 97, 110, 100, 35, 50, 51]> : memref<?xi8>}> : () -> memref<?xi8>
%consti_1 = "arith.constant"() <{value = 9 : i32}> : () -> i32
%brand = sdql.external "ConstantString", %constds_0, %consti_1 : memref<?xi8>, i32 -> memref<8xi8>
// MED BOX
%constds_2 = "arith.constant"() <{value = dense<[77, 69, 68, 32, 66, 79, 88]> : memref<?xi8>}> : () -> memref<?xi8>
%consti_3 = "arith.constant"() <{value = 8 : i32}> : () -> i32
%medbox = sdql.external "ConstantString", %constds_2, %consti_3 : memref<?xi8>, i32 -> memref<7xi8>
%fieldnode_4 = sdql.access_record %part "size" : record<"p_partkey": dictionary<i32, i32>, "p_name": dictionary<i32, memref<55xi8>>, "p_mfgr": dictionary<i32, memref<25xi8>>, "p_brand": dictionary<i32, memref<10xi8>>, "p_type": dictionary<i32, memref<25xi8>>, "p_size": dictionary<i32, i32>, "p_container": dictionary<i32, memref<10xi8>>, "p_retailprice": dictionary<i32, f64>, "p_comment": dictionary<i32, memref<23xi8>>, "size": i32> -> i32
%rangenode_5 = "func.call"(%fieldnode_4) <{callee = @range_builtin}> : (i32) -> dictionary<i32, i32>
%p_h = sdql.sum %rangenode_5 : dictionary<i32, i32> -> dictionary<i32, record<"_" : i32>> {
^bb_6(%i: i32, %_: i32):
  %fieldnode_8 = sdql.access_record %part "p_partkey" : record<"p_partkey": dictionary<i32, i32>, "p_name": dictionary<i32, memref<55xi8>>, "p_mfgr": dictionary<i32, memref<25xi8>>, "p_brand": dictionary<i32, memref<10xi8>>, "p_type": dictionary<i32, memref<25xi8>>, "p_size": dictionary<i32, i32>, "p_container": dictionary<i32, memref<10xi8>>, "p_retailprice": dictionary<i32, f64>, "p_comment": dictionary<i32, memref<23xi8>>, "size": i32> -> dictionary<i32, i32>
  %get_7 = sdql.lookup_dictionary %fieldnode_8 [%i : i32] : dictionary<i32, i32> -> i32
  %fieldnode_10 = sdql.access_record %part "p_name" : record<"p_partkey": dictionary<i32, i32>, "p_name": dictionary<i32, memref<55xi8>>, "p_mfgr": dictionary<i32, memref<25xi8>>, "p_brand": dictionary<i32, memref<10xi8>>, "p_type": dictionary<i32, memref<25xi8>>, "p_size": dictionary<i32, i32>, "p_container": dictionary<i32, memref<10xi8>>, "p_retailprice": dictionary<i32, f64>, "p_comment": dictionary<i32, memref<23xi8>>, "size": i32> -> dictionary<i32, memref<55xi8>>
  %get_9 = sdql.lookup_dictionary %fieldnode_10 [%i : i32] : dictionary<i32, memref<55xi8>> -> memref<55xi8>
  %fieldnode_12 = sdql.access_record %part "p_mfgr" : record<"p_partkey": dictionary<i32, i32>, "p_name": dictionary<i32, memref<55xi8>>, "p_mfgr": dictionary<i32, memref<25xi8>>, "p_brand": dictionary<i32, memref<10xi8>>, "p_type": dictionary<i32, memref<25xi8>>, "p_size": dictionary<i32, i32>, "p_container": dictionary<i32, memref<10xi8>>, "p_retailprice": dictionary<i32, f64>, "p_comment": dictionary<i32, memref<23xi8>>, "size": i32> -> dictionary<i32, memref<25xi8>>
  %get_11 = sdql.lookup_dictionary %fieldnode_12 [%i : i32] : dictionary<i32, memref<25xi8>> -> memref<25xi8>
  %fieldnode_14 = sdql.access_record %part "p_brand" : record<"p_partkey": dictionary<i32, i32>, "p_name": dictionary<i32, memref<55xi8>>, "p_mfgr": dictionary<i32, memref<25xi8>>, "p_brand": dictionary<i32, memref<10xi8>>, "p_type": dictionary<i32, memref<25xi8>>, "p_size": dictionary<i32, i32>, "p_container": dictionary<i32, memref<10xi8>>, "p_retailprice": dictionary<i32, f64>, "p_comment": dictionary<i32, memref<23xi8>>, "size": i32> -> dictionary<i32, memref<10xi8>>
  %get_13 = sdql.lookup_dictionary %fieldnode_14 [%i : i32] : dictionary<i32, memref<10xi8>> -> memref<10xi8>
  %fieldnode_16 = sdql.access_record %part "p_type" : record<"p_partkey": dictionary<i32, i32>, "p_name": dictionary<i32, memref<55xi8>>, "p_mfgr": dictionary<i32, memref<25xi8>>, "p_brand": dictionary<i32, memref<10xi8>>, "p_type": dictionary<i32, memref<25xi8>>, "p_size": dictionary<i32, i32>, "p_container": dictionary<i32, memref<10xi8>>, "p_retailprice": dictionary<i32, f64>, "p_comment": dictionary<i32, memref<23xi8>>, "size": i32> -> dictionary<i32, memref<25xi8>>
  %get_15 = sdql.lookup_dictionary %fieldnode_16 [%i : i32] : dictionary<i32, memref<25xi8>> -> memref<25xi8>
  %fieldnode_18 = sdql.access_record %part "p_size" : record<"p_partkey": dictionary<i32, i32>, "p_name": dictionary<i32, memref<55xi8>>, "p_mfgr": dictionary<i32, memref<25xi8>>, "p_brand": dictionary<i32, memref<10xi8>>, "p_type": dictionary<i32, memref<25xi8>>, "p_size": dictionary<i32, i32>, "p_container": dictionary<i32, memref<10xi8>>, "p_retailprice": dictionary<i32, f64>, "p_comment": dictionary<i32, memref<23xi8>>, "size": i32> -> dictionary<i32, i32>
  %get_17 = sdql.lookup_dictionary %fieldnode_18 [%i : i32] : dictionary<i32, i32> -> i32
  %fieldnode_20 = sdql.access_record %part "p_container" : record<"p_partkey": dictionary<i32, i32>, "p_name": dictionary<i32, memref<55xi8>>, "p_mfgr": dictionary<i32, memref<25xi8>>, "p_brand": dictionary<i32, memref<10xi8>>, "p_type": dictionary<i32, memref<25xi8>>, "p_size": dictionary<i32, i32>, "p_container": dictionary<i32, memref<10xi8>>, "p_retailprice": dictionary<i32, f64>, "p_comment": dictionary<i32, memref<23xi8>>, "size": i32> -> dictionary<i32, memref<10xi8>>
  %get_19 = sdql.lookup_dictionary %fieldnode_20 [%i : i32] : dictionary<i32, memref<10xi8>> -> memref<10xi8>
  %fieldnode_22 = sdql.access_record %part "p_retailprice" : record<"p_partkey": dictionary<i32, i32>, "p_name": dictionary<i32, memref<55xi8>>, "p_mfgr": dictionary<i32, memref<25xi8>>, "p_brand": dictionary<i32, memref<10xi8>>, "p_type": dictionary<i32, memref<25xi8>>, "p_size": dictionary<i32, i32>, "p_container": dictionary<i32, memref<10xi8>>, "p_retailprice": dictionary<i32, f64>, "p_comment": dictionary<i32, memref<23xi8>>, "size": i32> -> dictionary<i32, f64>
  %get_21 = sdql.lookup_dictionary %fieldnode_22 [%i : i32] : dictionary<i32, f64> -> f64
  %fieldnode_24 = sdql.access_record %part "p_comment" : record<"p_partkey": dictionary<i32, i32>, "p_name": dictionary<i32, memref<55xi8>>, "p_mfgr": dictionary<i32, memref<25xi8>>, "p_brand": dictionary<i32, memref<10xi8>>, "p_type": dictionary<i32, memref<25xi8>>, "p_size": dictionary<i32, i32>, "p_container": dictionary<i32, memref<10xi8>>, "p_retailprice": dictionary<i32, f64>, "p_comment": dictionary<i32, memref<23xi8>>, "size": i32> -> dictionary<i32, memref<23xi8>>
  %get_23 = sdql.lookup_dictionary %fieldnode_24 [%i : i32] : dictionary<i32, memref<23xi8>> -> memref<23xi8>
  %p = sdql.create_record {fields = ["p_partkey", "p_name", "p_mfgr", "p_brand", "p_type", "p_size", "p_container", "p_retailprice", "p_comment"]} %get_7, %get_9, %get_11, %get_13, %get_15, %get_17, %get_19, %get_21, %get_23 : i32, memref<55xi8>, memref<25xi8>, memref<10xi8>, memref<25xi8>, i32, memref<10xi8>, f64, memref<23xi8> -> record<"p_partkey": i32, "p_name": memref<55xi8>, "p_mfgr": memref<25xi8>, "p_brand": memref<10xi8>, "p_type": memref<25xi8>, "p_size": i32, "p_container": memref<10xi8>, "p_retailprice": f64, "p_comment": memref<23xi8>>
  %fieldnode_25 = sdql.access_record %p "p_brand" : record<"p_partkey": i32, "p_name": memref<55xi8>, "p_mfgr": memref<25xi8>, "p_brand": memref<10xi8>, "p_type": memref<25xi8>, "p_size": i32, "p_container": memref<10xi8>, "p_retailprice": f64, "p_comment": memref<23xi8>> -> memref<10xi8>
  %cmp_26 = sdql.cmp %fieldnode_25, %brand : memref<10xi8>, memref<8xi8> -> i1
  %if_27 = "scf.if"(%cmp_26) ({
    %fieldnode_28 = sdql.access_record %p "p_container" : record<"p_partkey": i32, "p_name": memref<55xi8>, "p_mfgr": memref<25xi8>, "p_brand": memref<10xi8>, "p_type": memref<25xi8>, "p_size": i32, "p_container": memref<10xi8>, "p_retailprice": f64, "p_comment": memref<23xi8>> -> memref<10xi8>
    %cmp_29 = sdql.cmp %fieldnode_28, %medbox : memref<10xi8>, memref<7xi8> -> i1
    "scf.yield"(%cmp_29) : (i1) -> ()
  }, {
    %constv_30 = "arith.constant"() <{value = 0 : i1}> : () -> i1
    "scf.yield"(%constv_30) : (i1) -> ()
  }) : (i1) -> i1
  %if_31 = "scf.if"(%if_27) ({
    %fieldnode_34 = sdql.access_record %p "p_partkey" : record<"p_partkey": i32, "p_name": memref<55xi8>, "p_mfgr": memref<25xi8>, "p_brand": memref<10xi8>, "p_type": memref<25xi8>, "p_size": i32, "p_container": memref<10xi8>, "p_retailprice": f64, "p_comment": memref<23xi8>> -> i32
    %uniq_33 = sdql.unique %fieldnode_34 : i32 -> i32
    %fieldnode_35 = sdql.access_record %p "p_partkey" : record<"p_partkey": i32, "p_name": memref<55xi8>, "p_mfgr": memref<25xi8>, "p_brand": memref<10xi8>, "p_type": memref<25xi8>, "p_size": i32, "p_container": memref<10xi8>, "p_retailprice": f64, "p_comment": memref<23xi8>> -> i32
    %recnode_36 = sdql.create_record {fields = ["_"]} %fieldnode_35 : i32 -> record<"_": i32>
    %dict_32 = sdql.create_dictionary %uniq_33, %recnode_36 : i32, record<"_" : i32> -> dictionary<i32, record<"_" : i32>>
    "scf.yield"(%dict_32) : (dictionary<i32, record<"_" : i32>>) -> ()
  }, {
    %dict_37 = sdql.empty_dictionary : dictionary<i32, record<"_" : i32>>
    "scf.yield"(%dict_37) : (dictionary<i32, record<"_" : i32>>) -> ()
  }) : (i1) -> dictionary<i32, record<"_" : i32>>
  sdql.yield %if_31 : dictionary<i32, record<"_" : i32>>
}
%fieldnode_38 = sdql.access_record %lineitem "size" : record<"l_orderkey": dictionary<i32, i32>, "l_partkey": dictionary<i32, i32>, "l_suppkey": dictionary<i32, i32>, "l_linenumber": dictionary<i32, i32>, "l_quantity": dictionary<i32, f64>, "l_extendedprice": dictionary<i32, f64>, "l_discount": dictionary<i32, f64>, "l_tax": dictionary<i32, f64>, "l_returnflag": dictionary<i32, memref<1xi8>>, "l_linestatus": dictionary<i32, memref<1xi8>>, "l_shipdate": dictionary<i32, i32>, "l_commitdate": dictionary<i32, i32>, "l_receiptdate": dictionary<i32, i32>, "l_shipinstruct": dictionary<i32, memref<25xi8>>, "l_shipmode": dictionary<i32, memref<10xi8>>, "l_comment": dictionary<i32, memref<44xi8>>, "size": i32> -> i32
%rangenode_39 = "func.call"(%fieldnode_38) <{callee = @range_builtin}> : (i32) -> dictionary<i32, i32>
%l_h = sdql.sum %rangenode_39 : dictionary<i32, i32> -> dictionary<i32, record<"_" : f64, "_" : f64>> {
^bb_40(%i: i32, %_: i32):
  %fieldnode_42 = sdql.access_record %lineitem "l_orderkey" : record<"l_orderkey": dictionary<i32, i32>, "l_partkey": dictionary<i32, i32>, "l_suppkey": dictionary<i32, i32>, "l_linenumber": dictionary<i32, i32>, "l_quantity": dictionary<i32, f64>, "l_extendedprice": dictionary<i32, f64>, "l_discount": dictionary<i32, f64>, "l_tax": dictionary<i32, f64>, "l_returnflag": dictionary<i32, memref<1xi8>>, "l_linestatus": dictionary<i32, memref<1xi8>>, "l_shipdate": dictionary<i32, i32>, "l_commitdate": dictionary<i32, i32>, "l_receiptdate": dictionary<i32, i32>, "l_shipinstruct": dictionary<i32, memref<25xi8>>, "l_shipmode": dictionary<i32, memref<10xi8>>, "l_comment": dictionary<i32, memref<44xi8>>, "size": i32> -> dictionary<i32, i32>
  %get_41 = sdql.lookup_dictionary %fieldnode_42 [%i : i32] : dictionary<i32, i32> -> i32
  %fieldnode_44 = sdql.access_record %lineitem "l_partkey" : record<"l_orderkey": dictionary<i32, i32>, "l_partkey": dictionary<i32, i32>, "l_suppkey": dictionary<i32, i32>, "l_linenumber": dictionary<i32, i32>, "l_quantity": dictionary<i32, f64>, "l_extendedprice": dictionary<i32, f64>, "l_discount": dictionary<i32, f64>, "l_tax": dictionary<i32, f64>, "l_returnflag": dictionary<i32, memref<1xi8>>, "l_linestatus": dictionary<i32, memref<1xi8>>, "l_shipdate": dictionary<i32, i32>, "l_commitdate": dictionary<i32, i32>, "l_receiptdate": dictionary<i32, i32>, "l_shipinstruct": dictionary<i32, memref<25xi8>>, "l_shipmode": dictionary<i32, memref<10xi8>>, "l_comment": dictionary<i32, memref<44xi8>>, "size": i32> -> dictionary<i32, i32>
  %get_43 = sdql.lookup_dictionary %fieldnode_44 [%i : i32] : dictionary<i32, i32> -> i32
  %fieldnode_46 = sdql.access_record %lineitem "l_suppkey" : record<"l_orderkey": dictionary<i32, i32>, "l_partkey": dictionary<i32, i32>, "l_suppkey": dictionary<i32, i32>, "l_linenumber": dictionary<i32, i32>, "l_quantity": dictionary<i32, f64>, "l_extendedprice": dictionary<i32, f64>, "l_discount": dictionary<i32, f64>, "l_tax": dictionary<i32, f64>, "l_returnflag": dictionary<i32, memref<1xi8>>, "l_linestatus": dictionary<i32, memref<1xi8>>, "l_shipdate": dictionary<i32, i32>, "l_commitdate": dictionary<i32, i32>, "l_receiptdate": dictionary<i32, i32>, "l_shipinstruct": dictionary<i32, memref<25xi8>>, "l_shipmode": dictionary<i32, memref<10xi8>>, "l_comment": dictionary<i32, memref<44xi8>>, "size": i32> -> dictionary<i32, i32>
  %get_45 = sdql.lookup_dictionary %fieldnode_46 [%i : i32] : dictionary<i32, i32> -> i32
  %fieldnode_48 = sdql.access_record %lineitem "l_linenumber" : record<"l_orderkey": dictionary<i32, i32>, "l_partkey": dictionary<i32, i32>, "l_suppkey": dictionary<i32, i32>, "l_linenumber": dictionary<i32, i32>, "l_quantity": dictionary<i32, f64>, "l_extendedprice": dictionary<i32, f64>, "l_discount": dictionary<i32, f64>, "l_tax": dictionary<i32, f64>, "l_returnflag": dictionary<i32, memref<1xi8>>, "l_linestatus": dictionary<i32, memref<1xi8>>, "l_shipdate": dictionary<i32, i32>, "l_commitdate": dictionary<i32, i32>, "l_receiptdate": dictionary<i32, i32>, "l_shipinstruct": dictionary<i32, memref<25xi8>>, "l_shipmode": dictionary<i32, memref<10xi8>>, "l_comment": dictionary<i32, memref<44xi8>>, "size": i32> -> dictionary<i32, i32>
  %get_47 = sdql.lookup_dictionary %fieldnode_48 [%i : i32] : dictionary<i32, i32> -> i32
  %fieldnode_50 = sdql.access_record %lineitem "l_quantity" : record<"l_orderkey": dictionary<i32, i32>, "l_partkey": dictionary<i32, i32>, "l_suppkey": dictionary<i32, i32>, "l_linenumber": dictionary<i32, i32>, "l_quantity": dictionary<i32, f64>, "l_extendedprice": dictionary<i32, f64>, "l_discount": dictionary<i32, f64>, "l_tax": dictionary<i32, f64>, "l_returnflag": dictionary<i32, memref<1xi8>>, "l_linestatus": dictionary<i32, memref<1xi8>>, "l_shipdate": dictionary<i32, i32>, "l_commitdate": dictionary<i32, i32>, "l_receiptdate": dictionary<i32, i32>, "l_shipinstruct": dictionary<i32, memref<25xi8>>, "l_shipmode": dictionary<i32, memref<10xi8>>, "l_comment": dictionary<i32, memref<44xi8>>, "size": i32> -> dictionary<i32, f64>
  %get_49 = sdql.lookup_dictionary %fieldnode_50 [%i : i32] : dictionary<i32, f64> -> f64
  %fieldnode_52 = sdql.access_record %lineitem "l_extendedprice" : record<"l_orderkey": dictionary<i32, i32>, "l_partkey": dictionary<i32, i32>, "l_suppkey": dictionary<i32, i32>, "l_linenumber": dictionary<i32, i32>, "l_quantity": dictionary<i32, f64>, "l_extendedprice": dictionary<i32, f64>, "l_discount": dictionary<i32, f64>, "l_tax": dictionary<i32, f64>, "l_returnflag": dictionary<i32, memref<1xi8>>, "l_linestatus": dictionary<i32, memref<1xi8>>, "l_shipdate": dictionary<i32, i32>, "l_commitdate": dictionary<i32, i32>, "l_receiptdate": dictionary<i32, i32>, "l_shipinstruct": dictionary<i32, memref<25xi8>>, "l_shipmode": dictionary<i32, memref<10xi8>>, "l_comment": dictionary<i32, memref<44xi8>>, "size": i32> -> dictionary<i32, f64>
  %get_51 = sdql.lookup_dictionary %fieldnode_52 [%i : i32] : dictionary<i32, f64> -> f64
  %fieldnode_54 = sdql.access_record %lineitem "l_discount" : record<"l_orderkey": dictionary<i32, i32>, "l_partkey": dictionary<i32, i32>, "l_suppkey": dictionary<i32, i32>, "l_linenumber": dictionary<i32, i32>, "l_quantity": dictionary<i32, f64>, "l_extendedprice": dictionary<i32, f64>, "l_discount": dictionary<i32, f64>, "l_tax": dictionary<i32, f64>, "l_returnflag": dictionary<i32, memref<1xi8>>, "l_linestatus": dictionary<i32, memref<1xi8>>, "l_shipdate": dictionary<i32, i32>, "l_commitdate": dictionary<i32, i32>, "l_receiptdate": dictionary<i32, i32>, "l_shipinstruct": dictionary<i32, memref<25xi8>>, "l_shipmode": dictionary<i32, memref<10xi8>>, "l_comment": dictionary<i32, memref<44xi8>>, "size": i32> -> dictionary<i32, f64>
  %get_53 = sdql.lookup_dictionary %fieldnode_54 [%i : i32] : dictionary<i32, f64> -> f64
  %fieldnode_56 = sdql.access_record %lineitem "l_tax" : record<"l_orderkey": dictionary<i32, i32>, "l_partkey": dictionary<i32, i32>, "l_suppkey": dictionary<i32, i32>, "l_linenumber": dictionary<i32, i32>, "l_quantity": dictionary<i32, f64>, "l_extendedprice": dictionary<i32, f64>, "l_discount": dictionary<i32, f64>, "l_tax": dictionary<i32, f64>, "l_returnflag": dictionary<i32, memref<1xi8>>, "l_linestatus": dictionary<i32, memref<1xi8>>, "l_shipdate": dictionary<i32, i32>, "l_commitdate": dictionary<i32, i32>, "l_receiptdate": dictionary<i32, i32>, "l_shipinstruct": dictionary<i32, memref<25xi8>>, "l_shipmode": dictionary<i32, memref<10xi8>>, "l_comment": dictionary<i32, memref<44xi8>>, "size": i32> -> dictionary<i32, f64>
  %get_55 = sdql.lookup_dictionary %fieldnode_56 [%i : i32] : dictionary<i32, f64> -> f64
  %fieldnode_58 = sdql.access_record %lineitem "l_returnflag" : record<"l_orderkey": dictionary<i32, i32>, "l_partkey": dictionary<i32, i32>, "l_suppkey": dictionary<i32, i32>, "l_linenumber": dictionary<i32, i32>, "l_quantity": dictionary<i32, f64>, "l_extendedprice": dictionary<i32, f64>, "l_discount": dictionary<i32, f64>, "l_tax": dictionary<i32, f64>, "l_returnflag": dictionary<i32, memref<1xi8>>, "l_linestatus": dictionary<i32, memref<1xi8>>, "l_shipdate": dictionary<i32, i32>, "l_commitdate": dictionary<i32, i32>, "l_receiptdate": dictionary<i32, i32>, "l_shipinstruct": dictionary<i32, memref<25xi8>>, "l_shipmode": dictionary<i32, memref<10xi8>>, "l_comment": dictionary<i32, memref<44xi8>>, "size": i32> -> dictionary<i32, memref<1xi8>>
  %get_57 = sdql.lookup_dictionary %fieldnode_58 [%i : i32] : dictionary<i32, memref<1xi8>> -> memref<1xi8>
  %fieldnode_60 = sdql.access_record %lineitem "l_linestatus" : record<"l_orderkey": dictionary<i32, i32>, "l_partkey": dictionary<i32, i32>, "l_suppkey": dictionary<i32, i32>, "l_linenumber": dictionary<i32, i32>, "l_quantity": dictionary<i32, f64>, "l_extendedprice": dictionary<i32, f64>, "l_discount": dictionary<i32, f64>, "l_tax": dictionary<i32, f64>, "l_returnflag": dictionary<i32, memref<1xi8>>, "l_linestatus": dictionary<i32, memref<1xi8>>, "l_shipdate": dictionary<i32, i32>, "l_commitdate": dictionary<i32, i32>, "l_receiptdate": dictionary<i32, i32>, "l_shipinstruct": dictionary<i32, memref<25xi8>>, "l_shipmode": dictionary<i32, memref<10xi8>>, "l_comment": dictionary<i32, memref<44xi8>>, "size": i32> -> dictionary<i32, memref<1xi8>>
  %get_59 = sdql.lookup_dictionary %fieldnode_60 [%i : i32] : dictionary<i32, memref<1xi8>> -> memref<1xi8>
  %fieldnode_62 = sdql.access_record %lineitem "l_shipdate" : record<"l_orderkey": dictionary<i32, i32>, "l_partkey": dictionary<i32, i32>, "l_suppkey": dictionary<i32, i32>, "l_linenumber": dictionary<i32, i32>, "l_quantity": dictionary<i32, f64>, "l_extendedprice": dictionary<i32, f64>, "l_discount": dictionary<i32, f64>, "l_tax": dictionary<i32, f64>, "l_returnflag": dictionary<i32, memref<1xi8>>, "l_linestatus": dictionary<i32, memref<1xi8>>, "l_shipdate": dictionary<i32, i32>, "l_commitdate": dictionary<i32, i32>, "l_receiptdate": dictionary<i32, i32>, "l_shipinstruct": dictionary<i32, memref<25xi8>>, "l_shipmode": dictionary<i32, memref<10xi8>>, "l_comment": dictionary<i32, memref<44xi8>>, "size": i32> -> dictionary<i32, i32>
  %get_61 = sdql.lookup_dictionary %fieldnode_62 [%i : i32] : dictionary<i32, i32> -> i32
  %fieldnode_64 = sdql.access_record %lineitem "l_commitdate" : record<"l_orderkey": dictionary<i32, i32>, "l_partkey": dictionary<i32, i32>, "l_suppkey": dictionary<i32, i32>, "l_linenumber": dictionary<i32, i32>, "l_quantity": dictionary<i32, f64>, "l_extendedprice": dictionary<i32, f64>, "l_discount": dictionary<i32, f64>, "l_tax": dictionary<i32, f64>, "l_returnflag": dictionary<i32, memref<1xi8>>, "l_linestatus": dictionary<i32, memref<1xi8>>, "l_shipdate": dictionary<i32, i32>, "l_commitdate": dictionary<i32, i32>, "l_receiptdate": dictionary<i32, i32>, "l_shipinstruct": dictionary<i32, memref<25xi8>>, "l_shipmode": dictionary<i32, memref<10xi8>>, "l_comment": dictionary<i32, memref<44xi8>>, "size": i32> -> dictionary<i32, i32>
  %get_63 = sdql.lookup_dictionary %fieldnode_64 [%i : i32] : dictionary<i32, i32> -> i32
  %fieldnode_66 = sdql.access_record %lineitem "l_receiptdate" : record<"l_orderkey": dictionary<i32, i32>, "l_partkey": dictionary<i32, i32>, "l_suppkey": dictionary<i32, i32>, "l_linenumber": dictionary<i32, i32>, "l_quantity": dictionary<i32, f64>, "l_extendedprice": dictionary<i32, f64>, "l_discount": dictionary<i32, f64>, "l_tax": dictionary<i32, f64>, "l_returnflag": dictionary<i32, memref<1xi8>>, "l_linestatus": dictionary<i32, memref<1xi8>>, "l_shipdate": dictionary<i32, i32>, "l_commitdate": dictionary<i32, i32>, "l_receiptdate": dictionary<i32, i32>, "l_shipinstruct": dictionary<i32, memref<25xi8>>, "l_shipmode": dictionary<i32, memref<10xi8>>, "l_comment": dictionary<i32, memref<44xi8>>, "size": i32> -> dictionary<i32, i32>
  %get_65 = sdql.lookup_dictionary %fieldnode_66 [%i : i32] : dictionary<i32, i32> -> i32
  %fieldnode_68 = sdql.access_record %lineitem "l_shipinstruct" : record<"l_orderkey": dictionary<i32, i32>, "l_partkey": dictionary<i32, i32>, "l_suppkey": dictionary<i32, i32>, "l_linenumber": dictionary<i32, i32>, "l_quantity": dictionary<i32, f64>, "l_extendedprice": dictionary<i32, f64>, "l_discount": dictionary<i32, f64>, "l_tax": dictionary<i32, f64>, "l_returnflag": dictionary<i32, memref<1xi8>>, "l_linestatus": dictionary<i32, memref<1xi8>>, "l_shipdate": dictionary<i32, i32>, "l_commitdate": dictionary<i32, i32>, "l_receiptdate": dictionary<i32, i32>, "l_shipinstruct": dictionary<i32, memref<25xi8>>, "l_shipmode": dictionary<i32, memref<10xi8>>, "l_comment": dictionary<i32, memref<44xi8>>, "size": i32> -> dictionary<i32, memref<25xi8>>
  %get_67 = sdql.lookup_dictionary %fieldnode_68 [%i : i32] : dictionary<i32, memref<25xi8>> -> memref<25xi8>
  %fieldnode_70 = sdql.access_record %lineitem "l_shipmode" : record<"l_orderkey": dictionary<i32, i32>, "l_partkey": dictionary<i32, i32>, "l_suppkey": dictionary<i32, i32>, "l_linenumber": dictionary<i32, i32>, "l_quantity": dictionary<i32, f64>, "l_extendedprice": dictionary<i32, f64>, "l_discount": dictionary<i32, f64>, "l_tax": dictionary<i32, f64>, "l_returnflag": dictionary<i32, memref<1xi8>>, "l_linestatus": dictionary<i32, memref<1xi8>>, "l_shipdate": dictionary<i32, i32>, "l_commitdate": dictionary<i32, i32>, "l_receiptdate": dictionary<i32, i32>, "l_shipinstruct": dictionary<i32, memref<25xi8>>, "l_shipmode": dictionary<i32, memref<10xi8>>, "l_comment": dictionary<i32, memref<44xi8>>, "size": i32> -> dictionary<i32, memref<10xi8>>
  %get_69 = sdql.lookup_dictionary %fieldnode_70 [%i : i32] : dictionary<i32, memref<10xi8>> -> memref<10xi8>
  %fieldnode_72 = sdql.access_record %lineitem "l_comment" : record<"l_orderkey": dictionary<i32, i32>, "l_partkey": dictionary<i32, i32>, "l_suppkey": dictionary<i32, i32>, "l_linenumber": dictionary<i32, i32>, "l_quantity": dictionary<i32, f64>, "l_extendedprice": dictionary<i32, f64>, "l_discount": dictionary<i32, f64>, "l_tax": dictionary<i32, f64>, "l_returnflag": dictionary<i32, memref<1xi8>>, "l_linestatus": dictionary<i32, memref<1xi8>>, "l_shipdate": dictionary<i32, i32>, "l_commitdate": dictionary<i32, i32>, "l_receiptdate": dictionary<i32, i32>, "l_shipinstruct": dictionary<i32, memref<25xi8>>, "l_shipmode": dictionary<i32, memref<10xi8>>, "l_comment": dictionary<i32, memref<44xi8>>, "size": i32> -> dictionary<i32, memref<44xi8>>
  %get_71 = sdql.lookup_dictionary %fieldnode_72 [%i : i32] : dictionary<i32, memref<44xi8>> -> memref<44xi8>
  %l = sdql.create_record {fields = ["l_orderkey", "l_partkey", "l_suppkey", "l_linenumber", "l_quantity", "l_extendedprice", "l_discount", "l_tax", "l_returnflag", "l_linestatus", "l_shipdate", "l_commitdate", "l_receiptdate", "l_shipinstruct", "l_shipmode", "l_comment"]} %get_41, %get_43, %get_45, %get_47, %get_49, %get_51, %get_53, %get_55, %get_57, %get_59, %get_61, %get_63, %get_65, %get_67, %get_69, %get_71 : i32, i32, i32, i32, f64, f64, f64, f64, memref<1xi8>, memref<1xi8>, i32, i32, i32, memref<25xi8>, memref<10xi8>, memref<44xi8> -> record<"l_orderkey": i32, "l_partkey": i32, "l_suppkey": i32, "l_linenumber": i32, "l_quantity": f64, "l_extendedprice": f64, "l_discount": f64, "l_tax": f64, "l_returnflag": memref<1xi8>, "l_linestatus": memref<1xi8>, "l_shipdate": i32, "l_commitdate": i32, "l_receiptdate": i32, "l_shipinstruct": memref<25xi8>, "l_shipmode": memref<10xi8>, "l_comment": memref<44xi8>>
  %fieldnode_76 = sdql.access_record %l "l_partkey" : record<"l_orderkey": i32, "l_partkey": i32, "l_suppkey": i32, "l_linenumber": i32, "l_quantity": f64, "l_extendedprice": f64, "l_discount": f64, "l_tax": f64, "l_returnflag": memref<1xi8>, "l_linestatus": memref<1xi8>, "l_shipdate": i32, "l_commitdate": i32, "l_receiptdate": i32, "l_shipinstruct": memref<25xi8>, "l_shipmode": memref<10xi8>, "l_comment": memref<44xi8>> -> i32
  %get_75 = sdql.lookup_dictionary %p_h [%fieldnode_76 : i32] : dictionary<i32, record<"_" : i32>> -> record<"_" : i32>
  %dict_77 = sdql.empty_dictionary : record<"_" : i32>
  %cmp_78 = sdql.cmp %get_75, %dict_77 : record<"_" : i32>, record<"_" : i32> -> i1
  %zero_73 = "arith.constant"() <{value = 0 : i1}> : () -> i1
  %neg_74 = "arith.cmpi"(%cmp_78, %zero_73) <{predicate = 0}> : (i1, i1) -> i1
  %if_79 = "scf.if"(%neg_74) ({
    %fieldnode_81 = sdql.access_record %l "l_partkey" : record<"l_orderkey": i32, "l_partkey": i32, "l_suppkey": i32, "l_linenumber": i32, "l_quantity": f64, "l_extendedprice": f64, "l_discount": f64, "l_tax": f64, "l_returnflag": memref<1xi8>, "l_linestatus": memref<1xi8>, "l_shipdate": i32, "l_commitdate": i32, "l_receiptdate": i32, "l_shipinstruct": memref<25xi8>, "l_shipmode": memref<10xi8>, "l_comment": memref<44xi8>> -> i32
    %fieldnode_82 = sdql.access_record %l "l_quantity" : record<"l_orderkey": i32, "l_partkey": i32, "l_suppkey": i32, "l_linenumber": i32, "l_quantity": f64, "l_extendedprice": f64, "l_discount": f64, "l_tax": f64, "l_returnflag": memref<1xi8>, "l_linestatus": memref<1xi8>, "l_shipdate": i32, "l_commitdate": i32, "l_receiptdate": i32, "l_shipinstruct": memref<25xi8>, "l_shipmode": memref<10xi8>, "l_comment": memref<44xi8>> -> f64
    %constd_83 = "arith.constant"() <{value = 1.0  : f64}> : () -> f64
    %recnode_84 = sdql.create_record {fields = ["_", "_"]} %fieldnode_82, %constd_83 : f64, f64 -> record<"_": f64, "_": f64>
    %dict_80 = sdql.create_dictionary %fieldnode_81, %recnode_84 : i32, record<"_" : f64, "_" : f64> -> dictionary<i32, record<"_" : f64, "_" : f64>>
    "scf.yield"(%dict_80) : (dictionary<i32, record<"_" : f64, "_" : f64>>) -> ()
  }, {
    %dict_85 = sdql.empty_dictionary : dictionary<i32, record<"_" : f64, "_" : f64>>
    "scf.yield"(%dict_85) : (dictionary<i32, record<"_" : f64, "_" : f64>>) -> ()
  }) : (i1) -> dictionary<i32, record<"_" : f64, "_" : f64>>
  sdql.yield %if_79 : dictionary<i32, record<"_" : f64, "_" : f64>>
}
%fieldnode_86 = sdql.access_record %lineitem "size" : record<"l_orderkey": dictionary<i32, i32>, "l_partkey": dictionary<i32, i32>, "l_suppkey": dictionary<i32, i32>, "l_linenumber": dictionary<i32, i32>, "l_quantity": dictionary<i32, f64>, "l_extendedprice": dictionary<i32, f64>, "l_discount": dictionary<i32, f64>, "l_tax": dictionary<i32, f64>, "l_returnflag": dictionary<i32, memref<1xi8>>, "l_linestatus": dictionary<i32, memref<1xi8>>, "l_shipdate": dictionary<i32, i32>, "l_commitdate": dictionary<i32, i32>, "l_receiptdate": dictionary<i32, i32>, "l_shipinstruct": dictionary<i32, memref<25xi8>>, "l_shipmode": dictionary<i32, memref<10xi8>>, "l_comment": dictionary<i32, memref<44xi8>>, "size": i32> -> i32
%rangenode_87 = "func.call"(%fieldnode_86) <{callee = @range_builtin}> : (i32) -> dictionary<i32, i32>
%tot = sdql.sum %rangenode_87 : dictionary<i32, i32> -> f64 {
^bb_88(%i: i32, %_: i32):
  %fieldnode_90 = sdql.access_record %lineitem "l_orderkey" : record<"l_orderkey": dictionary<i32, i32>, "l_partkey": dictionary<i32, i32>, "l_suppkey": dictionary<i32, i32>, "l_linenumber": dictionary<i32, i32>, "l_quantity": dictionary<i32, f64>, "l_extendedprice": dictionary<i32, f64>, "l_discount": dictionary<i32, f64>, "l_tax": dictionary<i32, f64>, "l_returnflag": dictionary<i32, memref<1xi8>>, "l_linestatus": dictionary<i32, memref<1xi8>>, "l_shipdate": dictionary<i32, i32>, "l_commitdate": dictionary<i32, i32>, "l_receiptdate": dictionary<i32, i32>, "l_shipinstruct": dictionary<i32, memref<25xi8>>, "l_shipmode": dictionary<i32, memref<10xi8>>, "l_comment": dictionary<i32, memref<44xi8>>, "size": i32> -> dictionary<i32, i32>
  %get_89 = sdql.lookup_dictionary %fieldnode_90 [%i : i32] : dictionary<i32, i32> -> i32
  %fieldnode_92 = sdql.access_record %lineitem "l_partkey" : record<"l_orderkey": dictionary<i32, i32>, "l_partkey": dictionary<i32, i32>, "l_suppkey": dictionary<i32, i32>, "l_linenumber": dictionary<i32, i32>, "l_quantity": dictionary<i32, f64>, "l_extendedprice": dictionary<i32, f64>, "l_discount": dictionary<i32, f64>, "l_tax": dictionary<i32, f64>, "l_returnflag": dictionary<i32, memref<1xi8>>, "l_linestatus": dictionary<i32, memref<1xi8>>, "l_shipdate": dictionary<i32, i32>, "l_commitdate": dictionary<i32, i32>, "l_receiptdate": dictionary<i32, i32>, "l_shipinstruct": dictionary<i32, memref<25xi8>>, "l_shipmode": dictionary<i32, memref<10xi8>>, "l_comment": dictionary<i32, memref<44xi8>>, "size": i32> -> dictionary<i32, i32>
  %get_91 = sdql.lookup_dictionary %fieldnode_92 [%i : i32] : dictionary<i32, i32> -> i32
  %fieldnode_94 = sdql.access_record %lineitem "l_suppkey" : record<"l_orderkey": dictionary<i32, i32>, "l_partkey": dictionary<i32, i32>, "l_suppkey": dictionary<i32, i32>, "l_linenumber": dictionary<i32, i32>, "l_quantity": dictionary<i32, f64>, "l_extendedprice": dictionary<i32, f64>, "l_discount": dictionary<i32, f64>, "l_tax": dictionary<i32, f64>, "l_returnflag": dictionary<i32, memref<1xi8>>, "l_linestatus": dictionary<i32, memref<1xi8>>, "l_shipdate": dictionary<i32, i32>, "l_commitdate": dictionary<i32, i32>, "l_receiptdate": dictionary<i32, i32>, "l_shipinstruct": dictionary<i32, memref<25xi8>>, "l_shipmode": dictionary<i32, memref<10xi8>>, "l_comment": dictionary<i32, memref<44xi8>>, "size": i32> -> dictionary<i32, i32>
  %get_93 = sdql.lookup_dictionary %fieldnode_94 [%i : i32] : dictionary<i32, i32> -> i32
  %fieldnode_96 = sdql.access_record %lineitem "l_linenumber" : record<"l_orderkey": dictionary<i32, i32>, "l_partkey": dictionary<i32, i32>, "l_suppkey": dictionary<i32, i32>, "l_linenumber": dictionary<i32, i32>, "l_quantity": dictionary<i32, f64>, "l_extendedprice": dictionary<i32, f64>, "l_discount": dictionary<i32, f64>, "l_tax": dictionary<i32, f64>, "l_returnflag": dictionary<i32, memref<1xi8>>, "l_linestatus": dictionary<i32, memref<1xi8>>, "l_shipdate": dictionary<i32, i32>, "l_commitdate": dictionary<i32, i32>, "l_receiptdate": dictionary<i32, i32>, "l_shipinstruct": dictionary<i32, memref<25xi8>>, "l_shipmode": dictionary<i32, memref<10xi8>>, "l_comment": dictionary<i32, memref<44xi8>>, "size": i32> -> dictionary<i32, i32>
  %get_95 = sdql.lookup_dictionary %fieldnode_96 [%i : i32] : dictionary<i32, i32> -> i32
  %fieldnode_98 = sdql.access_record %lineitem "l_quantity" : record<"l_orderkey": dictionary<i32, i32>, "l_partkey": dictionary<i32, i32>, "l_suppkey": dictionary<i32, i32>, "l_linenumber": dictionary<i32, i32>, "l_quantity": dictionary<i32, f64>, "l_extendedprice": dictionary<i32, f64>, "l_discount": dictionary<i32, f64>, "l_tax": dictionary<i32, f64>, "l_returnflag": dictionary<i32, memref<1xi8>>, "l_linestatus": dictionary<i32, memref<1xi8>>, "l_shipdate": dictionary<i32, i32>, "l_commitdate": dictionary<i32, i32>, "l_receiptdate": dictionary<i32, i32>, "l_shipinstruct": dictionary<i32, memref<25xi8>>, "l_shipmode": dictionary<i32, memref<10xi8>>, "l_comment": dictionary<i32, memref<44xi8>>, "size": i32> -> dictionary<i32, f64>
  %get_97 = sdql.lookup_dictionary %fieldnode_98 [%i : i32] : dictionary<i32, f64> -> f64
  %fieldnode_100 = sdql.access_record %lineitem "l_extendedprice" : record<"l_orderkey": dictionary<i32, i32>, "l_partkey": dictionary<i32, i32>, "l_suppkey": dictionary<i32, i32>, "l_linenumber": dictionary<i32, i32>, "l_quantity": dictionary<i32, f64>, "l_extendedprice": dictionary<i32, f64>, "l_discount": dictionary<i32, f64>, "l_tax": dictionary<i32, f64>, "l_returnflag": dictionary<i32, memref<1xi8>>, "l_linestatus": dictionary<i32, memref<1xi8>>, "l_shipdate": dictionary<i32, i32>, "l_commitdate": dictionary<i32, i32>, "l_receiptdate": dictionary<i32, i32>, "l_shipinstruct": dictionary<i32, memref<25xi8>>, "l_shipmode": dictionary<i32, memref<10xi8>>, "l_comment": dictionary<i32, memref<44xi8>>, "size": i32> -> dictionary<i32, f64>
  %get_99 = sdql.lookup_dictionary %fieldnode_100 [%i : i32] : dictionary<i32, f64> -> f64
  %fieldnode_102 = sdql.access_record %lineitem "l_discount" : record<"l_orderkey": dictionary<i32, i32>, "l_partkey": dictionary<i32, i32>, "l_suppkey": dictionary<i32, i32>, "l_linenumber": dictionary<i32, i32>, "l_quantity": dictionary<i32, f64>, "l_extendedprice": dictionary<i32, f64>, "l_discount": dictionary<i32, f64>, "l_tax": dictionary<i32, f64>, "l_returnflag": dictionary<i32, memref<1xi8>>, "l_linestatus": dictionary<i32, memref<1xi8>>, "l_shipdate": dictionary<i32, i32>, "l_commitdate": dictionary<i32, i32>, "l_receiptdate": dictionary<i32, i32>, "l_shipinstruct": dictionary<i32, memref<25xi8>>, "l_shipmode": dictionary<i32, memref<10xi8>>, "l_comment": dictionary<i32, memref<44xi8>>, "size": i32> -> dictionary<i32, f64>
  %get_101 = sdql.lookup_dictionary %fieldnode_102 [%i : i32] : dictionary<i32, f64> -> f64
  %fieldnode_104 = sdql.access_record %lineitem "l_tax" : record<"l_orderkey": dictionary<i32, i32>, "l_partkey": dictionary<i32, i32>, "l_suppkey": dictionary<i32, i32>, "l_linenumber": dictionary<i32, i32>, "l_quantity": dictionary<i32, f64>, "l_extendedprice": dictionary<i32, f64>, "l_discount": dictionary<i32, f64>, "l_tax": dictionary<i32, f64>, "l_returnflag": dictionary<i32, memref<1xi8>>, "l_linestatus": dictionary<i32, memref<1xi8>>, "l_shipdate": dictionary<i32, i32>, "l_commitdate": dictionary<i32, i32>, "l_receiptdate": dictionary<i32, i32>, "l_shipinstruct": dictionary<i32, memref<25xi8>>, "l_shipmode": dictionary<i32, memref<10xi8>>, "l_comment": dictionary<i32, memref<44xi8>>, "size": i32> -> dictionary<i32, f64>
  %get_103 = sdql.lookup_dictionary %fieldnode_104 [%i : i32] : dictionary<i32, f64> -> f64
  %fieldnode_106 = sdql.access_record %lineitem "l_returnflag" : record<"l_orderkey": dictionary<i32, i32>, "l_partkey": dictionary<i32, i32>, "l_suppkey": dictionary<i32, i32>, "l_linenumber": dictionary<i32, i32>, "l_quantity": dictionary<i32, f64>, "l_extendedprice": dictionary<i32, f64>, "l_discount": dictionary<i32, f64>, "l_tax": dictionary<i32, f64>, "l_returnflag": dictionary<i32, memref<1xi8>>, "l_linestatus": dictionary<i32, memref<1xi8>>, "l_shipdate": dictionary<i32, i32>, "l_commitdate": dictionary<i32, i32>, "l_receiptdate": dictionary<i32, i32>, "l_shipinstruct": dictionary<i32, memref<25xi8>>, "l_shipmode": dictionary<i32, memref<10xi8>>, "l_comment": dictionary<i32, memref<44xi8>>, "size": i32> -> dictionary<i32, memref<1xi8>>
  %get_105 = sdql.lookup_dictionary %fieldnode_106 [%i : i32] : dictionary<i32, memref<1xi8>> -> memref<1xi8>
  %fieldnode_108 = sdql.access_record %lineitem "l_linestatus" : record<"l_orderkey": dictionary<i32, i32>, "l_partkey": dictionary<i32, i32>, "l_suppkey": dictionary<i32, i32>, "l_linenumber": dictionary<i32, i32>, "l_quantity": dictionary<i32, f64>, "l_extendedprice": dictionary<i32, f64>, "l_discount": dictionary<i32, f64>, "l_tax": dictionary<i32, f64>, "l_returnflag": dictionary<i32, memref<1xi8>>, "l_linestatus": dictionary<i32, memref<1xi8>>, "l_shipdate": dictionary<i32, i32>, "l_commitdate": dictionary<i32, i32>, "l_receiptdate": dictionary<i32, i32>, "l_shipinstruct": dictionary<i32, memref<25xi8>>, "l_shipmode": dictionary<i32, memref<10xi8>>, "l_comment": dictionary<i32, memref<44xi8>>, "size": i32> -> dictionary<i32, memref<1xi8>>
  %get_107 = sdql.lookup_dictionary %fieldnode_108 [%i : i32] : dictionary<i32, memref<1xi8>> -> memref<1xi8>
  %fieldnode_110 = sdql.access_record %lineitem "l_shipdate" : record<"l_orderkey": dictionary<i32, i32>, "l_partkey": dictionary<i32, i32>, "l_suppkey": dictionary<i32, i32>, "l_linenumber": dictionary<i32, i32>, "l_quantity": dictionary<i32, f64>, "l_extendedprice": dictionary<i32, f64>, "l_discount": dictionary<i32, f64>, "l_tax": dictionary<i32, f64>, "l_returnflag": dictionary<i32, memref<1xi8>>, "l_linestatus": dictionary<i32, memref<1xi8>>, "l_shipdate": dictionary<i32, i32>, "l_commitdate": dictionary<i32, i32>, "l_receiptdate": dictionary<i32, i32>, "l_shipinstruct": dictionary<i32, memref<25xi8>>, "l_shipmode": dictionary<i32, memref<10xi8>>, "l_comment": dictionary<i32, memref<44xi8>>, "size": i32> -> dictionary<i32, i32>
  %get_109 = sdql.lookup_dictionary %fieldnode_110 [%i : i32] : dictionary<i32, i32> -> i32
  %fieldnode_112 = sdql.access_record %lineitem "l_commitdate" : record<"l_orderkey": dictionary<i32, i32>, "l_partkey": dictionary<i32, i32>, "l_suppkey": dictionary<i32, i32>, "l_linenumber": dictionary<i32, i32>, "l_quantity": dictionary<i32, f64>, "l_extendedprice": dictionary<i32, f64>, "l_discount": dictionary<i32, f64>, "l_tax": dictionary<i32, f64>, "l_returnflag": dictionary<i32, memref<1xi8>>, "l_linestatus": dictionary<i32, memref<1xi8>>, "l_shipdate": dictionary<i32, i32>, "l_commitdate": dictionary<i32, i32>, "l_receiptdate": dictionary<i32, i32>, "l_shipinstruct": dictionary<i32, memref<25xi8>>, "l_shipmode": dictionary<i32, memref<10xi8>>, "l_comment": dictionary<i32, memref<44xi8>>, "size": i32> -> dictionary<i32, i32>
  %get_111 = sdql.lookup_dictionary %fieldnode_112 [%i : i32] : dictionary<i32, i32> -> i32
  %fieldnode_114 = sdql.access_record %lineitem "l_receiptdate" : record<"l_orderkey": dictionary<i32, i32>, "l_partkey": dictionary<i32, i32>, "l_suppkey": dictionary<i32, i32>, "l_linenumber": dictionary<i32, i32>, "l_quantity": dictionary<i32, f64>, "l_extendedprice": dictionary<i32, f64>, "l_discount": dictionary<i32, f64>, "l_tax": dictionary<i32, f64>, "l_returnflag": dictionary<i32, memref<1xi8>>, "l_linestatus": dictionary<i32, memref<1xi8>>, "l_shipdate": dictionary<i32, i32>, "l_commitdate": dictionary<i32, i32>, "l_receiptdate": dictionary<i32, i32>, "l_shipinstruct": dictionary<i32, memref<25xi8>>, "l_shipmode": dictionary<i32, memref<10xi8>>, "l_comment": dictionary<i32, memref<44xi8>>, "size": i32> -> dictionary<i32, i32>
  %get_113 = sdql.lookup_dictionary %fieldnode_114 [%i : i32] : dictionary<i32, i32> -> i32
  %fieldnode_116 = sdql.access_record %lineitem "l_shipinstruct" : record<"l_orderkey": dictionary<i32, i32>, "l_partkey": dictionary<i32, i32>, "l_suppkey": dictionary<i32, i32>, "l_linenumber": dictionary<i32, i32>, "l_quantity": dictionary<i32, f64>, "l_extendedprice": dictionary<i32, f64>, "l_discount": dictionary<i32, f64>, "l_tax": dictionary<i32, f64>, "l_returnflag": dictionary<i32, memref<1xi8>>, "l_linestatus": dictionary<i32, memref<1xi8>>, "l_shipdate": dictionary<i32, i32>, "l_commitdate": dictionary<i32, i32>, "l_receiptdate": dictionary<i32, i32>, "l_shipinstruct": dictionary<i32, memref<25xi8>>, "l_shipmode": dictionary<i32, memref<10xi8>>, "l_comment": dictionary<i32, memref<44xi8>>, "size": i32> -> dictionary<i32, memref<25xi8>>
  %get_115 = sdql.lookup_dictionary %fieldnode_116 [%i : i32] : dictionary<i32, memref<25xi8>> -> memref<25xi8>
  %fieldnode_118 = sdql.access_record %lineitem "l_shipmode" : record<"l_orderkey": dictionary<i32, i32>, "l_partkey": dictionary<i32, i32>, "l_suppkey": dictionary<i32, i32>, "l_linenumber": dictionary<i32, i32>, "l_quantity": dictionary<i32, f64>, "l_extendedprice": dictionary<i32, f64>, "l_discount": dictionary<i32, f64>, "l_tax": dictionary<i32, f64>, "l_returnflag": dictionary<i32, memref<1xi8>>, "l_linestatus": dictionary<i32, memref<1xi8>>, "l_shipdate": dictionary<i32, i32>, "l_commitdate": dictionary<i32, i32>, "l_receiptdate": dictionary<i32, i32>, "l_shipinstruct": dictionary<i32, memref<25xi8>>, "l_shipmode": dictionary<i32, memref<10xi8>>, "l_comment": dictionary<i32, memref<44xi8>>, "size": i32> -> dictionary<i32, memref<10xi8>>
  %get_117 = sdql.lookup_dictionary %fieldnode_118 [%i : i32] : dictionary<i32, memref<10xi8>> -> memref<10xi8>
  %fieldnode_120 = sdql.access_record %lineitem "l_comment" : record<"l_orderkey": dictionary<i32, i32>, "l_partkey": dictionary<i32, i32>, "l_suppkey": dictionary<i32, i32>, "l_linenumber": dictionary<i32, i32>, "l_quantity": dictionary<i32, f64>, "l_extendedprice": dictionary<i32, f64>, "l_discount": dictionary<i32, f64>, "l_tax": dictionary<i32, f64>, "l_returnflag": dictionary<i32, memref<1xi8>>, "l_linestatus": dictionary<i32, memref<1xi8>>, "l_shipdate": dictionary<i32, i32>, "l_commitdate": dictionary<i32, i32>, "l_receiptdate": dictionary<i32, i32>, "l_shipinstruct": dictionary<i32, memref<25xi8>>, "l_shipmode": dictionary<i32, memref<10xi8>>, "l_comment": dictionary<i32, memref<44xi8>>, "size": i32> -> dictionary<i32, memref<44xi8>>
  %get_119 = sdql.lookup_dictionary %fieldnode_120 [%i : i32] : dictionary<i32, memref<44xi8>> -> memref<44xi8>
  %l = sdql.create_record {fields = ["l_orderkey", "l_partkey", "l_suppkey", "l_linenumber", "l_quantity", "l_extendedprice", "l_discount", "l_tax", "l_returnflag", "l_linestatus", "l_shipdate", "l_commitdate", "l_receiptdate", "l_shipinstruct", "l_shipmode", "l_comment"]} %get_89, %get_91, %get_93, %get_95, %get_97, %get_99, %get_101, %get_103, %get_105, %get_107, %get_109, %get_111, %get_113, %get_115, %get_117, %get_119 : i32, i32, i32, i32, f64, f64, f64, f64, memref<1xi8>, memref<1xi8>, i32, i32, i32, memref<25xi8>, memref<10xi8>, memref<44xi8> -> record<"l_orderkey": i32, "l_partkey": i32, "l_suppkey": i32, "l_linenumber": i32, "l_quantity": f64, "l_extendedprice": f64, "l_discount": f64, "l_tax": f64, "l_returnflag": memref<1xi8>, "l_linestatus": memref<1xi8>, "l_shipdate": i32, "l_commitdate": i32, "l_receiptdate": i32, "l_shipinstruct": memref<25xi8>, "l_shipmode": memref<10xi8>, "l_comment": memref<44xi8>>
  %constd_122 = "arith.constant"() <{value = 0.2  : f64}> : () -> f64
  %fieldnode_125 = sdql.access_record %l "l_partkey" : record<"l_orderkey": i32, "l_partkey": i32, "l_suppkey": i32, "l_linenumber": i32, "l_quantity": f64, "l_extendedprice": f64, "l_discount": f64, "l_tax": f64, "l_returnflag": memref<1xi8>, "l_linestatus": memref<1xi8>, "l_shipdate": i32, "l_commitdate": i32, "l_receiptdate": i32, "l_shipinstruct": memref<25xi8>, "l_shipmode": memref<10xi8>, "l_comment": memref<44xi8>> -> i32
  %get_124 = sdql.lookup_dictionary %l_h [%fieldnode_125 : i32] : dictionary<i32, record<"_" : f64, "_" : f64>> -> record<"_" : f64, "_" : f64>
  %consti_126 = "arith.constant"() <{value = 0 : i32}> : () -> i32
  %get_123 = sdql.access_record %get_124 "%consti_126" : record<"_" : f64, "_" : f64> -> f64
  %multf_121 = "arith.mulf"(%constd_122, %get_123) <{fastmath = #arith.fastmath<none>}> : (f64, f64) -> f64
  %fieldnode_129 = sdql.access_record %l "l_partkey" : record<"l_orderkey": i32, "l_partkey": i32, "l_suppkey": i32, "l_linenumber": i32, "l_quantity": f64, "l_extendedprice": f64, "l_discount": f64, "l_tax": f64, "l_returnflag": memref<1xi8>, "l_linestatus": memref<1xi8>, "l_shipdate": i32, "l_commitdate": i32, "l_receiptdate": i32, "l_shipinstruct": memref<25xi8>, "l_shipmode": memref<10xi8>, "l_comment": memref<44xi8>> -> i32
  %get_128 = sdql.lookup_dictionary %l_h [%fieldnode_129 : i32] : dictionary<i32, record<"_" : f64, "_" : f64>> -> record<"_" : f64, "_" : f64>
  %consti_130 = "arith.constant"() <{value = 1 : i32}> : () -> i32
  %get_127 = sdql.access_record %get_128 "%consti_130" : record<"_" : f64, "_" : f64> -> f64
  %external_131 = sdql.external "inv", %get_127 : f64 -> f64
  %avg = "arith.mulf"(%multf_121, %external_131) <{fastmath = #arith.fastmath<none>}> : (f64, f64) -> f64
  %fieldnode_135 = sdql.access_record %l "l_partkey" : record<"l_orderkey": i32, "l_partkey": i32, "l_suppkey": i32, "l_linenumber": i32, "l_quantity": f64, "l_extendedprice": f64, "l_discount": f64, "l_tax": f64, "l_returnflag": memref<1xi8>, "l_linestatus": memref<1xi8>, "l_shipdate": i32, "l_commitdate": i32, "l_receiptdate": i32, "l_shipinstruct": memref<25xi8>, "l_shipmode": memref<10xi8>, "l_comment": memref<44xi8>> -> i32
  %get_134 = sdql.lookup_dictionary %l_h [%fieldnode_135 : i32] : dictionary<i32, record<"_" : f64, "_" : f64>> -> record<"_" : f64, "_" : f64>
  %dict_136 = sdql.empty_dictionary : record<"_" : f64, "_" : f64>
  %cmp_137 = sdql.cmp %get_134, %dict_136 : record<"_" : f64, "_" : f64>, record<"_" : f64, "_" : f64> -> i1
  %zero_132 = "arith.constant"() <{value = 0 : i1}> : () -> i1
  %neg_133 = "arith.cmpi"(%cmp_137, %zero_132) <{predicate = 0}> : (i1, i1) -> i1
  %if_138 = "scf.if"(%neg_133) ({
    %fieldnode_139 = sdql.access_record %l "l_quantity" : record<"l_orderkey": i32, "l_partkey": i32, "l_suppkey": i32, "l_linenumber": i32, "l_quantity": f64, "l_extendedprice": f64, "l_discount": f64, "l_tax": f64, "l_returnflag": memref<1xi8>, "l_linestatus": memref<1xi8>, "l_shipdate": i32, "l_commitdate": i32, "l_receiptdate": i32, "l_shipinstruct": memref<25xi8>, "l_shipmode": memref<10xi8>, "l_comment": memref<44xi8>> -> f64
    %cmpf_140 = "arith.cmpf"(%fieldnode_139, %avg) <{fastmath = #arith.fastmath<none>, predicate = 4}> : (f64, f64) -> i1
    "scf.yield"(%cmpf_140) : (i1) -> ()
  }, {
    %constv_141 = "arith.constant"() <{value = 0 : i1}> : () -> i1
    "scf.yield"(%constv_141) : (i1) -> ()
  }) : (i1) -> i1
  %if_142 = "scf.if"(%if_138) ({
    %fieldnode_143 = sdql.access_record %l "l_extendedprice" : record<"l_orderkey": i32, "l_partkey": i32, "l_suppkey": i32, "l_linenumber": i32, "l_quantity": f64, "l_extendedprice": f64, "l_discount": f64, "l_tax": f64, "l_returnflag": memref<1xi8>, "l_linestatus": memref<1xi8>, "l_shipdate": i32, "l_commitdate": i32, "l_receiptdate": i32, "l_shipinstruct": memref<25xi8>, "l_shipmode": memref<10xi8>, "l_comment": memref<44xi8>> -> f64
    "scf.yield"(%fieldnode_143) : (f64) -> ()
  }, {
    %constd_144 = "arith.constant"() <{value = 0.0  : f64}> : () -> f64
    "scf.yield"(%constd_144) : (f64) -> ()
  }) : (i1) -> f64
  sdql.yield %if_142 : f64
}
%constd_146 = "arith.constant"() <{value = 7.0  : f64}> : () -> f64
%external_147 = sdql.external "inv", %constd_146 : f64 -> f64
%multf_145 = "arith.mulf"(%tot, %external_147) <{fastmath = #arith.fastmath<none>}> : (f64, f64) -> f64
