func.func @range_builtin(%n: i32) -> dictionary<i32, i32> {
  %zero = "arith.constant"() <{value = 0}> : () -> i32
  %is_terminal = "arith.cmpi"(%n, %zero) <{"predicate" = 3}> : (i32, i32) -> i1
  %res = "scf.if"(%is_terminal) ({
    %empty = sdql.empty_dictionary : dictionary<i32, i32>
    "scf.yield"(%empty) : (dictionary<i32, i32>) -> ()
  }, {
    %one = "arith.constant"() <{value = 1}> : () -> i32
    %smaller_n = "arith.subi"(%n, %one) : (i32, i32) -> i32
    %prev_range = "func.call"(%smaller_n) <{callee = @range}> : (i32) -> dictionary<i32, i32>
    %true = "arith.constant"() <{value = 1}> : () -> i32
    %extension = sdql.create_dictionary %smaller_n, %true : i32, i32 -> dictionary<i32, i32>

    // return %extension + %prev_range
    %added = sdql.dictionary_add %extension %prev_range : dictionary<i32, i32>, dictionary<i32, i32> -> dictionary<i32, i32>
    "scf.yield"(%added) : (dictionary<i32, i32>) -> ()
  }) : (i1) -> dictionary<i32, i32>
  func.return %res : dictionary<i32, i32>
}
%customer = sdql.load "datasets/tpch/customer.tbl" : record<"c_custkey" : dictionary<i32, i32>, "c_name" : dictionary<i32, memref<25xi8>>, "c_address" : dictionary<i32, memref<40xi8>>, "c_nationkey" : dictionary<i32, i32>, "c_phone" : dictionary<i32, memref<15xi8>>, "c_acctbal" : dictionary<i32, f64>, "c_mktsegment" : dictionary<i32, memref<10xi8>>, "c_comment" : dictionary<i32, memref<117xi8>>, "size" : i32>
%orders = sdql.load "datasets/tpch/orders.tbl" : record<"o_orderkey" : dictionary<i32, i32>, "o_custkey" : dictionary<i32, i32>, "o_orderstatus" : dictionary<i32, memref<1xi8>>, "o_totalprice" : dictionary<i32, f64>, "o_orderdate" : dictionary<i32, i32>, "o_orderpriority" : dictionary<i32, memref<15xi8>>, "o_clerk" : dictionary<i32, memref<15xi8>>, "o_shippriority" : dictionary<i32, i32>, "o_comment" : dictionary<i32, memref<79xi8>>, "size" : i32>
%lineitem = sdql.load "datasets/tpch/lineitem.tbl" : record<"l_orderkey" : dictionary<i32, i32>, "l_partkey" : dictionary<i32, i32>, "l_suppkey" : dictionary<i32, i32>, "l_linenumber" : dictionary<i32, i32>, "l_quantity" : dictionary<i32, f64>, "l_extendedprice" : dictionary<i32, f64>, "l_discount" : dictionary<i32, f64>, "l_tax" : dictionary<i32, f64>, "l_returnflag" : dictionary<i32, memref<1xi8>>, "l_linestatus" : dictionary<i32, memref<1xi8>>, "l_shipdate" : dictionary<i32, i32>, "l_commitdate" : dictionary<i32, i32>, "l_receiptdate" : dictionary<i32, i32>, "l_shipinstruct" : dictionary<i32, memref<25xi8>>, "l_shipmode" : dictionary<i32, memref<10xi8>>, "l_comment" : dictionary<i32, memref<44xi8>>, "size" : i32>
%fieldnode_0 = sdql.access_record %lineitem "size" : record<"l_orderkey": dictionary<i32, i32>, "l_partkey": dictionary<i32, i32>, "l_suppkey": dictionary<i32, i32>, "l_linenumber": dictionary<i32, i32>, "l_quantity": dictionary<i32, f64>, "l_extendedprice": dictionary<i32, f64>, "l_discount": dictionary<i32, f64>, "l_tax": dictionary<i32, f64>, "l_returnflag": dictionary<i32, memref<1xi8>>, "l_linestatus": dictionary<i32, memref<1xi8>>, "l_shipdate": dictionary<i32, i32>, "l_commitdate": dictionary<i32, i32>, "l_receiptdate": dictionary<i32, i32>, "l_shipinstruct": dictionary<i32, memref<25xi8>>, "l_shipmode": dictionary<i32, memref<10xi8>>, "l_comment": dictionary<i32, memref<44xi8>>, "size": i32> -> i32
%rangenode_1 = "func.call"(%fieldnode_0) <{callee = @range_builtin}> : (i32) -> dictionary<i32, i32>
%l_h = sdql.sum %rangenode_1 : dictionary<i32, i32> -> dictionary<i32, f64> {
^bb_2(%i: i32, %_: i32):
  %fieldnode_4 = sdql.access_record %lineitem "l_orderkey" : record<"l_orderkey": dictionary<i32, i32>, "l_partkey": dictionary<i32, i32>, "l_suppkey": dictionary<i32, i32>, "l_linenumber": dictionary<i32, i32>, "l_quantity": dictionary<i32, f64>, "l_extendedprice": dictionary<i32, f64>, "l_discount": dictionary<i32, f64>, "l_tax": dictionary<i32, f64>, "l_returnflag": dictionary<i32, memref<1xi8>>, "l_linestatus": dictionary<i32, memref<1xi8>>, "l_shipdate": dictionary<i32, i32>, "l_commitdate": dictionary<i32, i32>, "l_receiptdate": dictionary<i32, i32>, "l_shipinstruct": dictionary<i32, memref<25xi8>>, "l_shipmode": dictionary<i32, memref<10xi8>>, "l_comment": dictionary<i32, memref<44xi8>>, "size": i32> -> dictionary<i32, i32>
  %get_3 = sdql.lookup_dictionary %fieldnode_4 [%i : i32] : dictionary<i32, i32> -> i32
  %fieldnode_6 = sdql.access_record %lineitem "l_partkey" : record<"l_orderkey": dictionary<i32, i32>, "l_partkey": dictionary<i32, i32>, "l_suppkey": dictionary<i32, i32>, "l_linenumber": dictionary<i32, i32>, "l_quantity": dictionary<i32, f64>, "l_extendedprice": dictionary<i32, f64>, "l_discount": dictionary<i32, f64>, "l_tax": dictionary<i32, f64>, "l_returnflag": dictionary<i32, memref<1xi8>>, "l_linestatus": dictionary<i32, memref<1xi8>>, "l_shipdate": dictionary<i32, i32>, "l_commitdate": dictionary<i32, i32>, "l_receiptdate": dictionary<i32, i32>, "l_shipinstruct": dictionary<i32, memref<25xi8>>, "l_shipmode": dictionary<i32, memref<10xi8>>, "l_comment": dictionary<i32, memref<44xi8>>, "size": i32> -> dictionary<i32, i32>
  %get_5 = sdql.lookup_dictionary %fieldnode_6 [%i : i32] : dictionary<i32, i32> -> i32
  %fieldnode_8 = sdql.access_record %lineitem "l_suppkey" : record<"l_orderkey": dictionary<i32, i32>, "l_partkey": dictionary<i32, i32>, "l_suppkey": dictionary<i32, i32>, "l_linenumber": dictionary<i32, i32>, "l_quantity": dictionary<i32, f64>, "l_extendedprice": dictionary<i32, f64>, "l_discount": dictionary<i32, f64>, "l_tax": dictionary<i32, f64>, "l_returnflag": dictionary<i32, memref<1xi8>>, "l_linestatus": dictionary<i32, memref<1xi8>>, "l_shipdate": dictionary<i32, i32>, "l_commitdate": dictionary<i32, i32>, "l_receiptdate": dictionary<i32, i32>, "l_shipinstruct": dictionary<i32, memref<25xi8>>, "l_shipmode": dictionary<i32, memref<10xi8>>, "l_comment": dictionary<i32, memref<44xi8>>, "size": i32> -> dictionary<i32, i32>
  %get_7 = sdql.lookup_dictionary %fieldnode_8 [%i : i32] : dictionary<i32, i32> -> i32
  %fieldnode_10 = sdql.access_record %lineitem "l_linenumber" : record<"l_orderkey": dictionary<i32, i32>, "l_partkey": dictionary<i32, i32>, "l_suppkey": dictionary<i32, i32>, "l_linenumber": dictionary<i32, i32>, "l_quantity": dictionary<i32, f64>, "l_extendedprice": dictionary<i32, f64>, "l_discount": dictionary<i32, f64>, "l_tax": dictionary<i32, f64>, "l_returnflag": dictionary<i32, memref<1xi8>>, "l_linestatus": dictionary<i32, memref<1xi8>>, "l_shipdate": dictionary<i32, i32>, "l_commitdate": dictionary<i32, i32>, "l_receiptdate": dictionary<i32, i32>, "l_shipinstruct": dictionary<i32, memref<25xi8>>, "l_shipmode": dictionary<i32, memref<10xi8>>, "l_comment": dictionary<i32, memref<44xi8>>, "size": i32> -> dictionary<i32, i32>
  %get_9 = sdql.lookup_dictionary %fieldnode_10 [%i : i32] : dictionary<i32, i32> -> i32
  %fieldnode_12 = sdql.access_record %lineitem "l_quantity" : record<"l_orderkey": dictionary<i32, i32>, "l_partkey": dictionary<i32, i32>, "l_suppkey": dictionary<i32, i32>, "l_linenumber": dictionary<i32, i32>, "l_quantity": dictionary<i32, f64>, "l_extendedprice": dictionary<i32, f64>, "l_discount": dictionary<i32, f64>, "l_tax": dictionary<i32, f64>, "l_returnflag": dictionary<i32, memref<1xi8>>, "l_linestatus": dictionary<i32, memref<1xi8>>, "l_shipdate": dictionary<i32, i32>, "l_commitdate": dictionary<i32, i32>, "l_receiptdate": dictionary<i32, i32>, "l_shipinstruct": dictionary<i32, memref<25xi8>>, "l_shipmode": dictionary<i32, memref<10xi8>>, "l_comment": dictionary<i32, memref<44xi8>>, "size": i32> -> dictionary<i32, f64>
  %get_11 = sdql.lookup_dictionary %fieldnode_12 [%i : i32] : dictionary<i32, f64> -> f64
  %fieldnode_14 = sdql.access_record %lineitem "l_extendedprice" : record<"l_orderkey": dictionary<i32, i32>, "l_partkey": dictionary<i32, i32>, "l_suppkey": dictionary<i32, i32>, "l_linenumber": dictionary<i32, i32>, "l_quantity": dictionary<i32, f64>, "l_extendedprice": dictionary<i32, f64>, "l_discount": dictionary<i32, f64>, "l_tax": dictionary<i32, f64>, "l_returnflag": dictionary<i32, memref<1xi8>>, "l_linestatus": dictionary<i32, memref<1xi8>>, "l_shipdate": dictionary<i32, i32>, "l_commitdate": dictionary<i32, i32>, "l_receiptdate": dictionary<i32, i32>, "l_shipinstruct": dictionary<i32, memref<25xi8>>, "l_shipmode": dictionary<i32, memref<10xi8>>, "l_comment": dictionary<i32, memref<44xi8>>, "size": i32> -> dictionary<i32, f64>
  %get_13 = sdql.lookup_dictionary %fieldnode_14 [%i : i32] : dictionary<i32, f64> -> f64
  %fieldnode_16 = sdql.access_record %lineitem "l_discount" : record<"l_orderkey": dictionary<i32, i32>, "l_partkey": dictionary<i32, i32>, "l_suppkey": dictionary<i32, i32>, "l_linenumber": dictionary<i32, i32>, "l_quantity": dictionary<i32, f64>, "l_extendedprice": dictionary<i32, f64>, "l_discount": dictionary<i32, f64>, "l_tax": dictionary<i32, f64>, "l_returnflag": dictionary<i32, memref<1xi8>>, "l_linestatus": dictionary<i32, memref<1xi8>>, "l_shipdate": dictionary<i32, i32>, "l_commitdate": dictionary<i32, i32>, "l_receiptdate": dictionary<i32, i32>, "l_shipinstruct": dictionary<i32, memref<25xi8>>, "l_shipmode": dictionary<i32, memref<10xi8>>, "l_comment": dictionary<i32, memref<44xi8>>, "size": i32> -> dictionary<i32, f64>
  %get_15 = sdql.lookup_dictionary %fieldnode_16 [%i : i32] : dictionary<i32, f64> -> f64
  %fieldnode_18 = sdql.access_record %lineitem "l_tax" : record<"l_orderkey": dictionary<i32, i32>, "l_partkey": dictionary<i32, i32>, "l_suppkey": dictionary<i32, i32>, "l_linenumber": dictionary<i32, i32>, "l_quantity": dictionary<i32, f64>, "l_extendedprice": dictionary<i32, f64>, "l_discount": dictionary<i32, f64>, "l_tax": dictionary<i32, f64>, "l_returnflag": dictionary<i32, memref<1xi8>>, "l_linestatus": dictionary<i32, memref<1xi8>>, "l_shipdate": dictionary<i32, i32>, "l_commitdate": dictionary<i32, i32>, "l_receiptdate": dictionary<i32, i32>, "l_shipinstruct": dictionary<i32, memref<25xi8>>, "l_shipmode": dictionary<i32, memref<10xi8>>, "l_comment": dictionary<i32, memref<44xi8>>, "size": i32> -> dictionary<i32, f64>
  %get_17 = sdql.lookup_dictionary %fieldnode_18 [%i : i32] : dictionary<i32, f64> -> f64
  %fieldnode_20 = sdql.access_record %lineitem "l_returnflag" : record<"l_orderkey": dictionary<i32, i32>, "l_partkey": dictionary<i32, i32>, "l_suppkey": dictionary<i32, i32>, "l_linenumber": dictionary<i32, i32>, "l_quantity": dictionary<i32, f64>, "l_extendedprice": dictionary<i32, f64>, "l_discount": dictionary<i32, f64>, "l_tax": dictionary<i32, f64>, "l_returnflag": dictionary<i32, memref<1xi8>>, "l_linestatus": dictionary<i32, memref<1xi8>>, "l_shipdate": dictionary<i32, i32>, "l_commitdate": dictionary<i32, i32>, "l_receiptdate": dictionary<i32, i32>, "l_shipinstruct": dictionary<i32, memref<25xi8>>, "l_shipmode": dictionary<i32, memref<10xi8>>, "l_comment": dictionary<i32, memref<44xi8>>, "size": i32> -> dictionary<i32, memref<1xi8>>
  %get_19 = sdql.lookup_dictionary %fieldnode_20 [%i : i32] : dictionary<i32, memref<1xi8>> -> memref<1xi8>
  %fieldnode_22 = sdql.access_record %lineitem "l_linestatus" : record<"l_orderkey": dictionary<i32, i32>, "l_partkey": dictionary<i32, i32>, "l_suppkey": dictionary<i32, i32>, "l_linenumber": dictionary<i32, i32>, "l_quantity": dictionary<i32, f64>, "l_extendedprice": dictionary<i32, f64>, "l_discount": dictionary<i32, f64>, "l_tax": dictionary<i32, f64>, "l_returnflag": dictionary<i32, memref<1xi8>>, "l_linestatus": dictionary<i32, memref<1xi8>>, "l_shipdate": dictionary<i32, i32>, "l_commitdate": dictionary<i32, i32>, "l_receiptdate": dictionary<i32, i32>, "l_shipinstruct": dictionary<i32, memref<25xi8>>, "l_shipmode": dictionary<i32, memref<10xi8>>, "l_comment": dictionary<i32, memref<44xi8>>, "size": i32> -> dictionary<i32, memref<1xi8>>
  %get_21 = sdql.lookup_dictionary %fieldnode_22 [%i : i32] : dictionary<i32, memref<1xi8>> -> memref<1xi8>
  %fieldnode_24 = sdql.access_record %lineitem "l_shipdate" : record<"l_orderkey": dictionary<i32, i32>, "l_partkey": dictionary<i32, i32>, "l_suppkey": dictionary<i32, i32>, "l_linenumber": dictionary<i32, i32>, "l_quantity": dictionary<i32, f64>, "l_extendedprice": dictionary<i32, f64>, "l_discount": dictionary<i32, f64>, "l_tax": dictionary<i32, f64>, "l_returnflag": dictionary<i32, memref<1xi8>>, "l_linestatus": dictionary<i32, memref<1xi8>>, "l_shipdate": dictionary<i32, i32>, "l_commitdate": dictionary<i32, i32>, "l_receiptdate": dictionary<i32, i32>, "l_shipinstruct": dictionary<i32, memref<25xi8>>, "l_shipmode": dictionary<i32, memref<10xi8>>, "l_comment": dictionary<i32, memref<44xi8>>, "size": i32> -> dictionary<i32, i32>
  %get_23 = sdql.lookup_dictionary %fieldnode_24 [%i : i32] : dictionary<i32, i32> -> i32
  %fieldnode_26 = sdql.access_record %lineitem "l_commitdate" : record<"l_orderkey": dictionary<i32, i32>, "l_partkey": dictionary<i32, i32>, "l_suppkey": dictionary<i32, i32>, "l_linenumber": dictionary<i32, i32>, "l_quantity": dictionary<i32, f64>, "l_extendedprice": dictionary<i32, f64>, "l_discount": dictionary<i32, f64>, "l_tax": dictionary<i32, f64>, "l_returnflag": dictionary<i32, memref<1xi8>>, "l_linestatus": dictionary<i32, memref<1xi8>>, "l_shipdate": dictionary<i32, i32>, "l_commitdate": dictionary<i32, i32>, "l_receiptdate": dictionary<i32, i32>, "l_shipinstruct": dictionary<i32, memref<25xi8>>, "l_shipmode": dictionary<i32, memref<10xi8>>, "l_comment": dictionary<i32, memref<44xi8>>, "size": i32> -> dictionary<i32, i32>
  %get_25 = sdql.lookup_dictionary %fieldnode_26 [%i : i32] : dictionary<i32, i32> -> i32
  %fieldnode_28 = sdql.access_record %lineitem "l_receiptdate" : record<"l_orderkey": dictionary<i32, i32>, "l_partkey": dictionary<i32, i32>, "l_suppkey": dictionary<i32, i32>, "l_linenumber": dictionary<i32, i32>, "l_quantity": dictionary<i32, f64>, "l_extendedprice": dictionary<i32, f64>, "l_discount": dictionary<i32, f64>, "l_tax": dictionary<i32, f64>, "l_returnflag": dictionary<i32, memref<1xi8>>, "l_linestatus": dictionary<i32, memref<1xi8>>, "l_shipdate": dictionary<i32, i32>, "l_commitdate": dictionary<i32, i32>, "l_receiptdate": dictionary<i32, i32>, "l_shipinstruct": dictionary<i32, memref<25xi8>>, "l_shipmode": dictionary<i32, memref<10xi8>>, "l_comment": dictionary<i32, memref<44xi8>>, "size": i32> -> dictionary<i32, i32>
  %get_27 = sdql.lookup_dictionary %fieldnode_28 [%i : i32] : dictionary<i32, i32> -> i32
  %fieldnode_30 = sdql.access_record %lineitem "l_shipinstruct" : record<"l_orderkey": dictionary<i32, i32>, "l_partkey": dictionary<i32, i32>, "l_suppkey": dictionary<i32, i32>, "l_linenumber": dictionary<i32, i32>, "l_quantity": dictionary<i32, f64>, "l_extendedprice": dictionary<i32, f64>, "l_discount": dictionary<i32, f64>, "l_tax": dictionary<i32, f64>, "l_returnflag": dictionary<i32, memref<1xi8>>, "l_linestatus": dictionary<i32, memref<1xi8>>, "l_shipdate": dictionary<i32, i32>, "l_commitdate": dictionary<i32, i32>, "l_receiptdate": dictionary<i32, i32>, "l_shipinstruct": dictionary<i32, memref<25xi8>>, "l_shipmode": dictionary<i32, memref<10xi8>>, "l_comment": dictionary<i32, memref<44xi8>>, "size": i32> -> dictionary<i32, memref<25xi8>>
  %get_29 = sdql.lookup_dictionary %fieldnode_30 [%i : i32] : dictionary<i32, memref<25xi8>> -> memref<25xi8>
  %fieldnode_32 = sdql.access_record %lineitem "l_shipmode" : record<"l_orderkey": dictionary<i32, i32>, "l_partkey": dictionary<i32, i32>, "l_suppkey": dictionary<i32, i32>, "l_linenumber": dictionary<i32, i32>, "l_quantity": dictionary<i32, f64>, "l_extendedprice": dictionary<i32, f64>, "l_discount": dictionary<i32, f64>, "l_tax": dictionary<i32, f64>, "l_returnflag": dictionary<i32, memref<1xi8>>, "l_linestatus": dictionary<i32, memref<1xi8>>, "l_shipdate": dictionary<i32, i32>, "l_commitdate": dictionary<i32, i32>, "l_receiptdate": dictionary<i32, i32>, "l_shipinstruct": dictionary<i32, memref<25xi8>>, "l_shipmode": dictionary<i32, memref<10xi8>>, "l_comment": dictionary<i32, memref<44xi8>>, "size": i32> -> dictionary<i32, memref<10xi8>>
  %get_31 = sdql.lookup_dictionary %fieldnode_32 [%i : i32] : dictionary<i32, memref<10xi8>> -> memref<10xi8>
  %fieldnode_34 = sdql.access_record %lineitem "l_comment" : record<"l_orderkey": dictionary<i32, i32>, "l_partkey": dictionary<i32, i32>, "l_suppkey": dictionary<i32, i32>, "l_linenumber": dictionary<i32, i32>, "l_quantity": dictionary<i32, f64>, "l_extendedprice": dictionary<i32, f64>, "l_discount": dictionary<i32, f64>, "l_tax": dictionary<i32, f64>, "l_returnflag": dictionary<i32, memref<1xi8>>, "l_linestatus": dictionary<i32, memref<1xi8>>, "l_shipdate": dictionary<i32, i32>, "l_commitdate": dictionary<i32, i32>, "l_receiptdate": dictionary<i32, i32>, "l_shipinstruct": dictionary<i32, memref<25xi8>>, "l_shipmode": dictionary<i32, memref<10xi8>>, "l_comment": dictionary<i32, memref<44xi8>>, "size": i32> -> dictionary<i32, memref<44xi8>>
  %get_33 = sdql.lookup_dictionary %fieldnode_34 [%i : i32] : dictionary<i32, memref<44xi8>> -> memref<44xi8>
  %l = sdql.create_record {fields = ["l_orderkey", "l_partkey", "l_suppkey", "l_linenumber", "l_quantity", "l_extendedprice", "l_discount", "l_tax", "l_returnflag", "l_linestatus", "l_shipdate", "l_commitdate", "l_receiptdate", "l_shipinstruct", "l_shipmode", "l_comment"]} %get_3, %get_5, %get_7, %get_9, %get_11, %get_13, %get_15, %get_17, %get_19, %get_21, %get_23, %get_25, %get_27, %get_29, %get_31, %get_33 : i32, i32, i32, i32, f64, f64, f64, f64, memref<1xi8>, memref<1xi8>, i32, i32, i32, memref<25xi8>, memref<10xi8>, memref<44xi8> -> record<"l_orderkey": i32, "l_partkey": i32, "l_suppkey": i32, "l_linenumber": i32, "l_quantity": f64, "l_extendedprice": f64, "l_discount": f64, "l_tax": f64, "l_returnflag": memref<1xi8>, "l_linestatus": memref<1xi8>, "l_shipdate": i32, "l_commitdate": i32, "l_receiptdate": i32, "l_shipinstruct": memref<25xi8>, "l_shipmode": memref<10xi8>, "l_comment": memref<44xi8>>
  %fieldnode_36 = sdql.access_record %l "l_orderkey" : record<"l_orderkey": i32, "l_partkey": i32, "l_suppkey": i32, "l_linenumber": i32, "l_quantity": f64, "l_extendedprice": f64, "l_discount": f64, "l_tax": f64, "l_returnflag": memref<1xi8>, "l_linestatus": memref<1xi8>, "l_shipdate": i32, "l_commitdate": i32, "l_receiptdate": i32, "l_shipinstruct": memref<25xi8>, "l_shipmode": memref<10xi8>, "l_comment": memref<44xi8>> -> i32
  %fieldnode_37 = sdql.access_record %l "l_quantity" : record<"l_orderkey": i32, "l_partkey": i32, "l_suppkey": i32, "l_linenumber": i32, "l_quantity": f64, "l_extendedprice": f64, "l_discount": f64, "l_tax": f64, "l_returnflag": memref<1xi8>, "l_linestatus": memref<1xi8>, "l_shipdate": i32, "l_commitdate": i32, "l_receiptdate": i32, "l_shipinstruct": memref<25xi8>, "l_shipmode": memref<10xi8>, "l_comment": memref<44xi8>> -> f64
  %dict_35 = sdql.create_dictionary %fieldnode_36, %fieldnode_37 : i32, f64 -> dictionary<i32, f64>
  sdql.yield %dict_35 : dictionary<i32, f64>
}
%orderkeys = sdql.sum %l_h : dictionary<i32, f64> -> dictionary<i32, i32> {
^bb_38(%l_orderkey: i32, %l_quantity: f64):
  %consti_39 = "arith.constant"() <{value = 300 : i32}> : () -> i32
  %cmpi_40 = "arith.cmpi"(%consti_39, %l_quantity) <{predicate = 2}> : (i32, f64) -> i1
  %if_41 = "scf.if"(%cmpi_40) ({
    %uniq_43 = sdql.unique %l_orderkey : i32 -> i32
    %consti_44 = "arith.constant"() <{value = 1 : i32}> : () -> i32
    %dict_42 = sdql.create_dictionary %uniq_43, %consti_44 : i32, i32 -> dictionary<i32, i32>
    "scf.yield"(%dict_42) : (dictionary<i32, i32>) -> ()
  }, {
    %dict_45 = sdql.empty_dictionary : dictionary<i32, i32>
    "scf.yield"(%dict_45) : (dictionary<i32, i32>) -> ()
  }) : (i1) -> dictionary<i32, i32>
  sdql.yield %if_41 : dictionary<i32, i32>
}
%fieldnode_46 = sdql.access_record %customer "size" : record<"c_custkey": dictionary<i32, i32>, "c_name": dictionary<i32, memref<25xi8>>, "c_address": dictionary<i32, memref<40xi8>>, "c_nationkey": dictionary<i32, i32>, "c_phone": dictionary<i32, memref<15xi8>>, "c_acctbal": dictionary<i32, f64>, "c_mktsegment": dictionary<i32, memref<10xi8>>, "c_comment": dictionary<i32, memref<117xi8>>, "size": i32> -> i32
%rangenode_47 = "func.call"(%fieldnode_46) <{callee = @range_builtin}> : (i32) -> dictionary<i32, i32>
%custkey_to_name = sdql.sum %rangenode_47 : dictionary<i32, i32> -> dictionary<i32, record<"_" : memref<25xi8>>> {
^bb_48(%i: i32, %_: i32):
  %fieldnode_50 = sdql.access_record %customer "c_custkey" : record<"c_custkey": dictionary<i32, i32>, "c_name": dictionary<i32, memref<25xi8>>, "c_address": dictionary<i32, memref<40xi8>>, "c_nationkey": dictionary<i32, i32>, "c_phone": dictionary<i32, memref<15xi8>>, "c_acctbal": dictionary<i32, f64>, "c_mktsegment": dictionary<i32, memref<10xi8>>, "c_comment": dictionary<i32, memref<117xi8>>, "size": i32> -> dictionary<i32, i32>
  %get_49 = sdql.lookup_dictionary %fieldnode_50 [%i : i32] : dictionary<i32, i32> -> i32
  %fieldnode_52 = sdql.access_record %customer "c_name" : record<"c_custkey": dictionary<i32, i32>, "c_name": dictionary<i32, memref<25xi8>>, "c_address": dictionary<i32, memref<40xi8>>, "c_nationkey": dictionary<i32, i32>, "c_phone": dictionary<i32, memref<15xi8>>, "c_acctbal": dictionary<i32, f64>, "c_mktsegment": dictionary<i32, memref<10xi8>>, "c_comment": dictionary<i32, memref<117xi8>>, "size": i32> -> dictionary<i32, memref<25xi8>>
  %get_51 = sdql.lookup_dictionary %fieldnode_52 [%i : i32] : dictionary<i32, memref<25xi8>> -> memref<25xi8>
  %fieldnode_54 = sdql.access_record %customer "c_address" : record<"c_custkey": dictionary<i32, i32>, "c_name": dictionary<i32, memref<25xi8>>, "c_address": dictionary<i32, memref<40xi8>>, "c_nationkey": dictionary<i32, i32>, "c_phone": dictionary<i32, memref<15xi8>>, "c_acctbal": dictionary<i32, f64>, "c_mktsegment": dictionary<i32, memref<10xi8>>, "c_comment": dictionary<i32, memref<117xi8>>, "size": i32> -> dictionary<i32, memref<40xi8>>
  %get_53 = sdql.lookup_dictionary %fieldnode_54 [%i : i32] : dictionary<i32, memref<40xi8>> -> memref<40xi8>
  %fieldnode_56 = sdql.access_record %customer "c_nationkey" : record<"c_custkey": dictionary<i32, i32>, "c_name": dictionary<i32, memref<25xi8>>, "c_address": dictionary<i32, memref<40xi8>>, "c_nationkey": dictionary<i32, i32>, "c_phone": dictionary<i32, memref<15xi8>>, "c_acctbal": dictionary<i32, f64>, "c_mktsegment": dictionary<i32, memref<10xi8>>, "c_comment": dictionary<i32, memref<117xi8>>, "size": i32> -> dictionary<i32, i32>
  %get_55 = sdql.lookup_dictionary %fieldnode_56 [%i : i32] : dictionary<i32, i32> -> i32
  %fieldnode_58 = sdql.access_record %customer "c_phone" : record<"c_custkey": dictionary<i32, i32>, "c_name": dictionary<i32, memref<25xi8>>, "c_address": dictionary<i32, memref<40xi8>>, "c_nationkey": dictionary<i32, i32>, "c_phone": dictionary<i32, memref<15xi8>>, "c_acctbal": dictionary<i32, f64>, "c_mktsegment": dictionary<i32, memref<10xi8>>, "c_comment": dictionary<i32, memref<117xi8>>, "size": i32> -> dictionary<i32, memref<15xi8>>
  %get_57 = sdql.lookup_dictionary %fieldnode_58 [%i : i32] : dictionary<i32, memref<15xi8>> -> memref<15xi8>
  %fieldnode_60 = sdql.access_record %customer "c_acctbal" : record<"c_custkey": dictionary<i32, i32>, "c_name": dictionary<i32, memref<25xi8>>, "c_address": dictionary<i32, memref<40xi8>>, "c_nationkey": dictionary<i32, i32>, "c_phone": dictionary<i32, memref<15xi8>>, "c_acctbal": dictionary<i32, f64>, "c_mktsegment": dictionary<i32, memref<10xi8>>, "c_comment": dictionary<i32, memref<117xi8>>, "size": i32> -> dictionary<i32, f64>
  %get_59 = sdql.lookup_dictionary %fieldnode_60 [%i : i32] : dictionary<i32, f64> -> f64
  %fieldnode_62 = sdql.access_record %customer "c_mktsegment" : record<"c_custkey": dictionary<i32, i32>, "c_name": dictionary<i32, memref<25xi8>>, "c_address": dictionary<i32, memref<40xi8>>, "c_nationkey": dictionary<i32, i32>, "c_phone": dictionary<i32, memref<15xi8>>, "c_acctbal": dictionary<i32, f64>, "c_mktsegment": dictionary<i32, memref<10xi8>>, "c_comment": dictionary<i32, memref<117xi8>>, "size": i32> -> dictionary<i32, memref<10xi8>>
  %get_61 = sdql.lookup_dictionary %fieldnode_62 [%i : i32] : dictionary<i32, memref<10xi8>> -> memref<10xi8>
  %fieldnode_64 = sdql.access_record %customer "c_comment" : record<"c_custkey": dictionary<i32, i32>, "c_name": dictionary<i32, memref<25xi8>>, "c_address": dictionary<i32, memref<40xi8>>, "c_nationkey": dictionary<i32, i32>, "c_phone": dictionary<i32, memref<15xi8>>, "c_acctbal": dictionary<i32, f64>, "c_mktsegment": dictionary<i32, memref<10xi8>>, "c_comment": dictionary<i32, memref<117xi8>>, "size": i32> -> dictionary<i32, memref<117xi8>>
  %get_63 = sdql.lookup_dictionary %fieldnode_64 [%i : i32] : dictionary<i32, memref<117xi8>> -> memref<117xi8>
  %c = sdql.create_record {fields = ["c_custkey", "c_name", "c_address", "c_nationkey", "c_phone", "c_acctbal", "c_mktsegment", "c_comment"]} %get_49, %get_51, %get_53, %get_55, %get_57, %get_59, %get_61, %get_63 : i32, memref<25xi8>, memref<40xi8>, i32, memref<15xi8>, f64, memref<10xi8>, memref<117xi8> -> record<"c_custkey": i32, "c_name": memref<25xi8>, "c_address": memref<40xi8>, "c_nationkey": i32, "c_phone": memref<15xi8>, "c_acctbal": f64, "c_mktsegment": memref<10xi8>, "c_comment": memref<117xi8>>
  %fieldnode_67 = sdql.access_record %c "c_custkey" : record<"c_custkey": i32, "c_name": memref<25xi8>, "c_address": memref<40xi8>, "c_nationkey": i32, "c_phone": memref<15xi8>, "c_acctbal": f64, "c_mktsegment": memref<10xi8>, "c_comment": memref<117xi8>> -> i32
  %uniq_66 = sdql.unique %fieldnode_67 : i32 -> i32
  %fieldnode_68 = sdql.access_record %c "c_name" : record<"c_custkey": i32, "c_name": memref<25xi8>, "c_address": memref<40xi8>, "c_nationkey": i32, "c_phone": memref<15xi8>, "c_acctbal": f64, "c_mktsegment": memref<10xi8>, "c_comment": memref<117xi8>> -> memref<25xi8>
  %recnode_69 = sdql.create_record {fields = ["_"]} %fieldnode_68 : memref<25xi8> -> record<"_": memref<25xi8>>
  %dict_65 = sdql.create_dictionary %uniq_66, %recnode_69 : i32, record<"_" : memref<25xi8>> -> dictionary<i32, record<"_" : memref<25xi8>>>
  sdql.yield %dict_65 : dictionary<i32, record<"_" : memref<25xi8>>>
}
%fieldnode_70 = sdql.access_record %orders "size" : record<"o_orderkey": dictionary<i32, i32>, "o_custkey": dictionary<i32, i32>, "o_orderstatus": dictionary<i32, memref<1xi8>>, "o_totalprice": dictionary<i32, f64>, "o_orderdate": dictionary<i32, i32>, "o_orderpriority": dictionary<i32, memref<15xi8>>, "o_clerk": dictionary<i32, memref<15xi8>>, "o_shippriority": dictionary<i32, i32>, "o_comment": dictionary<i32, memref<79xi8>>, "size": i32> -> i32
%rangenode_71 = "func.call"(%fieldnode_70) <{callee = @range_builtin}> : (i32) -> dictionary<i32, i32>
%o_h = sdql.sum %rangenode_71 : dictionary<i32, i32> -> dictionary<i32, record<"name" : memref<25xi8>, "custkey" : i32, "orderkey" : i32, "orderdate" : i32, "totalprice" : f64>> {
^bb_72(%i: i32, %_: i32):
  %fieldnode_74 = sdql.access_record %orders "o_orderkey" : record<"o_orderkey": dictionary<i32, i32>, "o_custkey": dictionary<i32, i32>, "o_orderstatus": dictionary<i32, memref<1xi8>>, "o_totalprice": dictionary<i32, f64>, "o_orderdate": dictionary<i32, i32>, "o_orderpriority": dictionary<i32, memref<15xi8>>, "o_clerk": dictionary<i32, memref<15xi8>>, "o_shippriority": dictionary<i32, i32>, "o_comment": dictionary<i32, memref<79xi8>>, "size": i32> -> dictionary<i32, i32>
  %get_73 = sdql.lookup_dictionary %fieldnode_74 [%i : i32] : dictionary<i32, i32> -> i32
  %fieldnode_76 = sdql.access_record %orders "o_custkey" : record<"o_orderkey": dictionary<i32, i32>, "o_custkey": dictionary<i32, i32>, "o_orderstatus": dictionary<i32, memref<1xi8>>, "o_totalprice": dictionary<i32, f64>, "o_orderdate": dictionary<i32, i32>, "o_orderpriority": dictionary<i32, memref<15xi8>>, "o_clerk": dictionary<i32, memref<15xi8>>, "o_shippriority": dictionary<i32, i32>, "o_comment": dictionary<i32, memref<79xi8>>, "size": i32> -> dictionary<i32, i32>
  %get_75 = sdql.lookup_dictionary %fieldnode_76 [%i : i32] : dictionary<i32, i32> -> i32
  %fieldnode_78 = sdql.access_record %orders "o_orderstatus" : record<"o_orderkey": dictionary<i32, i32>, "o_custkey": dictionary<i32, i32>, "o_orderstatus": dictionary<i32, memref<1xi8>>, "o_totalprice": dictionary<i32, f64>, "o_orderdate": dictionary<i32, i32>, "o_orderpriority": dictionary<i32, memref<15xi8>>, "o_clerk": dictionary<i32, memref<15xi8>>, "o_shippriority": dictionary<i32, i32>, "o_comment": dictionary<i32, memref<79xi8>>, "size": i32> -> dictionary<i32, memref<1xi8>>
  %get_77 = sdql.lookup_dictionary %fieldnode_78 [%i : i32] : dictionary<i32, memref<1xi8>> -> memref<1xi8>
  %fieldnode_80 = sdql.access_record %orders "o_totalprice" : record<"o_orderkey": dictionary<i32, i32>, "o_custkey": dictionary<i32, i32>, "o_orderstatus": dictionary<i32, memref<1xi8>>, "o_totalprice": dictionary<i32, f64>, "o_orderdate": dictionary<i32, i32>, "o_orderpriority": dictionary<i32, memref<15xi8>>, "o_clerk": dictionary<i32, memref<15xi8>>, "o_shippriority": dictionary<i32, i32>, "o_comment": dictionary<i32, memref<79xi8>>, "size": i32> -> dictionary<i32, f64>
  %get_79 = sdql.lookup_dictionary %fieldnode_80 [%i : i32] : dictionary<i32, f64> -> f64
  %fieldnode_82 = sdql.access_record %orders "o_orderdate" : record<"o_orderkey": dictionary<i32, i32>, "o_custkey": dictionary<i32, i32>, "o_orderstatus": dictionary<i32, memref<1xi8>>, "o_totalprice": dictionary<i32, f64>, "o_orderdate": dictionary<i32, i32>, "o_orderpriority": dictionary<i32, memref<15xi8>>, "o_clerk": dictionary<i32, memref<15xi8>>, "o_shippriority": dictionary<i32, i32>, "o_comment": dictionary<i32, memref<79xi8>>, "size": i32> -> dictionary<i32, i32>
  %get_81 = sdql.lookup_dictionary %fieldnode_82 [%i : i32] : dictionary<i32, i32> -> i32
  %fieldnode_84 = sdql.access_record %orders "o_orderpriority" : record<"o_orderkey": dictionary<i32, i32>, "o_custkey": dictionary<i32, i32>, "o_orderstatus": dictionary<i32, memref<1xi8>>, "o_totalprice": dictionary<i32, f64>, "o_orderdate": dictionary<i32, i32>, "o_orderpriority": dictionary<i32, memref<15xi8>>, "o_clerk": dictionary<i32, memref<15xi8>>, "o_shippriority": dictionary<i32, i32>, "o_comment": dictionary<i32, memref<79xi8>>, "size": i32> -> dictionary<i32, memref<15xi8>>
  %get_83 = sdql.lookup_dictionary %fieldnode_84 [%i : i32] : dictionary<i32, memref<15xi8>> -> memref<15xi8>
  %fieldnode_86 = sdql.access_record %orders "o_clerk" : record<"o_orderkey": dictionary<i32, i32>, "o_custkey": dictionary<i32, i32>, "o_orderstatus": dictionary<i32, memref<1xi8>>, "o_totalprice": dictionary<i32, f64>, "o_orderdate": dictionary<i32, i32>, "o_orderpriority": dictionary<i32, memref<15xi8>>, "o_clerk": dictionary<i32, memref<15xi8>>, "o_shippriority": dictionary<i32, i32>, "o_comment": dictionary<i32, memref<79xi8>>, "size": i32> -> dictionary<i32, memref<15xi8>>
  %get_85 = sdql.lookup_dictionary %fieldnode_86 [%i : i32] : dictionary<i32, memref<15xi8>> -> memref<15xi8>
  %fieldnode_88 = sdql.access_record %orders "o_shippriority" : record<"o_orderkey": dictionary<i32, i32>, "o_custkey": dictionary<i32, i32>, "o_orderstatus": dictionary<i32, memref<1xi8>>, "o_totalprice": dictionary<i32, f64>, "o_orderdate": dictionary<i32, i32>, "o_orderpriority": dictionary<i32, memref<15xi8>>, "o_clerk": dictionary<i32, memref<15xi8>>, "o_shippriority": dictionary<i32, i32>, "o_comment": dictionary<i32, memref<79xi8>>, "size": i32> -> dictionary<i32, i32>
  %get_87 = sdql.lookup_dictionary %fieldnode_88 [%i : i32] : dictionary<i32, i32> -> i32
  %fieldnode_90 = sdql.access_record %orders "o_comment" : record<"o_orderkey": dictionary<i32, i32>, "o_custkey": dictionary<i32, i32>, "o_orderstatus": dictionary<i32, memref<1xi8>>, "o_totalprice": dictionary<i32, f64>, "o_orderdate": dictionary<i32, i32>, "o_orderpriority": dictionary<i32, memref<15xi8>>, "o_clerk": dictionary<i32, memref<15xi8>>, "o_shippriority": dictionary<i32, i32>, "o_comment": dictionary<i32, memref<79xi8>>, "size": i32> -> dictionary<i32, memref<79xi8>>
  %get_89 = sdql.lookup_dictionary %fieldnode_90 [%i : i32] : dictionary<i32, memref<79xi8>> -> memref<79xi8>
  %o = sdql.create_record {fields = ["o_orderkey", "o_custkey", "o_orderstatus", "o_totalprice", "o_orderdate", "o_orderpriority", "o_clerk", "o_shippriority", "o_comment"]} %get_73, %get_75, %get_77, %get_79, %get_81, %get_83, %get_85, %get_87, %get_89 : i32, i32, memref<1xi8>, f64, i32, memref<15xi8>, memref<15xi8>, i32, memref<79xi8> -> record<"o_orderkey": i32, "o_custkey": i32, "o_orderstatus": memref<1xi8>, "o_totalprice": f64, "o_orderdate": i32, "o_orderpriority": memref<15xi8>, "o_clerk": memref<15xi8>, "o_shippriority": i32, "o_comment": memref<79xi8>>
  %fieldnode_92 = sdql.access_record %o "o_orderkey" : record<"o_orderkey": i32, "o_custkey": i32, "o_orderstatus": memref<1xi8>, "o_totalprice": f64, "o_orderdate": i32, "o_orderpriority": memref<15xi8>, "o_clerk": memref<15xi8>, "o_shippriority": i32, "o_comment": memref<79xi8>> -> i32
  %get_91 = sdql.lookup_dictionary %orderkeys [%fieldnode_92 : i32] : dictionary<i32, i32> -> i32
  %dict_93 = sdql.empty_dictionary : i32
  %cmpi_94 = "arith.cmpi"(%get_91, %dict_93) <{predicate = 1}> : (i32, i32) -> i1
  %if_95 = "scf.if"(%cmpi_94) ({
    %fieldnode_99 = sdql.access_record %o "o_custkey" : record<"o_orderkey": i32, "o_custkey": i32, "o_orderstatus": memref<1xi8>, "o_totalprice": f64, "o_orderdate": i32, "o_orderpriority": memref<15xi8>, "o_clerk": memref<15xi8>, "o_shippriority": i32, "o_comment": memref<79xi8>> -> i32
    %get_98 = sdql.lookup_dictionary %custkey_to_name [%fieldnode_99 : i32] : dictionary<i32, record<"_" : memref<25xi8>>> -> record<"_" : memref<25xi8>>
    %dict_100 = sdql.empty_dictionary : record<"_" : memref<25xi8>>
    %cmp_101 = sdql.cmp %get_98, %dict_100 : record<"_" : memref<25xi8>>, record<"_" : memref<25xi8>> -> i1
    %zero_96 = "arith.constant"() <{value = 0 : i1}> : () -> i1
    %neg_97 = "arith.cmpi"(%cmp_101, %zero_96) <{predicate = 0}> : (i1, i1) -> i1
    "scf.yield"(%neg_97) : (i1) -> ()
  }, {
    %constv_102 = "arith.constant"() <{value = 0 : i1}> : () -> i1
    "scf.yield"(%constv_102) : (i1) -> ()
  }) : (i1) -> i1
  %if_103 = "scf.if"(%if_95) ({
    %fieldnode_106 = sdql.access_record %o "o_orderkey" : record<"o_orderkey": i32, "o_custkey": i32, "o_orderstatus": memref<1xi8>, "o_totalprice": f64, "o_orderdate": i32, "o_orderpriority": memref<15xi8>, "o_clerk": memref<15xi8>, "o_shippriority": i32, "o_comment": memref<79xi8>> -> i32
    %uniq_105 = sdql.unique %fieldnode_106 : i32 -> i32
    %fieldnode_109 = sdql.access_record %o "o_custkey" : record<"o_orderkey": i32, "o_custkey": i32, "o_orderstatus": memref<1xi8>, "o_totalprice": f64, "o_orderdate": i32, "o_orderpriority": memref<15xi8>, "o_clerk": memref<15xi8>, "o_shippriority": i32, "o_comment": memref<79xi8>> -> i32
    %get_108 = sdql.lookup_dictionary %custkey_to_name [%fieldnode_109 : i32] : dictionary<i32, record<"_" : memref<25xi8>>> -> record<"_" : memref<25xi8>>
    %consti_110 = "arith.constant"() <{value = 0 : i32}> : () -> i32
    %get_107 = sdql.access_record %get_108 "%consti_110" : record<"_" : memref<25xi8>> -> memref<25xi8>
    %fieldnode_111 = sdql.access_record %o "o_custkey" : record<"o_orderkey": i32, "o_custkey": i32, "o_orderstatus": memref<1xi8>, "o_totalprice": f64, "o_orderdate": i32, "o_orderpriority": memref<15xi8>, "o_clerk": memref<15xi8>, "o_shippriority": i32, "o_comment": memref<79xi8>> -> i32
    %fieldnode_112 = sdql.access_record %o "o_orderkey" : record<"o_orderkey": i32, "o_custkey": i32, "o_orderstatus": memref<1xi8>, "o_totalprice": f64, "o_orderdate": i32, "o_orderpriority": memref<15xi8>, "o_clerk": memref<15xi8>, "o_shippriority": i32, "o_comment": memref<79xi8>> -> i32
    %fieldnode_113 = sdql.access_record %o "o_orderdate" : record<"o_orderkey": i32, "o_custkey": i32, "o_orderstatus": memref<1xi8>, "o_totalprice": f64, "o_orderdate": i32, "o_orderpriority": memref<15xi8>, "o_clerk": memref<15xi8>, "o_shippriority": i32, "o_comment": memref<79xi8>> -> i32
    %fieldnode_114 = sdql.access_record %o "o_totalprice" : record<"o_orderkey": i32, "o_custkey": i32, "o_orderstatus": memref<1xi8>, "o_totalprice": f64, "o_orderdate": i32, "o_orderpriority": memref<15xi8>, "o_clerk": memref<15xi8>, "o_shippriority": i32, "o_comment": memref<79xi8>> -> f64
    %recnode_115 = sdql.create_record {fields = ["name", "custkey", "orderkey", "orderdate", "totalprice"]} %get_107, %fieldnode_111, %fieldnode_112, %fieldnode_113, %fieldnode_114 : memref<25xi8>, i32, i32, i32, f64 -> record<"name": memref<25xi8>, "custkey": i32, "orderkey": i32, "orderdate": i32, "totalprice": f64>
    %dict_104 = sdql.create_dictionary %uniq_105, %recnode_115 : i32, record<"name" : memref<25xi8>, "custkey" : i32, "orderkey" : i32, "orderdate" : i32, "totalprice" : f64> -> dictionary<i32, record<"name" : memref<25xi8>, "custkey" : i32, "orderkey" : i32, "orderdate" : i32, "totalprice" : f64>>
    "scf.yield"(%dict_104) : (dictionary<i32, record<"name" : memref<25xi8>, "custkey" : i32, "orderkey" : i32, "orderdate" : i32, "totalprice" : f64>>) -> ()
  }, {
    %dict_116 = sdql.empty_dictionary : dictionary<i32, record<"name" : memref<25xi8>, "custkey" : i32, "orderkey" : i32, "orderdate" : i32, "totalprice" : f64>>
    "scf.yield"(%dict_116) : (dictionary<i32, record<"name" : memref<25xi8>, "custkey" : i32, "orderkey" : i32, "orderdate" : i32, "totalprice" : f64>>) -> ()
  }) : (i1) -> dictionary<i32, record<"name" : memref<25xi8>, "custkey" : i32, "orderkey" : i32, "orderdate" : i32, "totalprice" : f64>>
  sdql.yield %if_103 : dictionary<i32, record<"name" : memref<25xi8>, "custkey" : i32, "orderkey" : i32, "orderdate" : i32, "totalprice" : f64>>
}
%fieldnode_117 = sdql.access_record %lineitem "size" : record<"l_orderkey": dictionary<i32, i32>, "l_partkey": dictionary<i32, i32>, "l_suppkey": dictionary<i32, i32>, "l_linenumber": dictionary<i32, i32>, "l_quantity": dictionary<i32, f64>, "l_extendedprice": dictionary<i32, f64>, "l_discount": dictionary<i32, f64>, "l_tax": dictionary<i32, f64>, "l_returnflag": dictionary<i32, memref<1xi8>>, "l_linestatus": dictionary<i32, memref<1xi8>>, "l_shipdate": dictionary<i32, i32>, "l_commitdate": dictionary<i32, i32>, "l_receiptdate": dictionary<i32, i32>, "l_shipinstruct": dictionary<i32, memref<25xi8>>, "l_shipmode": dictionary<i32, memref<10xi8>>, "l_comment": dictionary<i32, memref<44xi8>>, "size": i32> -> i32
%rangenode_118 = "func.call"(%fieldnode_117) <{callee = @range_builtin}> : (i32) -> dictionary<i32, i32>
%result_h = sdql.sum %rangenode_118 : dictionary<i32, i32> -> dictionary<record<"name" : memref<25xi8>, "custkey" : i32, "orderkey" : i32, "orderdate" : i32, "totalprice" : f64>, record<"_" : f64>> {
^bb_119(%i: i32, %_: i32):
  %fieldnode_121 = sdql.access_record %lineitem "l_orderkey" : record<"l_orderkey": dictionary<i32, i32>, "l_partkey": dictionary<i32, i32>, "l_suppkey": dictionary<i32, i32>, "l_linenumber": dictionary<i32, i32>, "l_quantity": dictionary<i32, f64>, "l_extendedprice": dictionary<i32, f64>, "l_discount": dictionary<i32, f64>, "l_tax": dictionary<i32, f64>, "l_returnflag": dictionary<i32, memref<1xi8>>, "l_linestatus": dictionary<i32, memref<1xi8>>, "l_shipdate": dictionary<i32, i32>, "l_commitdate": dictionary<i32, i32>, "l_receiptdate": dictionary<i32, i32>, "l_shipinstruct": dictionary<i32, memref<25xi8>>, "l_shipmode": dictionary<i32, memref<10xi8>>, "l_comment": dictionary<i32, memref<44xi8>>, "size": i32> -> dictionary<i32, i32>
  %get_120 = sdql.lookup_dictionary %fieldnode_121 [%i : i32] : dictionary<i32, i32> -> i32
  %fieldnode_123 = sdql.access_record %lineitem "l_partkey" : record<"l_orderkey": dictionary<i32, i32>, "l_partkey": dictionary<i32, i32>, "l_suppkey": dictionary<i32, i32>, "l_linenumber": dictionary<i32, i32>, "l_quantity": dictionary<i32, f64>, "l_extendedprice": dictionary<i32, f64>, "l_discount": dictionary<i32, f64>, "l_tax": dictionary<i32, f64>, "l_returnflag": dictionary<i32, memref<1xi8>>, "l_linestatus": dictionary<i32, memref<1xi8>>, "l_shipdate": dictionary<i32, i32>, "l_commitdate": dictionary<i32, i32>, "l_receiptdate": dictionary<i32, i32>, "l_shipinstruct": dictionary<i32, memref<25xi8>>, "l_shipmode": dictionary<i32, memref<10xi8>>, "l_comment": dictionary<i32, memref<44xi8>>, "size": i32> -> dictionary<i32, i32>
  %get_122 = sdql.lookup_dictionary %fieldnode_123 [%i : i32] : dictionary<i32, i32> -> i32
  %fieldnode_125 = sdql.access_record %lineitem "l_suppkey" : record<"l_orderkey": dictionary<i32, i32>, "l_partkey": dictionary<i32, i32>, "l_suppkey": dictionary<i32, i32>, "l_linenumber": dictionary<i32, i32>, "l_quantity": dictionary<i32, f64>, "l_extendedprice": dictionary<i32, f64>, "l_discount": dictionary<i32, f64>, "l_tax": dictionary<i32, f64>, "l_returnflag": dictionary<i32, memref<1xi8>>, "l_linestatus": dictionary<i32, memref<1xi8>>, "l_shipdate": dictionary<i32, i32>, "l_commitdate": dictionary<i32, i32>, "l_receiptdate": dictionary<i32, i32>, "l_shipinstruct": dictionary<i32, memref<25xi8>>, "l_shipmode": dictionary<i32, memref<10xi8>>, "l_comment": dictionary<i32, memref<44xi8>>, "size": i32> -> dictionary<i32, i32>
  %get_124 = sdql.lookup_dictionary %fieldnode_125 [%i : i32] : dictionary<i32, i32> -> i32
  %fieldnode_127 = sdql.access_record %lineitem "l_linenumber" : record<"l_orderkey": dictionary<i32, i32>, "l_partkey": dictionary<i32, i32>, "l_suppkey": dictionary<i32, i32>, "l_linenumber": dictionary<i32, i32>, "l_quantity": dictionary<i32, f64>, "l_extendedprice": dictionary<i32, f64>, "l_discount": dictionary<i32, f64>, "l_tax": dictionary<i32, f64>, "l_returnflag": dictionary<i32, memref<1xi8>>, "l_linestatus": dictionary<i32, memref<1xi8>>, "l_shipdate": dictionary<i32, i32>, "l_commitdate": dictionary<i32, i32>, "l_receiptdate": dictionary<i32, i32>, "l_shipinstruct": dictionary<i32, memref<25xi8>>, "l_shipmode": dictionary<i32, memref<10xi8>>, "l_comment": dictionary<i32, memref<44xi8>>, "size": i32> -> dictionary<i32, i32>
  %get_126 = sdql.lookup_dictionary %fieldnode_127 [%i : i32] : dictionary<i32, i32> -> i32
  %fieldnode_129 = sdql.access_record %lineitem "l_quantity" : record<"l_orderkey": dictionary<i32, i32>, "l_partkey": dictionary<i32, i32>, "l_suppkey": dictionary<i32, i32>, "l_linenumber": dictionary<i32, i32>, "l_quantity": dictionary<i32, f64>, "l_extendedprice": dictionary<i32, f64>, "l_discount": dictionary<i32, f64>, "l_tax": dictionary<i32, f64>, "l_returnflag": dictionary<i32, memref<1xi8>>, "l_linestatus": dictionary<i32, memref<1xi8>>, "l_shipdate": dictionary<i32, i32>, "l_commitdate": dictionary<i32, i32>, "l_receiptdate": dictionary<i32, i32>, "l_shipinstruct": dictionary<i32, memref<25xi8>>, "l_shipmode": dictionary<i32, memref<10xi8>>, "l_comment": dictionary<i32, memref<44xi8>>, "size": i32> -> dictionary<i32, f64>
  %get_128 = sdql.lookup_dictionary %fieldnode_129 [%i : i32] : dictionary<i32, f64> -> f64
  %fieldnode_131 = sdql.access_record %lineitem "l_extendedprice" : record<"l_orderkey": dictionary<i32, i32>, "l_partkey": dictionary<i32, i32>, "l_suppkey": dictionary<i32, i32>, "l_linenumber": dictionary<i32, i32>, "l_quantity": dictionary<i32, f64>, "l_extendedprice": dictionary<i32, f64>, "l_discount": dictionary<i32, f64>, "l_tax": dictionary<i32, f64>, "l_returnflag": dictionary<i32, memref<1xi8>>, "l_linestatus": dictionary<i32, memref<1xi8>>, "l_shipdate": dictionary<i32, i32>, "l_commitdate": dictionary<i32, i32>, "l_receiptdate": dictionary<i32, i32>, "l_shipinstruct": dictionary<i32, memref<25xi8>>, "l_shipmode": dictionary<i32, memref<10xi8>>, "l_comment": dictionary<i32, memref<44xi8>>, "size": i32> -> dictionary<i32, f64>
  %get_130 = sdql.lookup_dictionary %fieldnode_131 [%i : i32] : dictionary<i32, f64> -> f64
  %fieldnode_133 = sdql.access_record %lineitem "l_discount" : record<"l_orderkey": dictionary<i32, i32>, "l_partkey": dictionary<i32, i32>, "l_suppkey": dictionary<i32, i32>, "l_linenumber": dictionary<i32, i32>, "l_quantity": dictionary<i32, f64>, "l_extendedprice": dictionary<i32, f64>, "l_discount": dictionary<i32, f64>, "l_tax": dictionary<i32, f64>, "l_returnflag": dictionary<i32, memref<1xi8>>, "l_linestatus": dictionary<i32, memref<1xi8>>, "l_shipdate": dictionary<i32, i32>, "l_commitdate": dictionary<i32, i32>, "l_receiptdate": dictionary<i32, i32>, "l_shipinstruct": dictionary<i32, memref<25xi8>>, "l_shipmode": dictionary<i32, memref<10xi8>>, "l_comment": dictionary<i32, memref<44xi8>>, "size": i32> -> dictionary<i32, f64>
  %get_132 = sdql.lookup_dictionary %fieldnode_133 [%i : i32] : dictionary<i32, f64> -> f64
  %fieldnode_135 = sdql.access_record %lineitem "l_tax" : record<"l_orderkey": dictionary<i32, i32>, "l_partkey": dictionary<i32, i32>, "l_suppkey": dictionary<i32, i32>, "l_linenumber": dictionary<i32, i32>, "l_quantity": dictionary<i32, f64>, "l_extendedprice": dictionary<i32, f64>, "l_discount": dictionary<i32, f64>, "l_tax": dictionary<i32, f64>, "l_returnflag": dictionary<i32, memref<1xi8>>, "l_linestatus": dictionary<i32, memref<1xi8>>, "l_shipdate": dictionary<i32, i32>, "l_commitdate": dictionary<i32, i32>, "l_receiptdate": dictionary<i32, i32>, "l_shipinstruct": dictionary<i32, memref<25xi8>>, "l_shipmode": dictionary<i32, memref<10xi8>>, "l_comment": dictionary<i32, memref<44xi8>>, "size": i32> -> dictionary<i32, f64>
  %get_134 = sdql.lookup_dictionary %fieldnode_135 [%i : i32] : dictionary<i32, f64> -> f64
  %fieldnode_137 = sdql.access_record %lineitem "l_returnflag" : record<"l_orderkey": dictionary<i32, i32>, "l_partkey": dictionary<i32, i32>, "l_suppkey": dictionary<i32, i32>, "l_linenumber": dictionary<i32, i32>, "l_quantity": dictionary<i32, f64>, "l_extendedprice": dictionary<i32, f64>, "l_discount": dictionary<i32, f64>, "l_tax": dictionary<i32, f64>, "l_returnflag": dictionary<i32, memref<1xi8>>, "l_linestatus": dictionary<i32, memref<1xi8>>, "l_shipdate": dictionary<i32, i32>, "l_commitdate": dictionary<i32, i32>, "l_receiptdate": dictionary<i32, i32>, "l_shipinstruct": dictionary<i32, memref<25xi8>>, "l_shipmode": dictionary<i32, memref<10xi8>>, "l_comment": dictionary<i32, memref<44xi8>>, "size": i32> -> dictionary<i32, memref<1xi8>>
  %get_136 = sdql.lookup_dictionary %fieldnode_137 [%i : i32] : dictionary<i32, memref<1xi8>> -> memref<1xi8>
  %fieldnode_139 = sdql.access_record %lineitem "l_linestatus" : record<"l_orderkey": dictionary<i32, i32>, "l_partkey": dictionary<i32, i32>, "l_suppkey": dictionary<i32, i32>, "l_linenumber": dictionary<i32, i32>, "l_quantity": dictionary<i32, f64>, "l_extendedprice": dictionary<i32, f64>, "l_discount": dictionary<i32, f64>, "l_tax": dictionary<i32, f64>, "l_returnflag": dictionary<i32, memref<1xi8>>, "l_linestatus": dictionary<i32, memref<1xi8>>, "l_shipdate": dictionary<i32, i32>, "l_commitdate": dictionary<i32, i32>, "l_receiptdate": dictionary<i32, i32>, "l_shipinstruct": dictionary<i32, memref<25xi8>>, "l_shipmode": dictionary<i32, memref<10xi8>>, "l_comment": dictionary<i32, memref<44xi8>>, "size": i32> -> dictionary<i32, memref<1xi8>>
  %get_138 = sdql.lookup_dictionary %fieldnode_139 [%i : i32] : dictionary<i32, memref<1xi8>> -> memref<1xi8>
  %fieldnode_141 = sdql.access_record %lineitem "l_shipdate" : record<"l_orderkey": dictionary<i32, i32>, "l_partkey": dictionary<i32, i32>, "l_suppkey": dictionary<i32, i32>, "l_linenumber": dictionary<i32, i32>, "l_quantity": dictionary<i32, f64>, "l_extendedprice": dictionary<i32, f64>, "l_discount": dictionary<i32, f64>, "l_tax": dictionary<i32, f64>, "l_returnflag": dictionary<i32, memref<1xi8>>, "l_linestatus": dictionary<i32, memref<1xi8>>, "l_shipdate": dictionary<i32, i32>, "l_commitdate": dictionary<i32, i32>, "l_receiptdate": dictionary<i32, i32>, "l_shipinstruct": dictionary<i32, memref<25xi8>>, "l_shipmode": dictionary<i32, memref<10xi8>>, "l_comment": dictionary<i32, memref<44xi8>>, "size": i32> -> dictionary<i32, i32>
  %get_140 = sdql.lookup_dictionary %fieldnode_141 [%i : i32] : dictionary<i32, i32> -> i32
  %fieldnode_143 = sdql.access_record %lineitem "l_commitdate" : record<"l_orderkey": dictionary<i32, i32>, "l_partkey": dictionary<i32, i32>, "l_suppkey": dictionary<i32, i32>, "l_linenumber": dictionary<i32, i32>, "l_quantity": dictionary<i32, f64>, "l_extendedprice": dictionary<i32, f64>, "l_discount": dictionary<i32, f64>, "l_tax": dictionary<i32, f64>, "l_returnflag": dictionary<i32, memref<1xi8>>, "l_linestatus": dictionary<i32, memref<1xi8>>, "l_shipdate": dictionary<i32, i32>, "l_commitdate": dictionary<i32, i32>, "l_receiptdate": dictionary<i32, i32>, "l_shipinstruct": dictionary<i32, memref<25xi8>>, "l_shipmode": dictionary<i32, memref<10xi8>>, "l_comment": dictionary<i32, memref<44xi8>>, "size": i32> -> dictionary<i32, i32>
  %get_142 = sdql.lookup_dictionary %fieldnode_143 [%i : i32] : dictionary<i32, i32> -> i32
  %fieldnode_145 = sdql.access_record %lineitem "l_receiptdate" : record<"l_orderkey": dictionary<i32, i32>, "l_partkey": dictionary<i32, i32>, "l_suppkey": dictionary<i32, i32>, "l_linenumber": dictionary<i32, i32>, "l_quantity": dictionary<i32, f64>, "l_extendedprice": dictionary<i32, f64>, "l_discount": dictionary<i32, f64>, "l_tax": dictionary<i32, f64>, "l_returnflag": dictionary<i32, memref<1xi8>>, "l_linestatus": dictionary<i32, memref<1xi8>>, "l_shipdate": dictionary<i32, i32>, "l_commitdate": dictionary<i32, i32>, "l_receiptdate": dictionary<i32, i32>, "l_shipinstruct": dictionary<i32, memref<25xi8>>, "l_shipmode": dictionary<i32, memref<10xi8>>, "l_comment": dictionary<i32, memref<44xi8>>, "size": i32> -> dictionary<i32, i32>
  %get_144 = sdql.lookup_dictionary %fieldnode_145 [%i : i32] : dictionary<i32, i32> -> i32
  %fieldnode_147 = sdql.access_record %lineitem "l_shipinstruct" : record<"l_orderkey": dictionary<i32, i32>, "l_partkey": dictionary<i32, i32>, "l_suppkey": dictionary<i32, i32>, "l_linenumber": dictionary<i32, i32>, "l_quantity": dictionary<i32, f64>, "l_extendedprice": dictionary<i32, f64>, "l_discount": dictionary<i32, f64>, "l_tax": dictionary<i32, f64>, "l_returnflag": dictionary<i32, memref<1xi8>>, "l_linestatus": dictionary<i32, memref<1xi8>>, "l_shipdate": dictionary<i32, i32>, "l_commitdate": dictionary<i32, i32>, "l_receiptdate": dictionary<i32, i32>, "l_shipinstruct": dictionary<i32, memref<25xi8>>, "l_shipmode": dictionary<i32, memref<10xi8>>, "l_comment": dictionary<i32, memref<44xi8>>, "size": i32> -> dictionary<i32, memref<25xi8>>
  %get_146 = sdql.lookup_dictionary %fieldnode_147 [%i : i32] : dictionary<i32, memref<25xi8>> -> memref<25xi8>
  %fieldnode_149 = sdql.access_record %lineitem "l_shipmode" : record<"l_orderkey": dictionary<i32, i32>, "l_partkey": dictionary<i32, i32>, "l_suppkey": dictionary<i32, i32>, "l_linenumber": dictionary<i32, i32>, "l_quantity": dictionary<i32, f64>, "l_extendedprice": dictionary<i32, f64>, "l_discount": dictionary<i32, f64>, "l_tax": dictionary<i32, f64>, "l_returnflag": dictionary<i32, memref<1xi8>>, "l_linestatus": dictionary<i32, memref<1xi8>>, "l_shipdate": dictionary<i32, i32>, "l_commitdate": dictionary<i32, i32>, "l_receiptdate": dictionary<i32, i32>, "l_shipinstruct": dictionary<i32, memref<25xi8>>, "l_shipmode": dictionary<i32, memref<10xi8>>, "l_comment": dictionary<i32, memref<44xi8>>, "size": i32> -> dictionary<i32, memref<10xi8>>
  %get_148 = sdql.lookup_dictionary %fieldnode_149 [%i : i32] : dictionary<i32, memref<10xi8>> -> memref<10xi8>
  %fieldnode_151 = sdql.access_record %lineitem "l_comment" : record<"l_orderkey": dictionary<i32, i32>, "l_partkey": dictionary<i32, i32>, "l_suppkey": dictionary<i32, i32>, "l_linenumber": dictionary<i32, i32>, "l_quantity": dictionary<i32, f64>, "l_extendedprice": dictionary<i32, f64>, "l_discount": dictionary<i32, f64>, "l_tax": dictionary<i32, f64>, "l_returnflag": dictionary<i32, memref<1xi8>>, "l_linestatus": dictionary<i32, memref<1xi8>>, "l_shipdate": dictionary<i32, i32>, "l_commitdate": dictionary<i32, i32>, "l_receiptdate": dictionary<i32, i32>, "l_shipinstruct": dictionary<i32, memref<25xi8>>, "l_shipmode": dictionary<i32, memref<10xi8>>, "l_comment": dictionary<i32, memref<44xi8>>, "size": i32> -> dictionary<i32, memref<44xi8>>
  %get_150 = sdql.lookup_dictionary %fieldnode_151 [%i : i32] : dictionary<i32, memref<44xi8>> -> memref<44xi8>
  %l = sdql.create_record {fields = ["l_orderkey", "l_partkey", "l_suppkey", "l_linenumber", "l_quantity", "l_extendedprice", "l_discount", "l_tax", "l_returnflag", "l_linestatus", "l_shipdate", "l_commitdate", "l_receiptdate", "l_shipinstruct", "l_shipmode", "l_comment"]} %get_120, %get_122, %get_124, %get_126, %get_128, %get_130, %get_132, %get_134, %get_136, %get_138, %get_140, %get_142, %get_144, %get_146, %get_148, %get_150 : i32, i32, i32, i32, f64, f64, f64, f64, memref<1xi8>, memref<1xi8>, i32, i32, i32, memref<25xi8>, memref<10xi8>, memref<44xi8> -> record<"l_orderkey": i32, "l_partkey": i32, "l_suppkey": i32, "l_linenumber": i32, "l_quantity": f64, "l_extendedprice": f64, "l_discount": f64, "l_tax": f64, "l_returnflag": memref<1xi8>, "l_linestatus": memref<1xi8>, "l_shipdate": i32, "l_commitdate": i32, "l_receiptdate": i32, "l_shipinstruct": memref<25xi8>, "l_shipmode": memref<10xi8>, "l_comment": memref<44xi8>>
  %fieldnode_155 = sdql.access_record %l "l_orderkey" : record<"l_orderkey": i32, "l_partkey": i32, "l_suppkey": i32, "l_linenumber": i32, "l_quantity": f64, "l_extendedprice": f64, "l_discount": f64, "l_tax": f64, "l_returnflag": memref<1xi8>, "l_linestatus": memref<1xi8>, "l_shipdate": i32, "l_commitdate": i32, "l_receiptdate": i32, "l_shipinstruct": memref<25xi8>, "l_shipmode": memref<10xi8>, "l_comment": memref<44xi8>> -> i32
  %get_154 = sdql.lookup_dictionary %o_h [%fieldnode_155 : i32] : dictionary<i32, record<"name" : memref<25xi8>, "custkey" : i32, "orderkey" : i32, "orderdate" : i32, "totalprice" : f64>> -> record<"name" : memref<25xi8>, "custkey" : i32, "orderkey" : i32, "orderdate" : i32, "totalprice" : f64>
  %dict_156 = sdql.empty_dictionary : record<"name" : memref<25xi8>, "custkey" : i32, "orderkey" : i32, "orderdate" : i32, "totalprice" : f64>
  %cmp_157 = sdql.cmp %get_154, %dict_156 : record<"name" : memref<25xi8>, "custkey" : i32, "orderkey" : i32, "orderdate" : i32, "totalprice" : f64>, record<"name" : memref<25xi8>, "custkey" : i32, "orderkey" : i32, "orderdate" : i32, "totalprice" : f64> -> i1
  %zero_152 = "arith.constant"() <{value = 0 : i1}> : () -> i1
  %neg_153 = "arith.cmpi"(%cmp_157, %zero_152) <{predicate = 0}> : (i1, i1) -> i1
  %if_158 = "scf.if"(%neg_153) ({
    %fieldnode_161 = sdql.access_record %l "l_orderkey" : record<"l_orderkey": i32, "l_partkey": i32, "l_suppkey": i32, "l_linenumber": i32, "l_quantity": f64, "l_extendedprice": f64, "l_discount": f64, "l_tax": f64, "l_returnflag": memref<1xi8>, "l_linestatus": memref<1xi8>, "l_shipdate": i32, "l_commitdate": i32, "l_receiptdate": i32, "l_shipinstruct": memref<25xi8>, "l_shipmode": memref<10xi8>, "l_comment": memref<44xi8>> -> i32
    %get_160 = sdql.lookup_dictionary %o_h [%fieldnode_161 : i32] : dictionary<i32, record<"name" : memref<25xi8>, "custkey" : i32, "orderkey" : i32, "orderdate" : i32, "totalprice" : f64>> -> record<"name" : memref<25xi8>, "custkey" : i32, "orderkey" : i32, "orderdate" : i32, "totalprice" : f64>
    %fieldnode_162 = sdql.access_record %l "l_quantity" : record<"l_orderkey": i32, "l_partkey": i32, "l_suppkey": i32, "l_linenumber": i32, "l_quantity": f64, "l_extendedprice": f64, "l_discount": f64, "l_tax": f64, "l_returnflag": memref<1xi8>, "l_linestatus": memref<1xi8>, "l_shipdate": i32, "l_commitdate": i32, "l_receiptdate": i32, "l_shipinstruct": memref<25xi8>, "l_shipmode": memref<10xi8>, "l_comment": memref<44xi8>> -> f64
    %recnode_163 = sdql.create_record {fields = ["_"]} %fieldnode_162 : f64 -> record<"_": f64>
    %dict_159 = sdql.create_dictionary %get_160, %recnode_163 : record<"name" : memref<25xi8>, "custkey" : i32, "orderkey" : i32, "orderdate" : i32, "totalprice" : f64>, record<"_" : f64> -> dictionary<record<"name" : memref<25xi8>, "custkey" : i32, "orderkey" : i32, "orderdate" : i32, "totalprice" : f64>, record<"_" : f64>>
    "scf.yield"(%dict_159) : (dictionary<record<"name" : memref<25xi8>, "custkey" : i32, "orderkey" : i32, "orderdate" : i32, "totalprice" : f64>, record<"_" : f64>>) -> ()
  }, {
    %dict_164 = sdql.empty_dictionary : dictionary<record<"name" : memref<25xi8>, "custkey" : i32, "orderkey" : i32, "orderdate" : i32, "totalprice" : f64>, record<"_" : f64>>
    "scf.yield"(%dict_164) : (dictionary<record<"name" : memref<25xi8>, "custkey" : i32, "orderkey" : i32, "orderdate" : i32, "totalprice" : f64>, record<"_" : f64>>) -> ()
  }) : (i1) -> dictionary<record<"name" : memref<25xi8>, "custkey" : i32, "orderkey" : i32, "orderdate" : i32, "totalprice" : f64>, record<"_" : f64>>
  sdql.yield %if_158 : dictionary<record<"name" : memref<25xi8>, "custkey" : i32, "orderkey" : i32, "orderdate" : i32, "totalprice" : f64>, record<"_" : f64>>
}
%sum_165 = sdql.sum %result_h : dictionary<record<"name" : memref<25xi8>, "custkey" : i32, "orderkey" : i32, "orderdate" : i32, "totalprice" : f64>, record<"_" : f64>> -> dictionary<record<"name" : memref<25xi8>, "custkey" : i32, "orderkey" : i32, "orderdate" : i32, "totalprice" : f64, "_" : f64>, i32> {
^bb_166(%k: record<"name" : memref<25xi8>, "custkey" : i32, "orderkey" : i32, "orderdate" : i32, "totalprice" : f64>, %v: record<"_" : f64>):
  %concat_169 = sdql.concat %k, %v : record<"name" : memref<25xi8>, "custkey" : i32, "orderkey" : i32, "orderdate" : i32, "totalprice" : f64>, record<"_" : f64> -> record<"name" : memref<25xi8>, "custkey" : i32, "orderkey" : i32, "orderdate" : i32, "totalprice" : f64, "_" : f64>
  %uniq_168 = sdql.unique %concat_169 : record<"name" : memref<25xi8>, "custkey" : i32, "orderkey" : i32, "orderdate" : i32, "totalprice" : f64, "_" : f64> -> record<"name" : memref<25xi8>, "custkey" : i32, "orderkey" : i32, "orderdate" : i32, "totalprice" : f64, "_" : f64>
  %consti_170 = "arith.constant"() <{value = 1 : i32}> : () -> i32
  %dict_167 = sdql.create_dictionary %uniq_168, %consti_170 : record<"name" : memref<25xi8>, "custkey" : i32, "orderkey" : i32, "orderdate" : i32, "totalprice" : f64, "_" : f64>, i32 -> dictionary<record<"name" : memref<25xi8>, "custkey" : i32, "orderkey" : i32, "orderdate" : i32, "totalprice" : f64, "_" : f64>, i32>
  sdql.yield %dict_167 : dictionary<record<"name" : memref<25xi8>, "custkey" : i32, "orderkey" : i32, "orderdate" : i32, "totalprice" : f64, "_" : f64>, i32>
}
