func.func @range_builtin(%n: i32) -> dictionary<i32, i32> {
  %zero = "arith.constant"() <{value = 0}> : () -> i32
  %is_terminal = "arith.cmpi"(%n, %zero) <{"predicate" = 3}> : (i32, i32) -> i1
  %res = "scf.if"(%is_terminal) ({
    %empty = sdql.empty_dictionary : dictionary<i32, i32>
    "scf.yield"(%empty) : (dictionary<i32, i32>) -> ()
  }, {
    %one = "arith.constant"() <{value = 1}> : () -> i32
    %smaller_n = "arith.subi"(%n, %one) : (i32, i32) -> i32
    %prev_range = "func.call"(%smaller_n) <{callee = @range}> : (i32) -> dictionary<i32, i32>
    %true = "arith.constant"() <{value = 1}> : () -> i32
    %extension = sdql.create_dictionary %smaller_n, %true : i32, i32 -> dictionary<i32, i32>

    // return %extension + %prev_range
    %added = sdql.dictionary_add %extension %prev_range : dictionary<i32, i32>, dictionary<i32, i32> -> dictionary<i32, i32>
    "scf.yield"(%added) : (dictionary<i32, i32>) -> ()
  }) : (i1) -> dictionary<i32, i32>
  func.return %res : dictionary<i32, i32>
}
%supplier = sdql.load "datasets/tpch/supplier.tbl" : record<"s_suppkey" : dictionary<i32, i32>, "s_name" : dictionary<i32, memref<25xi8>>, "s_address" : dictionary<i32, memref<40xi8>>, "s_nationkey" : dictionary<i32, i32>, "s_phone" : dictionary<i32, memref<15xi8>>, "s_acctbal" : dictionary<i32, f64>, "s_comment" : dictionary<i32, memref<101xi8>>, "size" : i32>
%lineitem = sdql.load "datasets/tpch/lineitem.tbl" : record<"l_orderkey" : dictionary<i32, i32>, "l_partkey" : dictionary<i32, i32>, "l_suppkey" : dictionary<i32, i32>, "l_linenumber" : dictionary<i32, i32>, "l_quantity" : dictionary<i32, f64>, "l_extendedprice" : dictionary<i32, f64>, "l_discount" : dictionary<i32, f64>, "l_tax" : dictionary<i32, f64>, "l_returnflag" : dictionary<i32, memref<1xi8>>, "l_linestatus" : dictionary<i32, memref<1xi8>>, "l_shipdate" : dictionary<i32, i32>, "l_commitdate" : dictionary<i32, i32>, "l_receiptdate" : dictionary<i32, i32>, "l_shipinstruct" : dictionary<i32, memref<25xi8>>, "l_shipmode" : dictionary<i32, memref<10xi8>>, "l_comment" : dictionary<i32, memref<44xi8>>, "size" : i32>
%orders = sdql.load "datasets/tpch/orders.tbl" : record<"o_orderkey" : dictionary<i32, i32>, "o_custkey" : dictionary<i32, i32>, "o_orderstatus" : dictionary<i32, memref<1xi8>>, "o_totalprice" : dictionary<i32, f64>, "o_orderdate" : dictionary<i32, i32>, "o_orderpriority" : dictionary<i32, memref<15xi8>>, "o_clerk" : dictionary<i32, memref<15xi8>>, "o_shippriority" : dictionary<i32, i32>, "o_comment" : dictionary<i32, memref<79xi8>>, "size" : i32>
%nation = sdql.load "datasets/tpch/nation.tbl" : record<"n_nationkey" : dictionary<i32, i32>, "n_name" : dictionary<i32, memref<25xi8>>, "n_regionkey" : dictionary<i32, i32>, "n_comment" : dictionary<i32, memref<152xi8>>, "size" : i32>
// SAUDI ARABIA
%constds_0 = "arith.constant"() <{value = dense<[83, 65, 85, 68, 73, 32, 65, 82, 65, 66, 73, 65]> : memref<?xi8>}> : () -> memref<?xi8>
%consti_1 = "arith.constant"() <{value = 13 : i32}> : () -> i32
%saudi = sdql.external "ConstantString", %constds_0, %consti_1 : memref<?xi8>, i32 -> memref<12xi8>
// F
%constds_2 = "arith.constant"() <{value = dense<[70]> : memref<?xi8>}> : () -> memref<?xi8>
%consti_3 = "arith.constant"() <{value = 2 : i32}> : () -> i32
%f = sdql.external "ConstantString", %constds_2, %consti_3 : memref<?xi8>, i32 -> memref<1xi8>
%fieldnode_4 = sdql.access_record %nation "size" : record<"n_nationkey": dictionary<i32, i32>, "n_name": dictionary<i32, memref<25xi8>>, "n_regionkey": dictionary<i32, i32>, "n_comment": dictionary<i32, memref<152xi8>>, "size": i32> -> i32
%rangenode_5 = "func.call"(%fieldnode_4) <{callee = @range_builtin}> : (i32) -> dictionary<i32, i32>
%nation_indexed = sdql.sum %rangenode_5 : dictionary<i32, i32> -> dictionary<i32, record<"_" : i32>> {
^bb_6(%i: i32, %_: i32):
  %fieldnode_8 = sdql.access_record %nation "n_nationkey" : record<"n_nationkey": dictionary<i32, i32>, "n_name": dictionary<i32, memref<25xi8>>, "n_regionkey": dictionary<i32, i32>, "n_comment": dictionary<i32, memref<152xi8>>, "size": i32> -> dictionary<i32, i32>
  %get_7 = sdql.lookup_dictionary %fieldnode_8 [%i : i32] : dictionary<i32, i32> -> i32
  %fieldnode_10 = sdql.access_record %nation "n_name" : record<"n_nationkey": dictionary<i32, i32>, "n_name": dictionary<i32, memref<25xi8>>, "n_regionkey": dictionary<i32, i32>, "n_comment": dictionary<i32, memref<152xi8>>, "size": i32> -> dictionary<i32, memref<25xi8>>
  %get_9 = sdql.lookup_dictionary %fieldnode_10 [%i : i32] : dictionary<i32, memref<25xi8>> -> memref<25xi8>
  %fieldnode_12 = sdql.access_record %nation "n_regionkey" : record<"n_nationkey": dictionary<i32, i32>, "n_name": dictionary<i32, memref<25xi8>>, "n_regionkey": dictionary<i32, i32>, "n_comment": dictionary<i32, memref<152xi8>>, "size": i32> -> dictionary<i32, i32>
  %get_11 = sdql.lookup_dictionary %fieldnode_12 [%i : i32] : dictionary<i32, i32> -> i32
  %fieldnode_14 = sdql.access_record %nation "n_comment" : record<"n_nationkey": dictionary<i32, i32>, "n_name": dictionary<i32, memref<25xi8>>, "n_regionkey": dictionary<i32, i32>, "n_comment": dictionary<i32, memref<152xi8>>, "size": i32> -> dictionary<i32, memref<152xi8>>
  %get_13 = sdql.lookup_dictionary %fieldnode_14 [%i : i32] : dictionary<i32, memref<152xi8>> -> memref<152xi8>
  %n = sdql.create_record {fields = ["n_nationkey", "n_name", "n_regionkey", "n_comment"]} %get_7, %get_9, %get_11, %get_13 : i32, memref<25xi8>, i32, memref<152xi8> -> record<"n_nationkey": i32, "n_name": memref<25xi8>, "n_regionkey": i32, "n_comment": memref<152xi8>>
  %fieldnode_15 = sdql.access_record %n "n_name" : record<"n_nationkey": i32, "n_name": memref<25xi8>, "n_regionkey": i32, "n_comment": memref<152xi8>> -> memref<25xi8>
  %cmp_16 = sdql.cmp %fieldnode_15, %saudi : memref<25xi8>, memref<12xi8> -> i1
  %if_17 = "scf.if"(%cmp_16) ({
    %fieldnode_20 = sdql.access_record %n "n_nationkey" : record<"n_nationkey": i32, "n_name": memref<25xi8>, "n_regionkey": i32, "n_comment": memref<152xi8>> -> i32
    %uniq_19 = sdql.unique %fieldnode_20 : i32 -> i32
    %fieldnode_21 = sdql.access_record %n "n_nationkey" : record<"n_nationkey": i32, "n_name": memref<25xi8>, "n_regionkey": i32, "n_comment": memref<152xi8>> -> i32
    %recnode_22 = sdql.create_record {fields = ["_"]} %fieldnode_21 : i32 -> record<"_": i32>
    %dict_18 = sdql.create_dictionary %uniq_19, %recnode_22 : i32, record<"_" : i32> -> dictionary<i32, record<"_" : i32>>
    "scf.yield"(%dict_18) : (dictionary<i32, record<"_" : i32>>) -> ()
  }, {
    %dict_23 = sdql.empty_dictionary : dictionary<i32, record<"_" : i32>>
    "scf.yield"(%dict_23) : (dictionary<i32, record<"_" : i32>>) -> ()
  }) : (i1) -> dictionary<i32, record<"_" : i32>>
  sdql.yield %if_17 : dictionary<i32, record<"_" : i32>>
}
%fieldnode_24 = sdql.access_record %supplier "size" : record<"s_suppkey": dictionary<i32, i32>, "s_name": dictionary<i32, memref<25xi8>>, "s_address": dictionary<i32, memref<40xi8>>, "s_nationkey": dictionary<i32, i32>, "s_phone": dictionary<i32, memref<15xi8>>, "s_acctbal": dictionary<i32, f64>, "s_comment": dictionary<i32, memref<101xi8>>, "size": i32> -> i32
%rangenode_25 = "func.call"(%fieldnode_24) <{callee = @range_builtin}> : (i32) -> dictionary<i32, i32>
%su_probed = sdql.sum %rangenode_25 : dictionary<i32, i32> -> dictionary<i32, memref<25xi8>> {
^bb_26(%i: i32, %_: i32):
  %fieldnode_28 = sdql.access_record %supplier "s_suppkey" : record<"s_suppkey": dictionary<i32, i32>, "s_name": dictionary<i32, memref<25xi8>>, "s_address": dictionary<i32, memref<40xi8>>, "s_nationkey": dictionary<i32, i32>, "s_phone": dictionary<i32, memref<15xi8>>, "s_acctbal": dictionary<i32, f64>, "s_comment": dictionary<i32, memref<101xi8>>, "size": i32> -> dictionary<i32, i32>
  %get_27 = sdql.lookup_dictionary %fieldnode_28 [%i : i32] : dictionary<i32, i32> -> i32
  %fieldnode_30 = sdql.access_record %supplier "s_name" : record<"s_suppkey": dictionary<i32, i32>, "s_name": dictionary<i32, memref<25xi8>>, "s_address": dictionary<i32, memref<40xi8>>, "s_nationkey": dictionary<i32, i32>, "s_phone": dictionary<i32, memref<15xi8>>, "s_acctbal": dictionary<i32, f64>, "s_comment": dictionary<i32, memref<101xi8>>, "size": i32> -> dictionary<i32, memref<25xi8>>
  %get_29 = sdql.lookup_dictionary %fieldnode_30 [%i : i32] : dictionary<i32, memref<25xi8>> -> memref<25xi8>
  %fieldnode_32 = sdql.access_record %supplier "s_address" : record<"s_suppkey": dictionary<i32, i32>, "s_name": dictionary<i32, memref<25xi8>>, "s_address": dictionary<i32, memref<40xi8>>, "s_nationkey": dictionary<i32, i32>, "s_phone": dictionary<i32, memref<15xi8>>, "s_acctbal": dictionary<i32, f64>, "s_comment": dictionary<i32, memref<101xi8>>, "size": i32> -> dictionary<i32, memref<40xi8>>
  %get_31 = sdql.lookup_dictionary %fieldnode_32 [%i : i32] : dictionary<i32, memref<40xi8>> -> memref<40xi8>
  %fieldnode_34 = sdql.access_record %supplier "s_nationkey" : record<"s_suppkey": dictionary<i32, i32>, "s_name": dictionary<i32, memref<25xi8>>, "s_address": dictionary<i32, memref<40xi8>>, "s_nationkey": dictionary<i32, i32>, "s_phone": dictionary<i32, memref<15xi8>>, "s_acctbal": dictionary<i32, f64>, "s_comment": dictionary<i32, memref<101xi8>>, "size": i32> -> dictionary<i32, i32>
  %get_33 = sdql.lookup_dictionary %fieldnode_34 [%i : i32] : dictionary<i32, i32> -> i32
  %fieldnode_36 = sdql.access_record %supplier "s_phone" : record<"s_suppkey": dictionary<i32, i32>, "s_name": dictionary<i32, memref<25xi8>>, "s_address": dictionary<i32, memref<40xi8>>, "s_nationkey": dictionary<i32, i32>, "s_phone": dictionary<i32, memref<15xi8>>, "s_acctbal": dictionary<i32, f64>, "s_comment": dictionary<i32, memref<101xi8>>, "size": i32> -> dictionary<i32, memref<15xi8>>
  %get_35 = sdql.lookup_dictionary %fieldnode_36 [%i : i32] : dictionary<i32, memref<15xi8>> -> memref<15xi8>
  %fieldnode_38 = sdql.access_record %supplier "s_acctbal" : record<"s_suppkey": dictionary<i32, i32>, "s_name": dictionary<i32, memref<25xi8>>, "s_address": dictionary<i32, memref<40xi8>>, "s_nationkey": dictionary<i32, i32>, "s_phone": dictionary<i32, memref<15xi8>>, "s_acctbal": dictionary<i32, f64>, "s_comment": dictionary<i32, memref<101xi8>>, "size": i32> -> dictionary<i32, f64>
  %get_37 = sdql.lookup_dictionary %fieldnode_38 [%i : i32] : dictionary<i32, f64> -> f64
  %fieldnode_40 = sdql.access_record %supplier "s_comment" : record<"s_suppkey": dictionary<i32, i32>, "s_name": dictionary<i32, memref<25xi8>>, "s_address": dictionary<i32, memref<40xi8>>, "s_nationkey": dictionary<i32, i32>, "s_phone": dictionary<i32, memref<15xi8>>, "s_acctbal": dictionary<i32, f64>, "s_comment": dictionary<i32, memref<101xi8>>, "size": i32> -> dictionary<i32, memref<101xi8>>
  %get_39 = sdql.lookup_dictionary %fieldnode_40 [%i : i32] : dictionary<i32, memref<101xi8>> -> memref<101xi8>
  %s = sdql.create_record {fields = ["s_suppkey", "s_name", "s_address", "s_nationkey", "s_phone", "s_acctbal", "s_comment"]} %get_27, %get_29, %get_31, %get_33, %get_35, %get_37, %get_39 : i32, memref<25xi8>, memref<40xi8>, i32, memref<15xi8>, f64, memref<101xi8> -> record<"s_suppkey": i32, "s_name": memref<25xi8>, "s_address": memref<40xi8>, "s_nationkey": i32, "s_phone": memref<15xi8>, "s_acctbal": f64, "s_comment": memref<101xi8>>
  %fieldnode_44 = sdql.access_record %s "s_nationkey" : record<"s_suppkey": i32, "s_name": memref<25xi8>, "s_address": memref<40xi8>, "s_nationkey": i32, "s_phone": memref<15xi8>, "s_acctbal": f64, "s_comment": memref<101xi8>> -> i32
  %get_43 = sdql.lookup_dictionary %nation_indexed [%fieldnode_44 : i32] : dictionary<i32, record<"_" : i32>> -> record<"_" : i32>
  %dict_45 = sdql.empty_dictionary : record<"_" : i32>
  %cmp_46 = sdql.cmp %get_43, %dict_45 : record<"_" : i32>, record<"_" : i32> -> i1
  %zero_41 = "arith.constant"() <{value = 0 : i1}> : () -> i1
  %neg_42 = "arith.cmpi"(%cmp_46, %zero_41) <{predicate = 0}> : (i1, i1) -> i1
  %if_47 = "scf.if"(%neg_42) ({
    %fieldnode_50 = sdql.access_record %s "s_suppkey" : record<"s_suppkey": i32, "s_name": memref<25xi8>, "s_address": memref<40xi8>, "s_nationkey": i32, "s_phone": memref<15xi8>, "s_acctbal": f64, "s_comment": memref<101xi8>> -> i32
    %uniq_49 = sdql.unique %fieldnode_50 : i32 -> i32
    %fieldnode_51 = sdql.access_record %s "s_name" : record<"s_suppkey": i32, "s_name": memref<25xi8>, "s_address": memref<40xi8>, "s_nationkey": i32, "s_phone": memref<15xi8>, "s_acctbal": f64, "s_comment": memref<101xi8>> -> memref<25xi8>
    %dict_48 = sdql.create_dictionary %uniq_49, %fieldnode_51 : i32, memref<25xi8> -> dictionary<i32, memref<25xi8>>
    "scf.yield"(%dict_48) : (dictionary<i32, memref<25xi8>>) -> ()
  }, {
    %dict_52 = sdql.empty_dictionary : dictionary<i32, memref<25xi8>>
    "scf.yield"(%dict_52) : (dictionary<i32, memref<25xi8>>) -> ()
  }) : (i1) -> dictionary<i32, memref<25xi8>>
  sdql.yield %if_47 : dictionary<i32, memref<25xi8>>
}
%fieldnode_53 = sdql.access_record %orders "size" : record<"o_orderkey": dictionary<i32, i32>, "o_custkey": dictionary<i32, i32>, "o_orderstatus": dictionary<i32, memref<1xi8>>, "o_totalprice": dictionary<i32, f64>, "o_orderdate": dictionary<i32, i32>, "o_orderpriority": dictionary<i32, memref<15xi8>>, "o_clerk": dictionary<i32, memref<15xi8>>, "o_shippriority": dictionary<i32, i32>, "o_comment": dictionary<i32, memref<79xi8>>, "size": i32> -> i32
%rangenode_54 = "func.call"(%fieldnode_53) <{callee = @range_builtin}> : (i32) -> dictionary<i32, i32>
%ord_indexed = sdql.sum %rangenode_54 : dictionary<i32, i32> -> dictionary<i32, i32> {
^bb_55(%i: i32, %_: i32):
  %fieldnode_57 = sdql.access_record %orders "o_orderkey" : record<"o_orderkey": dictionary<i32, i32>, "o_custkey": dictionary<i32, i32>, "o_orderstatus": dictionary<i32, memref<1xi8>>, "o_totalprice": dictionary<i32, f64>, "o_orderdate": dictionary<i32, i32>, "o_orderpriority": dictionary<i32, memref<15xi8>>, "o_clerk": dictionary<i32, memref<15xi8>>, "o_shippriority": dictionary<i32, i32>, "o_comment": dictionary<i32, memref<79xi8>>, "size": i32> -> dictionary<i32, i32>
  %get_56 = sdql.lookup_dictionary %fieldnode_57 [%i : i32] : dictionary<i32, i32> -> i32
  %fieldnode_59 = sdql.access_record %orders "o_custkey" : record<"o_orderkey": dictionary<i32, i32>, "o_custkey": dictionary<i32, i32>, "o_orderstatus": dictionary<i32, memref<1xi8>>, "o_totalprice": dictionary<i32, f64>, "o_orderdate": dictionary<i32, i32>, "o_orderpriority": dictionary<i32, memref<15xi8>>, "o_clerk": dictionary<i32, memref<15xi8>>, "o_shippriority": dictionary<i32, i32>, "o_comment": dictionary<i32, memref<79xi8>>, "size": i32> -> dictionary<i32, i32>
  %get_58 = sdql.lookup_dictionary %fieldnode_59 [%i : i32] : dictionary<i32, i32> -> i32
  %fieldnode_61 = sdql.access_record %orders "o_orderstatus" : record<"o_orderkey": dictionary<i32, i32>, "o_custkey": dictionary<i32, i32>, "o_orderstatus": dictionary<i32, memref<1xi8>>, "o_totalprice": dictionary<i32, f64>, "o_orderdate": dictionary<i32, i32>, "o_orderpriority": dictionary<i32, memref<15xi8>>, "o_clerk": dictionary<i32, memref<15xi8>>, "o_shippriority": dictionary<i32, i32>, "o_comment": dictionary<i32, memref<79xi8>>, "size": i32> -> dictionary<i32, memref<1xi8>>
  %get_60 = sdql.lookup_dictionary %fieldnode_61 [%i : i32] : dictionary<i32, memref<1xi8>> -> memref<1xi8>
  %fieldnode_63 = sdql.access_record %orders "o_totalprice" : record<"o_orderkey": dictionary<i32, i32>, "o_custkey": dictionary<i32, i32>, "o_orderstatus": dictionary<i32, memref<1xi8>>, "o_totalprice": dictionary<i32, f64>, "o_orderdate": dictionary<i32, i32>, "o_orderpriority": dictionary<i32, memref<15xi8>>, "o_clerk": dictionary<i32, memref<15xi8>>, "o_shippriority": dictionary<i32, i32>, "o_comment": dictionary<i32, memref<79xi8>>, "size": i32> -> dictionary<i32, f64>
  %get_62 = sdql.lookup_dictionary %fieldnode_63 [%i : i32] : dictionary<i32, f64> -> f64
  %fieldnode_65 = sdql.access_record %orders "o_orderdate" : record<"o_orderkey": dictionary<i32, i32>, "o_custkey": dictionary<i32, i32>, "o_orderstatus": dictionary<i32, memref<1xi8>>, "o_totalprice": dictionary<i32, f64>, "o_orderdate": dictionary<i32, i32>, "o_orderpriority": dictionary<i32, memref<15xi8>>, "o_clerk": dictionary<i32, memref<15xi8>>, "o_shippriority": dictionary<i32, i32>, "o_comment": dictionary<i32, memref<79xi8>>, "size": i32> -> dictionary<i32, i32>
  %get_64 = sdql.lookup_dictionary %fieldnode_65 [%i : i32] : dictionary<i32, i32> -> i32
  %fieldnode_67 = sdql.access_record %orders "o_orderpriority" : record<"o_orderkey": dictionary<i32, i32>, "o_custkey": dictionary<i32, i32>, "o_orderstatus": dictionary<i32, memref<1xi8>>, "o_totalprice": dictionary<i32, f64>, "o_orderdate": dictionary<i32, i32>, "o_orderpriority": dictionary<i32, memref<15xi8>>, "o_clerk": dictionary<i32, memref<15xi8>>, "o_shippriority": dictionary<i32, i32>, "o_comment": dictionary<i32, memref<79xi8>>, "size": i32> -> dictionary<i32, memref<15xi8>>
  %get_66 = sdql.lookup_dictionary %fieldnode_67 [%i : i32] : dictionary<i32, memref<15xi8>> -> memref<15xi8>
  %fieldnode_69 = sdql.access_record %orders "o_clerk" : record<"o_orderkey": dictionary<i32, i32>, "o_custkey": dictionary<i32, i32>, "o_orderstatus": dictionary<i32, memref<1xi8>>, "o_totalprice": dictionary<i32, f64>, "o_orderdate": dictionary<i32, i32>, "o_orderpriority": dictionary<i32, memref<15xi8>>, "o_clerk": dictionary<i32, memref<15xi8>>, "o_shippriority": dictionary<i32, i32>, "o_comment": dictionary<i32, memref<79xi8>>, "size": i32> -> dictionary<i32, memref<15xi8>>
  %get_68 = sdql.lookup_dictionary %fieldnode_69 [%i : i32] : dictionary<i32, memref<15xi8>> -> memref<15xi8>
  %fieldnode_71 = sdql.access_record %orders "o_shippriority" : record<"o_orderkey": dictionary<i32, i32>, "o_custkey": dictionary<i32, i32>, "o_orderstatus": dictionary<i32, memref<1xi8>>, "o_totalprice": dictionary<i32, f64>, "o_orderdate": dictionary<i32, i32>, "o_orderpriority": dictionary<i32, memref<15xi8>>, "o_clerk": dictionary<i32, memref<15xi8>>, "o_shippriority": dictionary<i32, i32>, "o_comment": dictionary<i32, memref<79xi8>>, "size": i32> -> dictionary<i32, i32>
  %get_70 = sdql.lookup_dictionary %fieldnode_71 [%i : i32] : dictionary<i32, i32> -> i32
  %fieldnode_73 = sdql.access_record %orders "o_comment" : record<"o_orderkey": dictionary<i32, i32>, "o_custkey": dictionary<i32, i32>, "o_orderstatus": dictionary<i32, memref<1xi8>>, "o_totalprice": dictionary<i32, f64>, "o_orderdate": dictionary<i32, i32>, "o_orderpriority": dictionary<i32, memref<15xi8>>, "o_clerk": dictionary<i32, memref<15xi8>>, "o_shippriority": dictionary<i32, i32>, "o_comment": dictionary<i32, memref<79xi8>>, "size": i32> -> dictionary<i32, memref<79xi8>>
  %get_72 = sdql.lookup_dictionary %fieldnode_73 [%i : i32] : dictionary<i32, memref<79xi8>> -> memref<79xi8>
  %o = sdql.create_record {fields = ["o_orderkey", "o_custkey", "o_orderstatus", "o_totalprice", "o_orderdate", "o_orderpriority", "o_clerk", "o_shippriority", "o_comment"]} %get_56, %get_58, %get_60, %get_62, %get_64, %get_66, %get_68, %get_70, %get_72 : i32, i32, memref<1xi8>, f64, i32, memref<15xi8>, memref<15xi8>, i32, memref<79xi8> -> record<"o_orderkey": i32, "o_custkey": i32, "o_orderstatus": memref<1xi8>, "o_totalprice": f64, "o_orderdate": i32, "o_orderpriority": memref<15xi8>, "o_clerk": memref<15xi8>, "o_shippriority": i32, "o_comment": memref<79xi8>>
  %fieldnode_74 = sdql.access_record %o "o_orderstatus" : record<"o_orderkey": i32, "o_custkey": i32, "o_orderstatus": memref<1xi8>, "o_totalprice": f64, "o_orderdate": i32, "o_orderpriority": memref<15xi8>, "o_clerk": memref<15xi8>, "o_shippriority": i32, "o_comment": memref<79xi8>> -> memref<1xi8>
  %cmp_75 = sdql.cmp %fieldnode_74, %f : memref<1xi8>, memref<1xi8> -> i1
  %if_76 = "scf.if"(%cmp_75) ({
    %fieldnode_78 = sdql.access_record %o "o_orderkey" : record<"o_orderkey": i32, "o_custkey": i32, "o_orderstatus": memref<1xi8>, "o_totalprice": f64, "o_orderdate": i32, "o_orderpriority": memref<15xi8>, "o_clerk": memref<15xi8>, "o_shippriority": i32, "o_comment": memref<79xi8>> -> i32
    %consti_79 = "arith.constant"() <{value = 1 : i32}> : () -> i32
    %dict_77 = sdql.create_dictionary %fieldnode_78, %consti_79 : i32, i32 -> dictionary<i32, i32>
    "scf.yield"(%dict_77) : (dictionary<i32, i32>) -> ()
  }, {
    %dict_80 = sdql.empty_dictionary : dictionary<i32, i32>
    "scf.yield"(%dict_80) : (dictionary<i32, i32>) -> ()
  }) : (i1) -> dictionary<i32, i32>
  sdql.yield %if_76 : dictionary<i32, i32>
}
%fieldnode_81 = sdql.access_record %lineitem "size" : record<"l_orderkey": dictionary<i32, i32>, "l_partkey": dictionary<i32, i32>, "l_suppkey": dictionary<i32, i32>, "l_linenumber": dictionary<i32, i32>, "l_quantity": dictionary<i32, f64>, "l_extendedprice": dictionary<i32, f64>, "l_discount": dictionary<i32, f64>, "l_tax": dictionary<i32, f64>, "l_returnflag": dictionary<i32, memref<1xi8>>, "l_linestatus": dictionary<i32, memref<1xi8>>, "l_shipdate": dictionary<i32, i32>, "l_commitdate": dictionary<i32, i32>, "l_receiptdate": dictionary<i32, i32>, "l_shipinstruct": dictionary<i32, memref<25xi8>>, "l_shipmode": dictionary<i32, memref<10xi8>>, "l_comment": dictionary<i32, memref<44xi8>>, "size": i32> -> i32
%rangenode_82 = "func.call"(%fieldnode_81) <{callee = @range_builtin}> : (i32) -> dictionary<i32, i32>
%l2_indexed = sdql.sum %rangenode_82 : dictionary<i32, i32> -> dictionary<i32, dictionary<i32, i32>> {
^bb_83(%i: i32, %_: i32):
  %fieldnode_85 = sdql.access_record %lineitem "l_orderkey" : record<"l_orderkey": dictionary<i32, i32>, "l_partkey": dictionary<i32, i32>, "l_suppkey": dictionary<i32, i32>, "l_linenumber": dictionary<i32, i32>, "l_quantity": dictionary<i32, f64>, "l_extendedprice": dictionary<i32, f64>, "l_discount": dictionary<i32, f64>, "l_tax": dictionary<i32, f64>, "l_returnflag": dictionary<i32, memref<1xi8>>, "l_linestatus": dictionary<i32, memref<1xi8>>, "l_shipdate": dictionary<i32, i32>, "l_commitdate": dictionary<i32, i32>, "l_receiptdate": dictionary<i32, i32>, "l_shipinstruct": dictionary<i32, memref<25xi8>>, "l_shipmode": dictionary<i32, memref<10xi8>>, "l_comment": dictionary<i32, memref<44xi8>>, "size": i32> -> dictionary<i32, i32>
  %get_84 = sdql.lookup_dictionary %fieldnode_85 [%i : i32] : dictionary<i32, i32> -> i32
  %fieldnode_87 = sdql.access_record %lineitem "l_partkey" : record<"l_orderkey": dictionary<i32, i32>, "l_partkey": dictionary<i32, i32>, "l_suppkey": dictionary<i32, i32>, "l_linenumber": dictionary<i32, i32>, "l_quantity": dictionary<i32, f64>, "l_extendedprice": dictionary<i32, f64>, "l_discount": dictionary<i32, f64>, "l_tax": dictionary<i32, f64>, "l_returnflag": dictionary<i32, memref<1xi8>>, "l_linestatus": dictionary<i32, memref<1xi8>>, "l_shipdate": dictionary<i32, i32>, "l_commitdate": dictionary<i32, i32>, "l_receiptdate": dictionary<i32, i32>, "l_shipinstruct": dictionary<i32, memref<25xi8>>, "l_shipmode": dictionary<i32, memref<10xi8>>, "l_comment": dictionary<i32, memref<44xi8>>, "size": i32> -> dictionary<i32, i32>
  %get_86 = sdql.lookup_dictionary %fieldnode_87 [%i : i32] : dictionary<i32, i32> -> i32
  %fieldnode_89 = sdql.access_record %lineitem "l_suppkey" : record<"l_orderkey": dictionary<i32, i32>, "l_partkey": dictionary<i32, i32>, "l_suppkey": dictionary<i32, i32>, "l_linenumber": dictionary<i32, i32>, "l_quantity": dictionary<i32, f64>, "l_extendedprice": dictionary<i32, f64>, "l_discount": dictionary<i32, f64>, "l_tax": dictionary<i32, f64>, "l_returnflag": dictionary<i32, memref<1xi8>>, "l_linestatus": dictionary<i32, memref<1xi8>>, "l_shipdate": dictionary<i32, i32>, "l_commitdate": dictionary<i32, i32>, "l_receiptdate": dictionary<i32, i32>, "l_shipinstruct": dictionary<i32, memref<25xi8>>, "l_shipmode": dictionary<i32, memref<10xi8>>, "l_comment": dictionary<i32, memref<44xi8>>, "size": i32> -> dictionary<i32, i32>
  %get_88 = sdql.lookup_dictionary %fieldnode_89 [%i : i32] : dictionary<i32, i32> -> i32
  %fieldnode_91 = sdql.access_record %lineitem "l_linenumber" : record<"l_orderkey": dictionary<i32, i32>, "l_partkey": dictionary<i32, i32>, "l_suppkey": dictionary<i32, i32>, "l_linenumber": dictionary<i32, i32>, "l_quantity": dictionary<i32, f64>, "l_extendedprice": dictionary<i32, f64>, "l_discount": dictionary<i32, f64>, "l_tax": dictionary<i32, f64>, "l_returnflag": dictionary<i32, memref<1xi8>>, "l_linestatus": dictionary<i32, memref<1xi8>>, "l_shipdate": dictionary<i32, i32>, "l_commitdate": dictionary<i32, i32>, "l_receiptdate": dictionary<i32, i32>, "l_shipinstruct": dictionary<i32, memref<25xi8>>, "l_shipmode": dictionary<i32, memref<10xi8>>, "l_comment": dictionary<i32, memref<44xi8>>, "size": i32> -> dictionary<i32, i32>
  %get_90 = sdql.lookup_dictionary %fieldnode_91 [%i : i32] : dictionary<i32, i32> -> i32
  %fieldnode_93 = sdql.access_record %lineitem "l_quantity" : record<"l_orderkey": dictionary<i32, i32>, "l_partkey": dictionary<i32, i32>, "l_suppkey": dictionary<i32, i32>, "l_linenumber": dictionary<i32, i32>, "l_quantity": dictionary<i32, f64>, "l_extendedprice": dictionary<i32, f64>, "l_discount": dictionary<i32, f64>, "l_tax": dictionary<i32, f64>, "l_returnflag": dictionary<i32, memref<1xi8>>, "l_linestatus": dictionary<i32, memref<1xi8>>, "l_shipdate": dictionary<i32, i32>, "l_commitdate": dictionary<i32, i32>, "l_receiptdate": dictionary<i32, i32>, "l_shipinstruct": dictionary<i32, memref<25xi8>>, "l_shipmode": dictionary<i32, memref<10xi8>>, "l_comment": dictionary<i32, memref<44xi8>>, "size": i32> -> dictionary<i32, f64>
  %get_92 = sdql.lookup_dictionary %fieldnode_93 [%i : i32] : dictionary<i32, f64> -> f64
  %fieldnode_95 = sdql.access_record %lineitem "l_extendedprice" : record<"l_orderkey": dictionary<i32, i32>, "l_partkey": dictionary<i32, i32>, "l_suppkey": dictionary<i32, i32>, "l_linenumber": dictionary<i32, i32>, "l_quantity": dictionary<i32, f64>, "l_extendedprice": dictionary<i32, f64>, "l_discount": dictionary<i32, f64>, "l_tax": dictionary<i32, f64>, "l_returnflag": dictionary<i32, memref<1xi8>>, "l_linestatus": dictionary<i32, memref<1xi8>>, "l_shipdate": dictionary<i32, i32>, "l_commitdate": dictionary<i32, i32>, "l_receiptdate": dictionary<i32, i32>, "l_shipinstruct": dictionary<i32, memref<25xi8>>, "l_shipmode": dictionary<i32, memref<10xi8>>, "l_comment": dictionary<i32, memref<44xi8>>, "size": i32> -> dictionary<i32, f64>
  %get_94 = sdql.lookup_dictionary %fieldnode_95 [%i : i32] : dictionary<i32, f64> -> f64
  %fieldnode_97 = sdql.access_record %lineitem "l_discount" : record<"l_orderkey": dictionary<i32, i32>, "l_partkey": dictionary<i32, i32>, "l_suppkey": dictionary<i32, i32>, "l_linenumber": dictionary<i32, i32>, "l_quantity": dictionary<i32, f64>, "l_extendedprice": dictionary<i32, f64>, "l_discount": dictionary<i32, f64>, "l_tax": dictionary<i32, f64>, "l_returnflag": dictionary<i32, memref<1xi8>>, "l_linestatus": dictionary<i32, memref<1xi8>>, "l_shipdate": dictionary<i32, i32>, "l_commitdate": dictionary<i32, i32>, "l_receiptdate": dictionary<i32, i32>, "l_shipinstruct": dictionary<i32, memref<25xi8>>, "l_shipmode": dictionary<i32, memref<10xi8>>, "l_comment": dictionary<i32, memref<44xi8>>, "size": i32> -> dictionary<i32, f64>
  %get_96 = sdql.lookup_dictionary %fieldnode_97 [%i : i32] : dictionary<i32, f64> -> f64
  %fieldnode_99 = sdql.access_record %lineitem "l_tax" : record<"l_orderkey": dictionary<i32, i32>, "l_partkey": dictionary<i32, i32>, "l_suppkey": dictionary<i32, i32>, "l_linenumber": dictionary<i32, i32>, "l_quantity": dictionary<i32, f64>, "l_extendedprice": dictionary<i32, f64>, "l_discount": dictionary<i32, f64>, "l_tax": dictionary<i32, f64>, "l_returnflag": dictionary<i32, memref<1xi8>>, "l_linestatus": dictionary<i32, memref<1xi8>>, "l_shipdate": dictionary<i32, i32>, "l_commitdate": dictionary<i32, i32>, "l_receiptdate": dictionary<i32, i32>, "l_shipinstruct": dictionary<i32, memref<25xi8>>, "l_shipmode": dictionary<i32, memref<10xi8>>, "l_comment": dictionary<i32, memref<44xi8>>, "size": i32> -> dictionary<i32, f64>
  %get_98 = sdql.lookup_dictionary %fieldnode_99 [%i : i32] : dictionary<i32, f64> -> f64
  %fieldnode_101 = sdql.access_record %lineitem "l_returnflag" : record<"l_orderkey": dictionary<i32, i32>, "l_partkey": dictionary<i32, i32>, "l_suppkey": dictionary<i32, i32>, "l_linenumber": dictionary<i32, i32>, "l_quantity": dictionary<i32, f64>, "l_extendedprice": dictionary<i32, f64>, "l_discount": dictionary<i32, f64>, "l_tax": dictionary<i32, f64>, "l_returnflag": dictionary<i32, memref<1xi8>>, "l_linestatus": dictionary<i32, memref<1xi8>>, "l_shipdate": dictionary<i32, i32>, "l_commitdate": dictionary<i32, i32>, "l_receiptdate": dictionary<i32, i32>, "l_shipinstruct": dictionary<i32, memref<25xi8>>, "l_shipmode": dictionary<i32, memref<10xi8>>, "l_comment": dictionary<i32, memref<44xi8>>, "size": i32> -> dictionary<i32, memref<1xi8>>
  %get_100 = sdql.lookup_dictionary %fieldnode_101 [%i : i32] : dictionary<i32, memref<1xi8>> -> memref<1xi8>
  %fieldnode_103 = sdql.access_record %lineitem "l_linestatus" : record<"l_orderkey": dictionary<i32, i32>, "l_partkey": dictionary<i32, i32>, "l_suppkey": dictionary<i32, i32>, "l_linenumber": dictionary<i32, i32>, "l_quantity": dictionary<i32, f64>, "l_extendedprice": dictionary<i32, f64>, "l_discount": dictionary<i32, f64>, "l_tax": dictionary<i32, f64>, "l_returnflag": dictionary<i32, memref<1xi8>>, "l_linestatus": dictionary<i32, memref<1xi8>>, "l_shipdate": dictionary<i32, i32>, "l_commitdate": dictionary<i32, i32>, "l_receiptdate": dictionary<i32, i32>, "l_shipinstruct": dictionary<i32, memref<25xi8>>, "l_shipmode": dictionary<i32, memref<10xi8>>, "l_comment": dictionary<i32, memref<44xi8>>, "size": i32> -> dictionary<i32, memref<1xi8>>
  %get_102 = sdql.lookup_dictionary %fieldnode_103 [%i : i32] : dictionary<i32, memref<1xi8>> -> memref<1xi8>
  %fieldnode_105 = sdql.access_record %lineitem "l_shipdate" : record<"l_orderkey": dictionary<i32, i32>, "l_partkey": dictionary<i32, i32>, "l_suppkey": dictionary<i32, i32>, "l_linenumber": dictionary<i32, i32>, "l_quantity": dictionary<i32, f64>, "l_extendedprice": dictionary<i32, f64>, "l_discount": dictionary<i32, f64>, "l_tax": dictionary<i32, f64>, "l_returnflag": dictionary<i32, memref<1xi8>>, "l_linestatus": dictionary<i32, memref<1xi8>>, "l_shipdate": dictionary<i32, i32>, "l_commitdate": dictionary<i32, i32>, "l_receiptdate": dictionary<i32, i32>, "l_shipinstruct": dictionary<i32, memref<25xi8>>, "l_shipmode": dictionary<i32, memref<10xi8>>, "l_comment": dictionary<i32, memref<44xi8>>, "size": i32> -> dictionary<i32, i32>
  %get_104 = sdql.lookup_dictionary %fieldnode_105 [%i : i32] : dictionary<i32, i32> -> i32
  %fieldnode_107 = sdql.access_record %lineitem "l_commitdate" : record<"l_orderkey": dictionary<i32, i32>, "l_partkey": dictionary<i32, i32>, "l_suppkey": dictionary<i32, i32>, "l_linenumber": dictionary<i32, i32>, "l_quantity": dictionary<i32, f64>, "l_extendedprice": dictionary<i32, f64>, "l_discount": dictionary<i32, f64>, "l_tax": dictionary<i32, f64>, "l_returnflag": dictionary<i32, memref<1xi8>>, "l_linestatus": dictionary<i32, memref<1xi8>>, "l_shipdate": dictionary<i32, i32>, "l_commitdate": dictionary<i32, i32>, "l_receiptdate": dictionary<i32, i32>, "l_shipinstruct": dictionary<i32, memref<25xi8>>, "l_shipmode": dictionary<i32, memref<10xi8>>, "l_comment": dictionary<i32, memref<44xi8>>, "size": i32> -> dictionary<i32, i32>
  %get_106 = sdql.lookup_dictionary %fieldnode_107 [%i : i32] : dictionary<i32, i32> -> i32
  %fieldnode_109 = sdql.access_record %lineitem "l_receiptdate" : record<"l_orderkey": dictionary<i32, i32>, "l_partkey": dictionary<i32, i32>, "l_suppkey": dictionary<i32, i32>, "l_linenumber": dictionary<i32, i32>, "l_quantity": dictionary<i32, f64>, "l_extendedprice": dictionary<i32, f64>, "l_discount": dictionary<i32, f64>, "l_tax": dictionary<i32, f64>, "l_returnflag": dictionary<i32, memref<1xi8>>, "l_linestatus": dictionary<i32, memref<1xi8>>, "l_shipdate": dictionary<i32, i32>, "l_commitdate": dictionary<i32, i32>, "l_receiptdate": dictionary<i32, i32>, "l_shipinstruct": dictionary<i32, memref<25xi8>>, "l_shipmode": dictionary<i32, memref<10xi8>>, "l_comment": dictionary<i32, memref<44xi8>>, "size": i32> -> dictionary<i32, i32>
  %get_108 = sdql.lookup_dictionary %fieldnode_109 [%i : i32] : dictionary<i32, i32> -> i32
  %fieldnode_111 = sdql.access_record %lineitem "l_shipinstruct" : record<"l_orderkey": dictionary<i32, i32>, "l_partkey": dictionary<i32, i32>, "l_suppkey": dictionary<i32, i32>, "l_linenumber": dictionary<i32, i32>, "l_quantity": dictionary<i32, f64>, "l_extendedprice": dictionary<i32, f64>, "l_discount": dictionary<i32, f64>, "l_tax": dictionary<i32, f64>, "l_returnflag": dictionary<i32, memref<1xi8>>, "l_linestatus": dictionary<i32, memref<1xi8>>, "l_shipdate": dictionary<i32, i32>, "l_commitdate": dictionary<i32, i32>, "l_receiptdate": dictionary<i32, i32>, "l_shipinstruct": dictionary<i32, memref<25xi8>>, "l_shipmode": dictionary<i32, memref<10xi8>>, "l_comment": dictionary<i32, memref<44xi8>>, "size": i32> -> dictionary<i32, memref<25xi8>>
  %get_110 = sdql.lookup_dictionary %fieldnode_111 [%i : i32] : dictionary<i32, memref<25xi8>> -> memref<25xi8>
  %fieldnode_113 = sdql.access_record %lineitem "l_shipmode" : record<"l_orderkey": dictionary<i32, i32>, "l_partkey": dictionary<i32, i32>, "l_suppkey": dictionary<i32, i32>, "l_linenumber": dictionary<i32, i32>, "l_quantity": dictionary<i32, f64>, "l_extendedprice": dictionary<i32, f64>, "l_discount": dictionary<i32, f64>, "l_tax": dictionary<i32, f64>, "l_returnflag": dictionary<i32, memref<1xi8>>, "l_linestatus": dictionary<i32, memref<1xi8>>, "l_shipdate": dictionary<i32, i32>, "l_commitdate": dictionary<i32, i32>, "l_receiptdate": dictionary<i32, i32>, "l_shipinstruct": dictionary<i32, memref<25xi8>>, "l_shipmode": dictionary<i32, memref<10xi8>>, "l_comment": dictionary<i32, memref<44xi8>>, "size": i32> -> dictionary<i32, memref<10xi8>>
  %get_112 = sdql.lookup_dictionary %fieldnode_113 [%i : i32] : dictionary<i32, memref<10xi8>> -> memref<10xi8>
  %fieldnode_115 = sdql.access_record %lineitem "l_comment" : record<"l_orderkey": dictionary<i32, i32>, "l_partkey": dictionary<i32, i32>, "l_suppkey": dictionary<i32, i32>, "l_linenumber": dictionary<i32, i32>, "l_quantity": dictionary<i32, f64>, "l_extendedprice": dictionary<i32, f64>, "l_discount": dictionary<i32, f64>, "l_tax": dictionary<i32, f64>, "l_returnflag": dictionary<i32, memref<1xi8>>, "l_linestatus": dictionary<i32, memref<1xi8>>, "l_shipdate": dictionary<i32, i32>, "l_commitdate": dictionary<i32, i32>, "l_receiptdate": dictionary<i32, i32>, "l_shipinstruct": dictionary<i32, memref<25xi8>>, "l_shipmode": dictionary<i32, memref<10xi8>>, "l_comment": dictionary<i32, memref<44xi8>>, "size": i32> -> dictionary<i32, memref<44xi8>>
  %get_114 = sdql.lookup_dictionary %fieldnode_115 [%i : i32] : dictionary<i32, memref<44xi8>> -> memref<44xi8>
  %l = sdql.create_record {fields = ["l_orderkey", "l_partkey", "l_suppkey", "l_linenumber", "l_quantity", "l_extendedprice", "l_discount", "l_tax", "l_returnflag", "l_linestatus", "l_shipdate", "l_commitdate", "l_receiptdate", "l_shipinstruct", "l_shipmode", "l_comment"]} %get_84, %get_86, %get_88, %get_90, %get_92, %get_94, %get_96, %get_98, %get_100, %get_102, %get_104, %get_106, %get_108, %get_110, %get_112, %get_114 : i32, i32, i32, i32, f64, f64, f64, f64, memref<1xi8>, memref<1xi8>, i32, i32, i32, memref<25xi8>, memref<10xi8>, memref<44xi8> -> record<"l_orderkey": i32, "l_partkey": i32, "l_suppkey": i32, "l_linenumber": i32, "l_quantity": f64, "l_extendedprice": f64, "l_discount": f64, "l_tax": f64, "l_returnflag": memref<1xi8>, "l_linestatus": memref<1xi8>, "l_shipdate": i32, "l_commitdate": i32, "l_receiptdate": i32, "l_shipinstruct": memref<25xi8>, "l_shipmode": memref<10xi8>, "l_comment": memref<44xi8>>
  %fieldnode_117 = sdql.access_record %l "l_orderkey" : record<"l_orderkey": i32, "l_partkey": i32, "l_suppkey": i32, "l_linenumber": i32, "l_quantity": f64, "l_extendedprice": f64, "l_discount": f64, "l_tax": f64, "l_returnflag": memref<1xi8>, "l_linestatus": memref<1xi8>, "l_shipdate": i32, "l_commitdate": i32, "l_receiptdate": i32, "l_shipinstruct": memref<25xi8>, "l_shipmode": memref<10xi8>, "l_comment": memref<44xi8>> -> i32
  %fieldnode_119 = sdql.access_record %l "l_suppkey" : record<"l_orderkey": i32, "l_partkey": i32, "l_suppkey": i32, "l_linenumber": i32, "l_quantity": f64, "l_extendedprice": f64, "l_discount": f64, "l_tax": f64, "l_returnflag": memref<1xi8>, "l_linestatus": memref<1xi8>, "l_shipdate": i32, "l_commitdate": i32, "l_receiptdate": i32, "l_shipinstruct": memref<25xi8>, "l_shipmode": memref<10xi8>, "l_comment": memref<44xi8>> -> i32
  %consti_120 = "arith.constant"() <{value = 1 : i32}> : () -> i32
  %dict_118 = sdql.create_dictionary %fieldnode_119, %consti_120 : i32, i32 -> dictionary<i32, i32>
  %dict_116 = sdql.create_dictionary %fieldnode_117, %dict_118 : i32, dictionary<i32, i32> -> dictionary<i32, dictionary<i32, i32>>
  sdql.yield %dict_116 : dictionary<i32, dictionary<i32, i32>>
}
%fieldnode_121 = sdql.access_record %lineitem "size" : record<"l_orderkey": dictionary<i32, i32>, "l_partkey": dictionary<i32, i32>, "l_suppkey": dictionary<i32, i32>, "l_linenumber": dictionary<i32, i32>, "l_quantity": dictionary<i32, f64>, "l_extendedprice": dictionary<i32, f64>, "l_discount": dictionary<i32, f64>, "l_tax": dictionary<i32, f64>, "l_returnflag": dictionary<i32, memref<1xi8>>, "l_linestatus": dictionary<i32, memref<1xi8>>, "l_shipdate": dictionary<i32, i32>, "l_commitdate": dictionary<i32, i32>, "l_receiptdate": dictionary<i32, i32>, "l_shipinstruct": dictionary<i32, memref<25xi8>>, "l_shipmode": dictionary<i32, memref<10xi8>>, "l_comment": dictionary<i32, memref<44xi8>>, "size": i32> -> i32
%rangenode_122 = "func.call"(%fieldnode_121) <{callee = @range_builtin}> : (i32) -> dictionary<i32, i32>
%l3_indexed = sdql.sum %rangenode_122 : dictionary<i32, i32> -> dictionary<i32, dictionary<i32, i32>> {
^bb_123(%i: i32, %_: i32):
  %fieldnode_125 = sdql.access_record %lineitem "l_orderkey" : record<"l_orderkey": dictionary<i32, i32>, "l_partkey": dictionary<i32, i32>, "l_suppkey": dictionary<i32, i32>, "l_linenumber": dictionary<i32, i32>, "l_quantity": dictionary<i32, f64>, "l_extendedprice": dictionary<i32, f64>, "l_discount": dictionary<i32, f64>, "l_tax": dictionary<i32, f64>, "l_returnflag": dictionary<i32, memref<1xi8>>, "l_linestatus": dictionary<i32, memref<1xi8>>, "l_shipdate": dictionary<i32, i32>, "l_commitdate": dictionary<i32, i32>, "l_receiptdate": dictionary<i32, i32>, "l_shipinstruct": dictionary<i32, memref<25xi8>>, "l_shipmode": dictionary<i32, memref<10xi8>>, "l_comment": dictionary<i32, memref<44xi8>>, "size": i32> -> dictionary<i32, i32>
  %get_124 = sdql.lookup_dictionary %fieldnode_125 [%i : i32] : dictionary<i32, i32> -> i32
  %fieldnode_127 = sdql.access_record %lineitem "l_partkey" : record<"l_orderkey": dictionary<i32, i32>, "l_partkey": dictionary<i32, i32>, "l_suppkey": dictionary<i32, i32>, "l_linenumber": dictionary<i32, i32>, "l_quantity": dictionary<i32, f64>, "l_extendedprice": dictionary<i32, f64>, "l_discount": dictionary<i32, f64>, "l_tax": dictionary<i32, f64>, "l_returnflag": dictionary<i32, memref<1xi8>>, "l_linestatus": dictionary<i32, memref<1xi8>>, "l_shipdate": dictionary<i32, i32>, "l_commitdate": dictionary<i32, i32>, "l_receiptdate": dictionary<i32, i32>, "l_shipinstruct": dictionary<i32, memref<25xi8>>, "l_shipmode": dictionary<i32, memref<10xi8>>, "l_comment": dictionary<i32, memref<44xi8>>, "size": i32> -> dictionary<i32, i32>
  %get_126 = sdql.lookup_dictionary %fieldnode_127 [%i : i32] : dictionary<i32, i32> -> i32
  %fieldnode_129 = sdql.access_record %lineitem "l_suppkey" : record<"l_orderkey": dictionary<i32, i32>, "l_partkey": dictionary<i32, i32>, "l_suppkey": dictionary<i32, i32>, "l_linenumber": dictionary<i32, i32>, "l_quantity": dictionary<i32, f64>, "l_extendedprice": dictionary<i32, f64>, "l_discount": dictionary<i32, f64>, "l_tax": dictionary<i32, f64>, "l_returnflag": dictionary<i32, memref<1xi8>>, "l_linestatus": dictionary<i32, memref<1xi8>>, "l_shipdate": dictionary<i32, i32>, "l_commitdate": dictionary<i32, i32>, "l_receiptdate": dictionary<i32, i32>, "l_shipinstruct": dictionary<i32, memref<25xi8>>, "l_shipmode": dictionary<i32, memref<10xi8>>, "l_comment": dictionary<i32, memref<44xi8>>, "size": i32> -> dictionary<i32, i32>
  %get_128 = sdql.lookup_dictionary %fieldnode_129 [%i : i32] : dictionary<i32, i32> -> i32
  %fieldnode_131 = sdql.access_record %lineitem "l_linenumber" : record<"l_orderkey": dictionary<i32, i32>, "l_partkey": dictionary<i32, i32>, "l_suppkey": dictionary<i32, i32>, "l_linenumber": dictionary<i32, i32>, "l_quantity": dictionary<i32, f64>, "l_extendedprice": dictionary<i32, f64>, "l_discount": dictionary<i32, f64>, "l_tax": dictionary<i32, f64>, "l_returnflag": dictionary<i32, memref<1xi8>>, "l_linestatus": dictionary<i32, memref<1xi8>>, "l_shipdate": dictionary<i32, i32>, "l_commitdate": dictionary<i32, i32>, "l_receiptdate": dictionary<i32, i32>, "l_shipinstruct": dictionary<i32, memref<25xi8>>, "l_shipmode": dictionary<i32, memref<10xi8>>, "l_comment": dictionary<i32, memref<44xi8>>, "size": i32> -> dictionary<i32, i32>
  %get_130 = sdql.lookup_dictionary %fieldnode_131 [%i : i32] : dictionary<i32, i32> -> i32
  %fieldnode_133 = sdql.access_record %lineitem "l_quantity" : record<"l_orderkey": dictionary<i32, i32>, "l_partkey": dictionary<i32, i32>, "l_suppkey": dictionary<i32, i32>, "l_linenumber": dictionary<i32, i32>, "l_quantity": dictionary<i32, f64>, "l_extendedprice": dictionary<i32, f64>, "l_discount": dictionary<i32, f64>, "l_tax": dictionary<i32, f64>, "l_returnflag": dictionary<i32, memref<1xi8>>, "l_linestatus": dictionary<i32, memref<1xi8>>, "l_shipdate": dictionary<i32, i32>, "l_commitdate": dictionary<i32, i32>, "l_receiptdate": dictionary<i32, i32>, "l_shipinstruct": dictionary<i32, memref<25xi8>>, "l_shipmode": dictionary<i32, memref<10xi8>>, "l_comment": dictionary<i32, memref<44xi8>>, "size": i32> -> dictionary<i32, f64>
  %get_132 = sdql.lookup_dictionary %fieldnode_133 [%i : i32] : dictionary<i32, f64> -> f64
  %fieldnode_135 = sdql.access_record %lineitem "l_extendedprice" : record<"l_orderkey": dictionary<i32, i32>, "l_partkey": dictionary<i32, i32>, "l_suppkey": dictionary<i32, i32>, "l_linenumber": dictionary<i32, i32>, "l_quantity": dictionary<i32, f64>, "l_extendedprice": dictionary<i32, f64>, "l_discount": dictionary<i32, f64>, "l_tax": dictionary<i32, f64>, "l_returnflag": dictionary<i32, memref<1xi8>>, "l_linestatus": dictionary<i32, memref<1xi8>>, "l_shipdate": dictionary<i32, i32>, "l_commitdate": dictionary<i32, i32>, "l_receiptdate": dictionary<i32, i32>, "l_shipinstruct": dictionary<i32, memref<25xi8>>, "l_shipmode": dictionary<i32, memref<10xi8>>, "l_comment": dictionary<i32, memref<44xi8>>, "size": i32> -> dictionary<i32, f64>
  %get_134 = sdql.lookup_dictionary %fieldnode_135 [%i : i32] : dictionary<i32, f64> -> f64
  %fieldnode_137 = sdql.access_record %lineitem "l_discount" : record<"l_orderkey": dictionary<i32, i32>, "l_partkey": dictionary<i32, i32>, "l_suppkey": dictionary<i32, i32>, "l_linenumber": dictionary<i32, i32>, "l_quantity": dictionary<i32, f64>, "l_extendedprice": dictionary<i32, f64>, "l_discount": dictionary<i32, f64>, "l_tax": dictionary<i32, f64>, "l_returnflag": dictionary<i32, memref<1xi8>>, "l_linestatus": dictionary<i32, memref<1xi8>>, "l_shipdate": dictionary<i32, i32>, "l_commitdate": dictionary<i32, i32>, "l_receiptdate": dictionary<i32, i32>, "l_shipinstruct": dictionary<i32, memref<25xi8>>, "l_shipmode": dictionary<i32, memref<10xi8>>, "l_comment": dictionary<i32, memref<44xi8>>, "size": i32> -> dictionary<i32, f64>
  %get_136 = sdql.lookup_dictionary %fieldnode_137 [%i : i32] : dictionary<i32, f64> -> f64
  %fieldnode_139 = sdql.access_record %lineitem "l_tax" : record<"l_orderkey": dictionary<i32, i32>, "l_partkey": dictionary<i32, i32>, "l_suppkey": dictionary<i32, i32>, "l_linenumber": dictionary<i32, i32>, "l_quantity": dictionary<i32, f64>, "l_extendedprice": dictionary<i32, f64>, "l_discount": dictionary<i32, f64>, "l_tax": dictionary<i32, f64>, "l_returnflag": dictionary<i32, memref<1xi8>>, "l_linestatus": dictionary<i32, memref<1xi8>>, "l_shipdate": dictionary<i32, i32>, "l_commitdate": dictionary<i32, i32>, "l_receiptdate": dictionary<i32, i32>, "l_shipinstruct": dictionary<i32, memref<25xi8>>, "l_shipmode": dictionary<i32, memref<10xi8>>, "l_comment": dictionary<i32, memref<44xi8>>, "size": i32> -> dictionary<i32, f64>
  %get_138 = sdql.lookup_dictionary %fieldnode_139 [%i : i32] : dictionary<i32, f64> -> f64
  %fieldnode_141 = sdql.access_record %lineitem "l_returnflag" : record<"l_orderkey": dictionary<i32, i32>, "l_partkey": dictionary<i32, i32>, "l_suppkey": dictionary<i32, i32>, "l_linenumber": dictionary<i32, i32>, "l_quantity": dictionary<i32, f64>, "l_extendedprice": dictionary<i32, f64>, "l_discount": dictionary<i32, f64>, "l_tax": dictionary<i32, f64>, "l_returnflag": dictionary<i32, memref<1xi8>>, "l_linestatus": dictionary<i32, memref<1xi8>>, "l_shipdate": dictionary<i32, i32>, "l_commitdate": dictionary<i32, i32>, "l_receiptdate": dictionary<i32, i32>, "l_shipinstruct": dictionary<i32, memref<25xi8>>, "l_shipmode": dictionary<i32, memref<10xi8>>, "l_comment": dictionary<i32, memref<44xi8>>, "size": i32> -> dictionary<i32, memref<1xi8>>
  %get_140 = sdql.lookup_dictionary %fieldnode_141 [%i : i32] : dictionary<i32, memref<1xi8>> -> memref<1xi8>
  %fieldnode_143 = sdql.access_record %lineitem "l_linestatus" : record<"l_orderkey": dictionary<i32, i32>, "l_partkey": dictionary<i32, i32>, "l_suppkey": dictionary<i32, i32>, "l_linenumber": dictionary<i32, i32>, "l_quantity": dictionary<i32, f64>, "l_extendedprice": dictionary<i32, f64>, "l_discount": dictionary<i32, f64>, "l_tax": dictionary<i32, f64>, "l_returnflag": dictionary<i32, memref<1xi8>>, "l_linestatus": dictionary<i32, memref<1xi8>>, "l_shipdate": dictionary<i32, i32>, "l_commitdate": dictionary<i32, i32>, "l_receiptdate": dictionary<i32, i32>, "l_shipinstruct": dictionary<i32, memref<25xi8>>, "l_shipmode": dictionary<i32, memref<10xi8>>, "l_comment": dictionary<i32, memref<44xi8>>, "size": i32> -> dictionary<i32, memref<1xi8>>
  %get_142 = sdql.lookup_dictionary %fieldnode_143 [%i : i32] : dictionary<i32, memref<1xi8>> -> memref<1xi8>
  %fieldnode_145 = sdql.access_record %lineitem "l_shipdate" : record<"l_orderkey": dictionary<i32, i32>, "l_partkey": dictionary<i32, i32>, "l_suppkey": dictionary<i32, i32>, "l_linenumber": dictionary<i32, i32>, "l_quantity": dictionary<i32, f64>, "l_extendedprice": dictionary<i32, f64>, "l_discount": dictionary<i32, f64>, "l_tax": dictionary<i32, f64>, "l_returnflag": dictionary<i32, memref<1xi8>>, "l_linestatus": dictionary<i32, memref<1xi8>>, "l_shipdate": dictionary<i32, i32>, "l_commitdate": dictionary<i32, i32>, "l_receiptdate": dictionary<i32, i32>, "l_shipinstruct": dictionary<i32, memref<25xi8>>, "l_shipmode": dictionary<i32, memref<10xi8>>, "l_comment": dictionary<i32, memref<44xi8>>, "size": i32> -> dictionary<i32, i32>
  %get_144 = sdql.lookup_dictionary %fieldnode_145 [%i : i32] : dictionary<i32, i32> -> i32
  %fieldnode_147 = sdql.access_record %lineitem "l_commitdate" : record<"l_orderkey": dictionary<i32, i32>, "l_partkey": dictionary<i32, i32>, "l_suppkey": dictionary<i32, i32>, "l_linenumber": dictionary<i32, i32>, "l_quantity": dictionary<i32, f64>, "l_extendedprice": dictionary<i32, f64>, "l_discount": dictionary<i32, f64>, "l_tax": dictionary<i32, f64>, "l_returnflag": dictionary<i32, memref<1xi8>>, "l_linestatus": dictionary<i32, memref<1xi8>>, "l_shipdate": dictionary<i32, i32>, "l_commitdate": dictionary<i32, i32>, "l_receiptdate": dictionary<i32, i32>, "l_shipinstruct": dictionary<i32, memref<25xi8>>, "l_shipmode": dictionary<i32, memref<10xi8>>, "l_comment": dictionary<i32, memref<44xi8>>, "size": i32> -> dictionary<i32, i32>
  %get_146 = sdql.lookup_dictionary %fieldnode_147 [%i : i32] : dictionary<i32, i32> -> i32
  %fieldnode_149 = sdql.access_record %lineitem "l_receiptdate" : record<"l_orderkey": dictionary<i32, i32>, "l_partkey": dictionary<i32, i32>, "l_suppkey": dictionary<i32, i32>, "l_linenumber": dictionary<i32, i32>, "l_quantity": dictionary<i32, f64>, "l_extendedprice": dictionary<i32, f64>, "l_discount": dictionary<i32, f64>, "l_tax": dictionary<i32, f64>, "l_returnflag": dictionary<i32, memref<1xi8>>, "l_linestatus": dictionary<i32, memref<1xi8>>, "l_shipdate": dictionary<i32, i32>, "l_commitdate": dictionary<i32, i32>, "l_receiptdate": dictionary<i32, i32>, "l_shipinstruct": dictionary<i32, memref<25xi8>>, "l_shipmode": dictionary<i32, memref<10xi8>>, "l_comment": dictionary<i32, memref<44xi8>>, "size": i32> -> dictionary<i32, i32>
  %get_148 = sdql.lookup_dictionary %fieldnode_149 [%i : i32] : dictionary<i32, i32> -> i32
  %fieldnode_151 = sdql.access_record %lineitem "l_shipinstruct" : record<"l_orderkey": dictionary<i32, i32>, "l_partkey": dictionary<i32, i32>, "l_suppkey": dictionary<i32, i32>, "l_linenumber": dictionary<i32, i32>, "l_quantity": dictionary<i32, f64>, "l_extendedprice": dictionary<i32, f64>, "l_discount": dictionary<i32, f64>, "l_tax": dictionary<i32, f64>, "l_returnflag": dictionary<i32, memref<1xi8>>, "l_linestatus": dictionary<i32, memref<1xi8>>, "l_shipdate": dictionary<i32, i32>, "l_commitdate": dictionary<i32, i32>, "l_receiptdate": dictionary<i32, i32>, "l_shipinstruct": dictionary<i32, memref<25xi8>>, "l_shipmode": dictionary<i32, memref<10xi8>>, "l_comment": dictionary<i32, memref<44xi8>>, "size": i32> -> dictionary<i32, memref<25xi8>>
  %get_150 = sdql.lookup_dictionary %fieldnode_151 [%i : i32] : dictionary<i32, memref<25xi8>> -> memref<25xi8>
  %fieldnode_153 = sdql.access_record %lineitem "l_shipmode" : record<"l_orderkey": dictionary<i32, i32>, "l_partkey": dictionary<i32, i32>, "l_suppkey": dictionary<i32, i32>, "l_linenumber": dictionary<i32, i32>, "l_quantity": dictionary<i32, f64>, "l_extendedprice": dictionary<i32, f64>, "l_discount": dictionary<i32, f64>, "l_tax": dictionary<i32, f64>, "l_returnflag": dictionary<i32, memref<1xi8>>, "l_linestatus": dictionary<i32, memref<1xi8>>, "l_shipdate": dictionary<i32, i32>, "l_commitdate": dictionary<i32, i32>, "l_receiptdate": dictionary<i32, i32>, "l_shipinstruct": dictionary<i32, memref<25xi8>>, "l_shipmode": dictionary<i32, memref<10xi8>>, "l_comment": dictionary<i32, memref<44xi8>>, "size": i32> -> dictionary<i32, memref<10xi8>>
  %get_152 = sdql.lookup_dictionary %fieldnode_153 [%i : i32] : dictionary<i32, memref<10xi8>> -> memref<10xi8>
  %fieldnode_155 = sdql.access_record %lineitem "l_comment" : record<"l_orderkey": dictionary<i32, i32>, "l_partkey": dictionary<i32, i32>, "l_suppkey": dictionary<i32, i32>, "l_linenumber": dictionary<i32, i32>, "l_quantity": dictionary<i32, f64>, "l_extendedprice": dictionary<i32, f64>, "l_discount": dictionary<i32, f64>, "l_tax": dictionary<i32, f64>, "l_returnflag": dictionary<i32, memref<1xi8>>, "l_linestatus": dictionary<i32, memref<1xi8>>, "l_shipdate": dictionary<i32, i32>, "l_commitdate": dictionary<i32, i32>, "l_receiptdate": dictionary<i32, i32>, "l_shipinstruct": dictionary<i32, memref<25xi8>>, "l_shipmode": dictionary<i32, memref<10xi8>>, "l_comment": dictionary<i32, memref<44xi8>>, "size": i32> -> dictionary<i32, memref<44xi8>>
  %get_154 = sdql.lookup_dictionary %fieldnode_155 [%i : i32] : dictionary<i32, memref<44xi8>> -> memref<44xi8>
  %l = sdql.create_record {fields = ["l_orderkey", "l_partkey", "l_suppkey", "l_linenumber", "l_quantity", "l_extendedprice", "l_discount", "l_tax", "l_returnflag", "l_linestatus", "l_shipdate", "l_commitdate", "l_receiptdate", "l_shipinstruct", "l_shipmode", "l_comment"]} %get_124, %get_126, %get_128, %get_130, %get_132, %get_134, %get_136, %get_138, %get_140, %get_142, %get_144, %get_146, %get_148, %get_150, %get_152, %get_154 : i32, i32, i32, i32, f64, f64, f64, f64, memref<1xi8>, memref<1xi8>, i32, i32, i32, memref<25xi8>, memref<10xi8>, memref<44xi8> -> record<"l_orderkey": i32, "l_partkey": i32, "l_suppkey": i32, "l_linenumber": i32, "l_quantity": f64, "l_extendedprice": f64, "l_discount": f64, "l_tax": f64, "l_returnflag": memref<1xi8>, "l_linestatus": memref<1xi8>, "l_shipdate": i32, "l_commitdate": i32, "l_receiptdate": i32, "l_shipinstruct": memref<25xi8>, "l_shipmode": memref<10xi8>, "l_comment": memref<44xi8>>
  %fieldnode_156 = sdql.access_record %l "l_commitdate" : record<"l_orderkey": i32, "l_partkey": i32, "l_suppkey": i32, "l_linenumber": i32, "l_quantity": f64, "l_extendedprice": f64, "l_discount": f64, "l_tax": f64, "l_returnflag": memref<1xi8>, "l_linestatus": memref<1xi8>, "l_shipdate": i32, "l_commitdate": i32, "l_receiptdate": i32, "l_shipinstruct": memref<25xi8>, "l_shipmode": memref<10xi8>, "l_comment": memref<44xi8>> -> i32
  %fieldnode_157 = sdql.access_record %l "l_receiptdate" : record<"l_orderkey": i32, "l_partkey": i32, "l_suppkey": i32, "l_linenumber": i32, "l_quantity": f64, "l_extendedprice": f64, "l_discount": f64, "l_tax": f64, "l_returnflag": memref<1xi8>, "l_linestatus": memref<1xi8>, "l_shipdate": i32, "l_commitdate": i32, "l_receiptdate": i32, "l_shipinstruct": memref<25xi8>, "l_shipmode": memref<10xi8>, "l_comment": memref<44xi8>> -> i32
  %cmpi_158 = "arith.cmpi"(%fieldnode_156, %fieldnode_157) <{predicate = 2}> : (i32, i32) -> i1
  %if_159 = "scf.if"(%cmpi_158) ({
    %fieldnode_161 = sdql.access_record %l "l_orderkey" : record<"l_orderkey": i32, "l_partkey": i32, "l_suppkey": i32, "l_linenumber": i32, "l_quantity": f64, "l_extendedprice": f64, "l_discount": f64, "l_tax": f64, "l_returnflag": memref<1xi8>, "l_linestatus": memref<1xi8>, "l_shipdate": i32, "l_commitdate": i32, "l_receiptdate": i32, "l_shipinstruct": memref<25xi8>, "l_shipmode": memref<10xi8>, "l_comment": memref<44xi8>> -> i32
    %fieldnode_163 = sdql.access_record %l "l_suppkey" : record<"l_orderkey": i32, "l_partkey": i32, "l_suppkey": i32, "l_linenumber": i32, "l_quantity": f64, "l_extendedprice": f64, "l_discount": f64, "l_tax": f64, "l_returnflag": memref<1xi8>, "l_linestatus": memref<1xi8>, "l_shipdate": i32, "l_commitdate": i32, "l_receiptdate": i32, "l_shipinstruct": memref<25xi8>, "l_shipmode": memref<10xi8>, "l_comment": memref<44xi8>> -> i32
    %consti_164 = "arith.constant"() <{value = 1 : i32}> : () -> i32
    %dict_162 = sdql.create_dictionary %fieldnode_163, %consti_164 : i32, i32 -> dictionary<i32, i32>
    %dict_160 = sdql.create_dictionary %fieldnode_161, %dict_162 : i32, dictionary<i32, i32> -> dictionary<i32, dictionary<i32, i32>>
    "scf.yield"(%dict_160) : (dictionary<i32, dictionary<i32, i32>>) -> ()
  }, {
    %dict_165 = sdql.empty_dictionary : dictionary<i32, dictionary<i32, i32>>
    "scf.yield"(%dict_165) : (dictionary<i32, dictionary<i32, i32>>) -> ()
  }) : (i1) -> dictionary<i32, dictionary<i32, i32>>
  sdql.yield %if_159 : dictionary<i32, dictionary<i32, i32>>
}
%fieldnode_166 = sdql.access_record %lineitem "size" : record<"l_orderkey": dictionary<i32, i32>, "l_partkey": dictionary<i32, i32>, "l_suppkey": dictionary<i32, i32>, "l_linenumber": dictionary<i32, i32>, "l_quantity": dictionary<i32, f64>, "l_extendedprice": dictionary<i32, f64>, "l_discount": dictionary<i32, f64>, "l_tax": dictionary<i32, f64>, "l_returnflag": dictionary<i32, memref<1xi8>>, "l_linestatus": dictionary<i32, memref<1xi8>>, "l_shipdate": dictionary<i32, i32>, "l_commitdate": dictionary<i32, i32>, "l_receiptdate": dictionary<i32, i32>, "l_shipinstruct": dictionary<i32, memref<25xi8>>, "l_shipmode": dictionary<i32, memref<10xi8>>, "l_comment": dictionary<i32, memref<44xi8>>, "size": i32> -> i32
%rangenode_167 = "func.call"(%fieldnode_166) <{callee = @range_builtin}> : (i32) -> dictionary<i32, i32>
%l1_probed = sdql.sum %rangenode_167 : dictionary<i32, i32> -> dictionary<record<"name" : memref<25xi8>>, record<"numwait" : i32>> {
^bb_168(%i: i32, %_: i32):
  %fieldnode_170 = sdql.access_record %lineitem "l_orderkey" : record<"l_orderkey": dictionary<i32, i32>, "l_partkey": dictionary<i32, i32>, "l_suppkey": dictionary<i32, i32>, "l_linenumber": dictionary<i32, i32>, "l_quantity": dictionary<i32, f64>, "l_extendedprice": dictionary<i32, f64>, "l_discount": dictionary<i32, f64>, "l_tax": dictionary<i32, f64>, "l_returnflag": dictionary<i32, memref<1xi8>>, "l_linestatus": dictionary<i32, memref<1xi8>>, "l_shipdate": dictionary<i32, i32>, "l_commitdate": dictionary<i32, i32>, "l_receiptdate": dictionary<i32, i32>, "l_shipinstruct": dictionary<i32, memref<25xi8>>, "l_shipmode": dictionary<i32, memref<10xi8>>, "l_comment": dictionary<i32, memref<44xi8>>, "size": i32> -> dictionary<i32, i32>
  %get_169 = sdql.lookup_dictionary %fieldnode_170 [%i : i32] : dictionary<i32, i32> -> i32
  %fieldnode_172 = sdql.access_record %lineitem "l_partkey" : record<"l_orderkey": dictionary<i32, i32>, "l_partkey": dictionary<i32, i32>, "l_suppkey": dictionary<i32, i32>, "l_linenumber": dictionary<i32, i32>, "l_quantity": dictionary<i32, f64>, "l_extendedprice": dictionary<i32, f64>, "l_discount": dictionary<i32, f64>, "l_tax": dictionary<i32, f64>, "l_returnflag": dictionary<i32, memref<1xi8>>, "l_linestatus": dictionary<i32, memref<1xi8>>, "l_shipdate": dictionary<i32, i32>, "l_commitdate": dictionary<i32, i32>, "l_receiptdate": dictionary<i32, i32>, "l_shipinstruct": dictionary<i32, memref<25xi8>>, "l_shipmode": dictionary<i32, memref<10xi8>>, "l_comment": dictionary<i32, memref<44xi8>>, "size": i32> -> dictionary<i32, i32>
  %get_171 = sdql.lookup_dictionary %fieldnode_172 [%i : i32] : dictionary<i32, i32> -> i32
  %fieldnode_174 = sdql.access_record %lineitem "l_suppkey" : record<"l_orderkey": dictionary<i32, i32>, "l_partkey": dictionary<i32, i32>, "l_suppkey": dictionary<i32, i32>, "l_linenumber": dictionary<i32, i32>, "l_quantity": dictionary<i32, f64>, "l_extendedprice": dictionary<i32, f64>, "l_discount": dictionary<i32, f64>, "l_tax": dictionary<i32, f64>, "l_returnflag": dictionary<i32, memref<1xi8>>, "l_linestatus": dictionary<i32, memref<1xi8>>, "l_shipdate": dictionary<i32, i32>, "l_commitdate": dictionary<i32, i32>, "l_receiptdate": dictionary<i32, i32>, "l_shipinstruct": dictionary<i32, memref<25xi8>>, "l_shipmode": dictionary<i32, memref<10xi8>>, "l_comment": dictionary<i32, memref<44xi8>>, "size": i32> -> dictionary<i32, i32>
  %get_173 = sdql.lookup_dictionary %fieldnode_174 [%i : i32] : dictionary<i32, i32> -> i32
  %fieldnode_176 = sdql.access_record %lineitem "l_linenumber" : record<"l_orderkey": dictionary<i32, i32>, "l_partkey": dictionary<i32, i32>, "l_suppkey": dictionary<i32, i32>, "l_linenumber": dictionary<i32, i32>, "l_quantity": dictionary<i32, f64>, "l_extendedprice": dictionary<i32, f64>, "l_discount": dictionary<i32, f64>, "l_tax": dictionary<i32, f64>, "l_returnflag": dictionary<i32, memref<1xi8>>, "l_linestatus": dictionary<i32, memref<1xi8>>, "l_shipdate": dictionary<i32, i32>, "l_commitdate": dictionary<i32, i32>, "l_receiptdate": dictionary<i32, i32>, "l_shipinstruct": dictionary<i32, memref<25xi8>>, "l_shipmode": dictionary<i32, memref<10xi8>>, "l_comment": dictionary<i32, memref<44xi8>>, "size": i32> -> dictionary<i32, i32>
  %get_175 = sdql.lookup_dictionary %fieldnode_176 [%i : i32] : dictionary<i32, i32> -> i32
  %fieldnode_178 = sdql.access_record %lineitem "l_quantity" : record<"l_orderkey": dictionary<i32, i32>, "l_partkey": dictionary<i32, i32>, "l_suppkey": dictionary<i32, i32>, "l_linenumber": dictionary<i32, i32>, "l_quantity": dictionary<i32, f64>, "l_extendedprice": dictionary<i32, f64>, "l_discount": dictionary<i32, f64>, "l_tax": dictionary<i32, f64>, "l_returnflag": dictionary<i32, memref<1xi8>>, "l_linestatus": dictionary<i32, memref<1xi8>>, "l_shipdate": dictionary<i32, i32>, "l_commitdate": dictionary<i32, i32>, "l_receiptdate": dictionary<i32, i32>, "l_shipinstruct": dictionary<i32, memref<25xi8>>, "l_shipmode": dictionary<i32, memref<10xi8>>, "l_comment": dictionary<i32, memref<44xi8>>, "size": i32> -> dictionary<i32, f64>
  %get_177 = sdql.lookup_dictionary %fieldnode_178 [%i : i32] : dictionary<i32, f64> -> f64
  %fieldnode_180 = sdql.access_record %lineitem "l_extendedprice" : record<"l_orderkey": dictionary<i32, i32>, "l_partkey": dictionary<i32, i32>, "l_suppkey": dictionary<i32, i32>, "l_linenumber": dictionary<i32, i32>, "l_quantity": dictionary<i32, f64>, "l_extendedprice": dictionary<i32, f64>, "l_discount": dictionary<i32, f64>, "l_tax": dictionary<i32, f64>, "l_returnflag": dictionary<i32, memref<1xi8>>, "l_linestatus": dictionary<i32, memref<1xi8>>, "l_shipdate": dictionary<i32, i32>, "l_commitdate": dictionary<i32, i32>, "l_receiptdate": dictionary<i32, i32>, "l_shipinstruct": dictionary<i32, memref<25xi8>>, "l_shipmode": dictionary<i32, memref<10xi8>>, "l_comment": dictionary<i32, memref<44xi8>>, "size": i32> -> dictionary<i32, f64>
  %get_179 = sdql.lookup_dictionary %fieldnode_180 [%i : i32] : dictionary<i32, f64> -> f64
  %fieldnode_182 = sdql.access_record %lineitem "l_discount" : record<"l_orderkey": dictionary<i32, i32>, "l_partkey": dictionary<i32, i32>, "l_suppkey": dictionary<i32, i32>, "l_linenumber": dictionary<i32, i32>, "l_quantity": dictionary<i32, f64>, "l_extendedprice": dictionary<i32, f64>, "l_discount": dictionary<i32, f64>, "l_tax": dictionary<i32, f64>, "l_returnflag": dictionary<i32, memref<1xi8>>, "l_linestatus": dictionary<i32, memref<1xi8>>, "l_shipdate": dictionary<i32, i32>, "l_commitdate": dictionary<i32, i32>, "l_receiptdate": dictionary<i32, i32>, "l_shipinstruct": dictionary<i32, memref<25xi8>>, "l_shipmode": dictionary<i32, memref<10xi8>>, "l_comment": dictionary<i32, memref<44xi8>>, "size": i32> -> dictionary<i32, f64>
  %get_181 = sdql.lookup_dictionary %fieldnode_182 [%i : i32] : dictionary<i32, f64> -> f64
  %fieldnode_184 = sdql.access_record %lineitem "l_tax" : record<"l_orderkey": dictionary<i32, i32>, "l_partkey": dictionary<i32, i32>, "l_suppkey": dictionary<i32, i32>, "l_linenumber": dictionary<i32, i32>, "l_quantity": dictionary<i32, f64>, "l_extendedprice": dictionary<i32, f64>, "l_discount": dictionary<i32, f64>, "l_tax": dictionary<i32, f64>, "l_returnflag": dictionary<i32, memref<1xi8>>, "l_linestatus": dictionary<i32, memref<1xi8>>, "l_shipdate": dictionary<i32, i32>, "l_commitdate": dictionary<i32, i32>, "l_receiptdate": dictionary<i32, i32>, "l_shipinstruct": dictionary<i32, memref<25xi8>>, "l_shipmode": dictionary<i32, memref<10xi8>>, "l_comment": dictionary<i32, memref<44xi8>>, "size": i32> -> dictionary<i32, f64>
  %get_183 = sdql.lookup_dictionary %fieldnode_184 [%i : i32] : dictionary<i32, f64> -> f64
  %fieldnode_186 = sdql.access_record %lineitem "l_returnflag" : record<"l_orderkey": dictionary<i32, i32>, "l_partkey": dictionary<i32, i32>, "l_suppkey": dictionary<i32, i32>, "l_linenumber": dictionary<i32, i32>, "l_quantity": dictionary<i32, f64>, "l_extendedprice": dictionary<i32, f64>, "l_discount": dictionary<i32, f64>, "l_tax": dictionary<i32, f64>, "l_returnflag": dictionary<i32, memref<1xi8>>, "l_linestatus": dictionary<i32, memref<1xi8>>, "l_shipdate": dictionary<i32, i32>, "l_commitdate": dictionary<i32, i32>, "l_receiptdate": dictionary<i32, i32>, "l_shipinstruct": dictionary<i32, memref<25xi8>>, "l_shipmode": dictionary<i32, memref<10xi8>>, "l_comment": dictionary<i32, memref<44xi8>>, "size": i32> -> dictionary<i32, memref<1xi8>>
  %get_185 = sdql.lookup_dictionary %fieldnode_186 [%i : i32] : dictionary<i32, memref<1xi8>> -> memref<1xi8>
  %fieldnode_188 = sdql.access_record %lineitem "l_linestatus" : record<"l_orderkey": dictionary<i32, i32>, "l_partkey": dictionary<i32, i32>, "l_suppkey": dictionary<i32, i32>, "l_linenumber": dictionary<i32, i32>, "l_quantity": dictionary<i32, f64>, "l_extendedprice": dictionary<i32, f64>, "l_discount": dictionary<i32, f64>, "l_tax": dictionary<i32, f64>, "l_returnflag": dictionary<i32, memref<1xi8>>, "l_linestatus": dictionary<i32, memref<1xi8>>, "l_shipdate": dictionary<i32, i32>, "l_commitdate": dictionary<i32, i32>, "l_receiptdate": dictionary<i32, i32>, "l_shipinstruct": dictionary<i32, memref<25xi8>>, "l_shipmode": dictionary<i32, memref<10xi8>>, "l_comment": dictionary<i32, memref<44xi8>>, "size": i32> -> dictionary<i32, memref<1xi8>>
  %get_187 = sdql.lookup_dictionary %fieldnode_188 [%i : i32] : dictionary<i32, memref<1xi8>> -> memref<1xi8>
  %fieldnode_190 = sdql.access_record %lineitem "l_shipdate" : record<"l_orderkey": dictionary<i32, i32>, "l_partkey": dictionary<i32, i32>, "l_suppkey": dictionary<i32, i32>, "l_linenumber": dictionary<i32, i32>, "l_quantity": dictionary<i32, f64>, "l_extendedprice": dictionary<i32, f64>, "l_discount": dictionary<i32, f64>, "l_tax": dictionary<i32, f64>, "l_returnflag": dictionary<i32, memref<1xi8>>, "l_linestatus": dictionary<i32, memref<1xi8>>, "l_shipdate": dictionary<i32, i32>, "l_commitdate": dictionary<i32, i32>, "l_receiptdate": dictionary<i32, i32>, "l_shipinstruct": dictionary<i32, memref<25xi8>>, "l_shipmode": dictionary<i32, memref<10xi8>>, "l_comment": dictionary<i32, memref<44xi8>>, "size": i32> -> dictionary<i32, i32>
  %get_189 = sdql.lookup_dictionary %fieldnode_190 [%i : i32] : dictionary<i32, i32> -> i32
  %fieldnode_192 = sdql.access_record %lineitem "l_commitdate" : record<"l_orderkey": dictionary<i32, i32>, "l_partkey": dictionary<i32, i32>, "l_suppkey": dictionary<i32, i32>, "l_linenumber": dictionary<i32, i32>, "l_quantity": dictionary<i32, f64>, "l_extendedprice": dictionary<i32, f64>, "l_discount": dictionary<i32, f64>, "l_tax": dictionary<i32, f64>, "l_returnflag": dictionary<i32, memref<1xi8>>, "l_linestatus": dictionary<i32, memref<1xi8>>, "l_shipdate": dictionary<i32, i32>, "l_commitdate": dictionary<i32, i32>, "l_receiptdate": dictionary<i32, i32>, "l_shipinstruct": dictionary<i32, memref<25xi8>>, "l_shipmode": dictionary<i32, memref<10xi8>>, "l_comment": dictionary<i32, memref<44xi8>>, "size": i32> -> dictionary<i32, i32>
  %get_191 = sdql.lookup_dictionary %fieldnode_192 [%i : i32] : dictionary<i32, i32> -> i32
  %fieldnode_194 = sdql.access_record %lineitem "l_receiptdate" : record<"l_orderkey": dictionary<i32, i32>, "l_partkey": dictionary<i32, i32>, "l_suppkey": dictionary<i32, i32>, "l_linenumber": dictionary<i32, i32>, "l_quantity": dictionary<i32, f64>, "l_extendedprice": dictionary<i32, f64>, "l_discount": dictionary<i32, f64>, "l_tax": dictionary<i32, f64>, "l_returnflag": dictionary<i32, memref<1xi8>>, "l_linestatus": dictionary<i32, memref<1xi8>>, "l_shipdate": dictionary<i32, i32>, "l_commitdate": dictionary<i32, i32>, "l_receiptdate": dictionary<i32, i32>, "l_shipinstruct": dictionary<i32, memref<25xi8>>, "l_shipmode": dictionary<i32, memref<10xi8>>, "l_comment": dictionary<i32, memref<44xi8>>, "size": i32> -> dictionary<i32, i32>
  %get_193 = sdql.lookup_dictionary %fieldnode_194 [%i : i32] : dictionary<i32, i32> -> i32
  %fieldnode_196 = sdql.access_record %lineitem "l_shipinstruct" : record<"l_orderkey": dictionary<i32, i32>, "l_partkey": dictionary<i32, i32>, "l_suppkey": dictionary<i32, i32>, "l_linenumber": dictionary<i32, i32>, "l_quantity": dictionary<i32, f64>, "l_extendedprice": dictionary<i32, f64>, "l_discount": dictionary<i32, f64>, "l_tax": dictionary<i32, f64>, "l_returnflag": dictionary<i32, memref<1xi8>>, "l_linestatus": dictionary<i32, memref<1xi8>>, "l_shipdate": dictionary<i32, i32>, "l_commitdate": dictionary<i32, i32>, "l_receiptdate": dictionary<i32, i32>, "l_shipinstruct": dictionary<i32, memref<25xi8>>, "l_shipmode": dictionary<i32, memref<10xi8>>, "l_comment": dictionary<i32, memref<44xi8>>, "size": i32> -> dictionary<i32, memref<25xi8>>
  %get_195 = sdql.lookup_dictionary %fieldnode_196 [%i : i32] : dictionary<i32, memref<25xi8>> -> memref<25xi8>
  %fieldnode_198 = sdql.access_record %lineitem "l_shipmode" : record<"l_orderkey": dictionary<i32, i32>, "l_partkey": dictionary<i32, i32>, "l_suppkey": dictionary<i32, i32>, "l_linenumber": dictionary<i32, i32>, "l_quantity": dictionary<i32, f64>, "l_extendedprice": dictionary<i32, f64>, "l_discount": dictionary<i32, f64>, "l_tax": dictionary<i32, f64>, "l_returnflag": dictionary<i32, memref<1xi8>>, "l_linestatus": dictionary<i32, memref<1xi8>>, "l_shipdate": dictionary<i32, i32>, "l_commitdate": dictionary<i32, i32>, "l_receiptdate": dictionary<i32, i32>, "l_shipinstruct": dictionary<i32, memref<25xi8>>, "l_shipmode": dictionary<i32, memref<10xi8>>, "l_comment": dictionary<i32, memref<44xi8>>, "size": i32> -> dictionary<i32, memref<10xi8>>
  %get_197 = sdql.lookup_dictionary %fieldnode_198 [%i : i32] : dictionary<i32, memref<10xi8>> -> memref<10xi8>
  %fieldnode_200 = sdql.access_record %lineitem "l_comment" : record<"l_orderkey": dictionary<i32, i32>, "l_partkey": dictionary<i32, i32>, "l_suppkey": dictionary<i32, i32>, "l_linenumber": dictionary<i32, i32>, "l_quantity": dictionary<i32, f64>, "l_extendedprice": dictionary<i32, f64>, "l_discount": dictionary<i32, f64>, "l_tax": dictionary<i32, f64>, "l_returnflag": dictionary<i32, memref<1xi8>>, "l_linestatus": dictionary<i32, memref<1xi8>>, "l_shipdate": dictionary<i32, i32>, "l_commitdate": dictionary<i32, i32>, "l_receiptdate": dictionary<i32, i32>, "l_shipinstruct": dictionary<i32, memref<25xi8>>, "l_shipmode": dictionary<i32, memref<10xi8>>, "l_comment": dictionary<i32, memref<44xi8>>, "size": i32> -> dictionary<i32, memref<44xi8>>
  %get_199 = sdql.lookup_dictionary %fieldnode_200 [%i : i32] : dictionary<i32, memref<44xi8>> -> memref<44xi8>
  %l = sdql.create_record {fields = ["l_orderkey", "l_partkey", "l_suppkey", "l_linenumber", "l_quantity", "l_extendedprice", "l_discount", "l_tax", "l_returnflag", "l_linestatus", "l_shipdate", "l_commitdate", "l_receiptdate", "l_shipinstruct", "l_shipmode", "l_comment"]} %get_169, %get_171, %get_173, %get_175, %get_177, %get_179, %get_181, %get_183, %get_185, %get_187, %get_189, %get_191, %get_193, %get_195, %get_197, %get_199 : i32, i32, i32, i32, f64, f64, f64, f64, memref<1xi8>, memref<1xi8>, i32, i32, i32, memref<25xi8>, memref<10xi8>, memref<44xi8> -> record<"l_orderkey": i32, "l_partkey": i32, "l_suppkey": i32, "l_linenumber": i32, "l_quantity": f64, "l_extendedprice": f64, "l_discount": f64, "l_tax": f64, "l_returnflag": memref<1xi8>, "l_linestatus": memref<1xi8>, "l_shipdate": i32, "l_commitdate": i32, "l_receiptdate": i32, "l_shipinstruct": memref<25xi8>, "l_shipmode": memref<10xi8>, "l_comment": memref<44xi8>>
  %fieldnode_201 = sdql.access_record %l "l_commitdate" : record<"l_orderkey": i32, "l_partkey": i32, "l_suppkey": i32, "l_linenumber": i32, "l_quantity": f64, "l_extendedprice": f64, "l_discount": f64, "l_tax": f64, "l_returnflag": memref<1xi8>, "l_linestatus": memref<1xi8>, "l_shipdate": i32, "l_commitdate": i32, "l_receiptdate": i32, "l_shipinstruct": memref<25xi8>, "l_shipmode": memref<10xi8>, "l_comment": memref<44xi8>> -> i32
  %fieldnode_202 = sdql.access_record %l "l_receiptdate" : record<"l_orderkey": i32, "l_partkey": i32, "l_suppkey": i32, "l_linenumber": i32, "l_quantity": f64, "l_extendedprice": f64, "l_discount": f64, "l_tax": f64, "l_returnflag": memref<1xi8>, "l_linestatus": memref<1xi8>, "l_shipdate": i32, "l_commitdate": i32, "l_receiptdate": i32, "l_shipinstruct": memref<25xi8>, "l_shipmode": memref<10xi8>, "l_comment": memref<44xi8>> -> i32
  %cmpi_203 = "arith.cmpi"(%fieldnode_201, %fieldnode_202) <{predicate = 2}> : (i32, i32) -> i1
  %if_204 = "scf.if"(%cmpi_203) ({
    %fieldnode_208 = sdql.access_record %l "l_suppkey" : record<"l_orderkey": i32, "l_partkey": i32, "l_suppkey": i32, "l_linenumber": i32, "l_quantity": f64, "l_extendedprice": f64, "l_discount": f64, "l_tax": f64, "l_returnflag": memref<1xi8>, "l_linestatus": memref<1xi8>, "l_shipdate": i32, "l_commitdate": i32, "l_receiptdate": i32, "l_shipinstruct": memref<25xi8>, "l_shipmode": memref<10xi8>, "l_comment": memref<44xi8>> -> i32
    %get_207 = sdql.lookup_dictionary %su_probed [%fieldnode_208 : i32] : dictionary<i32, memref<25xi8>> -> memref<25xi8>
    %dict_209 = sdql.empty_dictionary : memref<25xi8>
    %cmp_210 = sdql.cmp %get_207, %dict_209 : memref<25xi8>, memref<25xi8> -> i1
    %zero_205 = "arith.constant"() <{value = 0 : i1}> : () -> i1
    %neg_206 = "arith.cmpi"(%cmp_210, %zero_205) <{predicate = 0}> : (i1, i1) -> i1
    "scf.yield"(%neg_206) : (i1) -> ()
  }, {
    %constv_211 = "arith.constant"() <{value = 0 : i1}> : () -> i1
    "scf.yield"(%constv_211) : (i1) -> ()
  }) : (i1) -> i1
  %if_212 = "scf.if"(%if_204) ({
    %fieldnode_214 = sdql.access_record %l "l_orderkey" : record<"l_orderkey": i32, "l_partkey": i32, "l_suppkey": i32, "l_linenumber": i32, "l_quantity": f64, "l_extendedprice": f64, "l_discount": f64, "l_tax": f64, "l_returnflag": memref<1xi8>, "l_linestatus": memref<1xi8>, "l_shipdate": i32, "l_commitdate": i32, "l_receiptdate": i32, "l_shipinstruct": memref<25xi8>, "l_shipmode": memref<10xi8>, "l_comment": memref<44xi8>> -> i32
    %get_213 = sdql.lookup_dictionary %ord_indexed [%fieldnode_214 : i32] : dictionary<i32, i32> -> i32
    %dict_215 = sdql.empty_dictionary : i32
    %cmpi_216 = "arith.cmpi"(%get_213, %dict_215) <{predicate = 1}> : (i32, i32) -> i1
    "scf.yield"(%cmpi_216) : (i1) -> ()
  }, {
    %constv_217 = "arith.constant"() <{value = 0 : i1}> : () -> i1
    "scf.yield"(%constv_217) : (i1) -> ()
  }) : (i1) -> i1
  %if_218 = "scf.if"(%if_212) ({
    %consti_219 = "arith.constant"() <{value = 1 : i32}> : () -> i32
    %fieldnode_221 = sdql.access_record %l "l_orderkey" : record<"l_orderkey": i32, "l_partkey": i32, "l_suppkey": i32, "l_linenumber": i32, "l_quantity": f64, "l_extendedprice": f64, "l_discount": f64, "l_tax": f64, "l_returnflag": memref<1xi8>, "l_linestatus": memref<1xi8>, "l_shipdate": i32, "l_commitdate": i32, "l_receiptdate": i32, "l_shipinstruct": memref<25xi8>, "l_shipmode": memref<10xi8>, "l_comment": memref<44xi8>> -> i32
    %get_220 = sdql.lookup_dictionary %l2_indexed [%fieldnode_221 : i32] : dictionary<i32, dictionary<i32, i32>> -> dictionary<i32, i32>
    %external_222 = sdql.external "Size", %get_220 : dictionary<i32, i32> -> i32
    %cmpi_223 = "arith.cmpi"(%consti_219, %external_222) <{predicate = 2}> : (i32, i32) -> i1
    "scf.yield"(%cmpi_223) : (i1) -> ()
  }, {
    %constv_224 = "arith.constant"() <{value = 0 : i1}> : () -> i1
    "scf.yield"(%constv_224) : (i1) -> ()
  }) : (i1) -> i1
  %if_225 = "scf.if"(%if_218) ({
    %fieldnode_227 = sdql.access_record %l "l_orderkey" : record<"l_orderkey": i32, "l_partkey": i32, "l_suppkey": i32, "l_linenumber": i32, "l_quantity": f64, "l_extendedprice": f64, "l_discount": f64, "l_tax": f64, "l_returnflag": memref<1xi8>, "l_linestatus": memref<1xi8>, "l_shipdate": i32, "l_commitdate": i32, "l_receiptdate": i32, "l_shipinstruct": memref<25xi8>, "l_shipmode": memref<10xi8>, "l_comment": memref<44xi8>> -> i32
    %get_226 = sdql.lookup_dictionary %l3_indexed [%fieldnode_227 : i32] : dictionary<i32, dictionary<i32, i32>> -> dictionary<i32, i32>
    %external_228 = sdql.external "Size", %get_226 : dictionary<i32, i32> -> i32
    %consti_229 = "arith.constant"() <{value = 1 : i32}> : () -> i32
    %cmpi_230 = "arith.cmpi"(%external_228, %consti_229) <{predicate = 3}> : (i32, i32) -> i1
    "scf.yield"(%cmpi_230) : (i1) -> ()
  }, {
    %constv_231 = "arith.constant"() <{value = 0 : i1}> : () -> i1
    "scf.yield"(%constv_231) : (i1) -> ()
  }) : (i1) -> i1
  %if_232 = "scf.if"(%if_225) ({
    %fieldnode_235 = sdql.access_record %l "l_suppkey" : record<"l_orderkey": i32, "l_partkey": i32, "l_suppkey": i32, "l_linenumber": i32, "l_quantity": f64, "l_extendedprice": f64, "l_discount": f64, "l_tax": f64, "l_returnflag": memref<1xi8>, "l_linestatus": memref<1xi8>, "l_shipdate": i32, "l_commitdate": i32, "l_receiptdate": i32, "l_shipinstruct": memref<25xi8>, "l_shipmode": memref<10xi8>, "l_comment": memref<44xi8>> -> i32
    %get_234 = sdql.lookup_dictionary %su_probed [%fieldnode_235 : i32] : dictionary<i32, memref<25xi8>> -> memref<25xi8>
    %recnode_236 = sdql.create_record {fields = ["name"]} %get_234 : memref<25xi8> -> record<"name": memref<25xi8>>
    %consti_237 = "arith.constant"() <{value = 1 : i32}> : () -> i32
    %recnode_238 = sdql.create_record {fields = ["numwait"]} %consti_237 : i32 -> record<"numwait": i32>
    %dict_233 = sdql.create_dictionary %recnode_236, %recnode_238 : record<"name" : memref<25xi8>>, record<"numwait" : i32> -> dictionary<record<"name" : memref<25xi8>>, record<"numwait" : i32>>
    "scf.yield"(%dict_233) : (dictionary<record<"name" : memref<25xi8>>, record<"numwait" : i32>>) -> ()
  }, {
    %dict_239 = sdql.empty_dictionary : dictionary<record<"name" : memref<25xi8>>, record<"numwait" : i32>>
    "scf.yield"(%dict_239) : (dictionary<record<"name" : memref<25xi8>>, record<"numwait" : i32>>) -> ()
  }) : (i1) -> dictionary<record<"name" : memref<25xi8>>, record<"numwait" : i32>>
  sdql.yield %if_232 : dictionary<record<"name" : memref<25xi8>>, record<"numwait" : i32>>
}
%sum_240 = sdql.sum %l1_probed : dictionary<record<"name" : memref<25xi8>>, record<"numwait" : i32>> -> dictionary<record<"name" : memref<25xi8>, "numwait" : i32>, i32> {
^bb_241(%k: record<"name" : memref<25xi8>>, %v: record<"numwait" : i32>):
  %concat_244 = sdql.concat %k, %v : record<"name" : memref<25xi8>>, record<"numwait" : i32> -> record<"name" : memref<25xi8>, "numwait" : i32>
  %uniq_243 = sdql.unique %concat_244 : record<"name" : memref<25xi8>, "numwait" : i32> -> record<"name" : memref<25xi8>, "numwait" : i32>
  %consti_245 = "arith.constant"() <{value = 1 : i32}> : () -> i32
  %dict_242 = sdql.create_dictionary %uniq_243, %consti_245 : record<"name" : memref<25xi8>, "numwait" : i32>, i32 -> dictionary<record<"name" : memref<25xi8>, "numwait" : i32>, i32>
  sdql.yield %dict_242 : dictionary<record<"name" : memref<25xi8>, "numwait" : i32>, i32>
}
