func.func @range_builtin(%n: i32) -> dictionary<i32, i32> {
  %zero = "arith.constant"() <{value = 0}> : () -> i32
  %is_terminal = "arith.cmpi"(%n, %zero) <{"predicate" = 3}> : (i32, i32) -> i1
  %res = "scf.if"(%is_terminal) ({
    %empty = sdql.empty_dictionary : dictionary<i32, i32>
    "scf.yield"(%empty) : (dictionary<i32, i32>) -> ()
  }, {
    %one = "arith.constant"() <{value = 1}> : () -> i32
    %smaller_n = "arith.subi"(%n, %one) : (i32, i32) -> i32
    %prev_range = "func.call"(%smaller_n) <{callee = @range_builtin}> : (i32) -> dictionary<i32, i32>
    %true = "arith.constant"() <{value = 1}> : () -> i32
    %extension = sdql.create_dictionary %smaller_n, %true : i32, i32 -> dictionary<i32, i32>

    // return %extension + %prev_range
    %added = sdql.dictionary_add %extension %prev_range : dictionary<i32, i32>, dictionary<i32, i32> -> dictionary<i32, i32>
    "scf.yield"(%added) : (dictionary<i32, i32>) -> ()
  }) : (i1) -> dictionary<i32, i32>
  func.return %res : dictionary<i32, i32>
}
%customer = sdql.load "datasets/tpch/customer.tbl" : record<"c_custkey" : dictionary<i32, i32>, "c_name" : dictionary<i32, memref<25xi8>>, "c_address" : dictionary<i32, memref<40xi8>>, "c_nationkey" : dictionary<i32, i32>, "c_phone" : dictionary<i32, memref<15xi8>>, "c_acctbal" : dictionary<i32, f64>, "c_mktsegment" : dictionary<i32, memref<10xi8>>, "c_comment" : dictionary<i32, memref<117xi8>>, "size" : i32>
%orders = sdql.load "datasets/tpch/orders.tbl" : record<"o_orderkey" : dictionary<i32, i32>, "o_custkey" : dictionary<i32, i32>, "o_orderstatus" : dictionary<i32, memref<1xi8>>, "o_totalprice" : dictionary<i32, f64>, "o_orderdate" : dictionary<i32, i32>, "o_orderpriority" : dictionary<i32, memref<15xi8>>, "o_clerk" : dictionary<i32, memref<15xi8>>, "o_shippriority" : dictionary<i32, i32>, "o_comment" : dictionary<i32, memref<79xi8>>, "size" : i32>
%lineitem = sdql.load "datasets/tpch/lineitem.tbl" : record<"l_orderkey" : dictionary<i32, i32>, "l_partkey" : dictionary<i32, i32>, "l_suppkey" : dictionary<i32, i32>, "l_linenumber" : dictionary<i32, i32>, "l_quantity" : dictionary<i32, f64>, "l_extendedprice" : dictionary<i32, f64>, "l_discount" : dictionary<i32, f64>, "l_tax" : dictionary<i32, f64>, "l_returnflag" : dictionary<i32, memref<1xi8>>, "l_linestatus" : dictionary<i32, memref<1xi8>>, "l_shipdate" : dictionary<i32, i32>, "l_commitdate" : dictionary<i32, i32>, "l_receiptdate" : dictionary<i32, i32>, "l_shipinstruct" : dictionary<i32, memref<25xi8>>, "l_shipmode" : dictionary<i32, memref<10xi8>>, "l_comment" : dictionary<i32, memref<44xi8>>, "size" : i32>
// BUILDING
%constds_0 = "arith.constant"() <{value = dense<[66, 85, 73, 76, 68, 73, 78, 71]> : memref<?xi8>}> : () -> memref<?xi8>
%consti_1 = "arith.constant"() <{value = 9 : i32}> : () -> i32
%building = sdql.external "ConstantString", %constds_0, %consti_1 : memref<?xi8>, i32 -> memref<8xi8>
%fieldnode_2 = sdql.access_record %customer "size" : record<"c_custkey": dictionary<i32, i32>, "c_name": dictionary<i32, memref<25xi8>>, "c_address": dictionary<i32, memref<40xi8>>, "c_nationkey": dictionary<i32, i32>, "c_phone": dictionary<i32, memref<15xi8>>, "c_acctbal": dictionary<i32, f64>, "c_mktsegment": dictionary<i32, memref<10xi8>>, "c_comment": dictionary<i32, memref<117xi8>>, "size": i32> -> i32
%rangenode_3 = "func.call"(%fieldnode_2) <{callee = @range_builtin}> : (i32) -> dictionary<i32, i32>
%c_h = sdql.sum %rangenode_3 : dictionary<i32, i32> -> dictionary<i32, record<"_" : i32>> {
^bb_4(%i: i32, %_: i32):
  %fieldnode_6 = sdql.access_record %customer "c_custkey" : record<"c_custkey": dictionary<i32, i32>, "c_name": dictionary<i32, memref<25xi8>>, "c_address": dictionary<i32, memref<40xi8>>, "c_nationkey": dictionary<i32, i32>, "c_phone": dictionary<i32, memref<15xi8>>, "c_acctbal": dictionary<i32, f64>, "c_mktsegment": dictionary<i32, memref<10xi8>>, "c_comment": dictionary<i32, memref<117xi8>>, "size": i32> -> dictionary<i32, i32>
  %get_5 = sdql.lookup_dictionary %fieldnode_6 [%i : i32] : dictionary<i32, i32> -> i32
  %fieldnode_8 = sdql.access_record %customer "c_name" : record<"c_custkey": dictionary<i32, i32>, "c_name": dictionary<i32, memref<25xi8>>, "c_address": dictionary<i32, memref<40xi8>>, "c_nationkey": dictionary<i32, i32>, "c_phone": dictionary<i32, memref<15xi8>>, "c_acctbal": dictionary<i32, f64>, "c_mktsegment": dictionary<i32, memref<10xi8>>, "c_comment": dictionary<i32, memref<117xi8>>, "size": i32> -> dictionary<i32, memref<25xi8>>
  %get_7 = sdql.lookup_dictionary %fieldnode_8 [%i : i32] : dictionary<i32, memref<25xi8>> -> memref<25xi8>
  %fieldnode_10 = sdql.access_record %customer "c_address" : record<"c_custkey": dictionary<i32, i32>, "c_name": dictionary<i32, memref<25xi8>>, "c_address": dictionary<i32, memref<40xi8>>, "c_nationkey": dictionary<i32, i32>, "c_phone": dictionary<i32, memref<15xi8>>, "c_acctbal": dictionary<i32, f64>, "c_mktsegment": dictionary<i32, memref<10xi8>>, "c_comment": dictionary<i32, memref<117xi8>>, "size": i32> -> dictionary<i32, memref<40xi8>>
  %get_9 = sdql.lookup_dictionary %fieldnode_10 [%i : i32] : dictionary<i32, memref<40xi8>> -> memref<40xi8>
  %fieldnode_12 = sdql.access_record %customer "c_nationkey" : record<"c_custkey": dictionary<i32, i32>, "c_name": dictionary<i32, memref<25xi8>>, "c_address": dictionary<i32, memref<40xi8>>, "c_nationkey": dictionary<i32, i32>, "c_phone": dictionary<i32, memref<15xi8>>, "c_acctbal": dictionary<i32, f64>, "c_mktsegment": dictionary<i32, memref<10xi8>>, "c_comment": dictionary<i32, memref<117xi8>>, "size": i32> -> dictionary<i32, i32>
  %get_11 = sdql.lookup_dictionary %fieldnode_12 [%i : i32] : dictionary<i32, i32> -> i32
  %fieldnode_14 = sdql.access_record %customer "c_phone" : record<"c_custkey": dictionary<i32, i32>, "c_name": dictionary<i32, memref<25xi8>>, "c_address": dictionary<i32, memref<40xi8>>, "c_nationkey": dictionary<i32, i32>, "c_phone": dictionary<i32, memref<15xi8>>, "c_acctbal": dictionary<i32, f64>, "c_mktsegment": dictionary<i32, memref<10xi8>>, "c_comment": dictionary<i32, memref<117xi8>>, "size": i32> -> dictionary<i32, memref<15xi8>>
  %get_13 = sdql.lookup_dictionary %fieldnode_14 [%i : i32] : dictionary<i32, memref<15xi8>> -> memref<15xi8>
  %fieldnode_16 = sdql.access_record %customer "c_acctbal" : record<"c_custkey": dictionary<i32, i32>, "c_name": dictionary<i32, memref<25xi8>>, "c_address": dictionary<i32, memref<40xi8>>, "c_nationkey": dictionary<i32, i32>, "c_phone": dictionary<i32, memref<15xi8>>, "c_acctbal": dictionary<i32, f64>, "c_mktsegment": dictionary<i32, memref<10xi8>>, "c_comment": dictionary<i32, memref<117xi8>>, "size": i32> -> dictionary<i32, f64>
  %get_15 = sdql.lookup_dictionary %fieldnode_16 [%i : i32] : dictionary<i32, f64> -> f64
  %fieldnode_18 = sdql.access_record %customer "c_mktsegment" : record<"c_custkey": dictionary<i32, i32>, "c_name": dictionary<i32, memref<25xi8>>, "c_address": dictionary<i32, memref<40xi8>>, "c_nationkey": dictionary<i32, i32>, "c_phone": dictionary<i32, memref<15xi8>>, "c_acctbal": dictionary<i32, f64>, "c_mktsegment": dictionary<i32, memref<10xi8>>, "c_comment": dictionary<i32, memref<117xi8>>, "size": i32> -> dictionary<i32, memref<10xi8>>
  %get_17 = sdql.lookup_dictionary %fieldnode_18 [%i : i32] : dictionary<i32, memref<10xi8>> -> memref<10xi8>
  %fieldnode_20 = sdql.access_record %customer "c_comment" : record<"c_custkey": dictionary<i32, i32>, "c_name": dictionary<i32, memref<25xi8>>, "c_address": dictionary<i32, memref<40xi8>>, "c_nationkey": dictionary<i32, i32>, "c_phone": dictionary<i32, memref<15xi8>>, "c_acctbal": dictionary<i32, f64>, "c_mktsegment": dictionary<i32, memref<10xi8>>, "c_comment": dictionary<i32, memref<117xi8>>, "size": i32> -> dictionary<i32, memref<117xi8>>
  %get_19 = sdql.lookup_dictionary %fieldnode_20 [%i : i32] : dictionary<i32, memref<117xi8>> -> memref<117xi8>
  %c = sdql.create_record {fields = ["c_custkey", "c_name", "c_address", "c_nationkey", "c_phone", "c_acctbal", "c_mktsegment", "c_comment"]} %get_5, %get_7, %get_9, %get_11, %get_13, %get_15, %get_17, %get_19 : i32, memref<25xi8>, memref<40xi8>, i32, memref<15xi8>, f64, memref<10xi8>, memref<117xi8> -> record<"c_custkey": i32, "c_name": memref<25xi8>, "c_address": memref<40xi8>, "c_nationkey": i32, "c_phone": memref<15xi8>, "c_acctbal": f64, "c_mktsegment": memref<10xi8>, "c_comment": memref<117xi8>>
  %fieldnode_21 = sdql.access_record %c "c_mktsegment" : record<"c_custkey": i32, "c_name": memref<25xi8>, "c_address": memref<40xi8>, "c_nationkey": i32, "c_phone": memref<15xi8>, "c_acctbal": f64, "c_mktsegment": memref<10xi8>, "c_comment": memref<117xi8>> -> memref<10xi8>
  %cmp_22 = sdql.cmp %fieldnode_21, %building : memref<10xi8>, memref<8xi8> -> i1
  %if_23 = "scf.if"(%cmp_22) ({
    %fieldnode_26 = sdql.access_record %c "c_custkey" : record<"c_custkey": i32, "c_name": memref<25xi8>, "c_address": memref<40xi8>, "c_nationkey": i32, "c_phone": memref<15xi8>, "c_acctbal": f64, "c_mktsegment": memref<10xi8>, "c_comment": memref<117xi8>> -> i32
    %uniq_25 = sdql.unique %fieldnode_26 : i32 -> i32
    %fieldnode_27 = sdql.access_record %c "c_custkey" : record<"c_custkey": i32, "c_name": memref<25xi8>, "c_address": memref<40xi8>, "c_nationkey": i32, "c_phone": memref<15xi8>, "c_acctbal": f64, "c_mktsegment": memref<10xi8>, "c_comment": memref<117xi8>> -> i32
    %recnode_28 = sdql.create_record {fields = ["_"]} %fieldnode_27 : i32 -> record<"_": i32>
    %dict_24 = sdql.create_dictionary %uniq_25, %recnode_28 : i32, record<"_" : i32> -> dictionary<i32, record<"_" : i32>>
    "scf.yield"(%dict_24) : (dictionary<i32, record<"_" : i32>>) -> ()
  }, {
    %dict_29 = sdql.empty_dictionary : dictionary<i32, record<"_" : i32>>
    "scf.yield"(%dict_29) : (dictionary<i32, record<"_" : i32>>) -> ()
  }) : (i1) -> dictionary<i32, record<"_" : i32>>
  sdql.yield %if_23 : dictionary<i32, record<"_" : i32>>
}
%fieldnode_30 = sdql.access_record %orders "size" : record<"o_orderkey": dictionary<i32, i32>, "o_custkey": dictionary<i32, i32>, "o_orderstatus": dictionary<i32, memref<1xi8>>, "o_totalprice": dictionary<i32, f64>, "o_orderdate": dictionary<i32, i32>, "o_orderpriority": dictionary<i32, memref<15xi8>>, "o_clerk": dictionary<i32, memref<15xi8>>, "o_shippriority": dictionary<i32, i32>, "o_comment": dictionary<i32, memref<79xi8>>, "size": i32> -> i32
%rangenode_31 = "func.call"(%fieldnode_30) <{callee = @range_builtin}> : (i32) -> dictionary<i32, i32>
%o_h = sdql.sum %rangenode_31 : dictionary<i32, i32> -> dictionary<i32, record<"_" : i32, "_" : i32>> {
^bb_32(%i: i32, %_: i32):
  %fieldnode_34 = sdql.access_record %orders "o_orderkey" : record<"o_orderkey": dictionary<i32, i32>, "o_custkey": dictionary<i32, i32>, "o_orderstatus": dictionary<i32, memref<1xi8>>, "o_totalprice": dictionary<i32, f64>, "o_orderdate": dictionary<i32, i32>, "o_orderpriority": dictionary<i32, memref<15xi8>>, "o_clerk": dictionary<i32, memref<15xi8>>, "o_shippriority": dictionary<i32, i32>, "o_comment": dictionary<i32, memref<79xi8>>, "size": i32> -> dictionary<i32, i32>
  %get_33 = sdql.lookup_dictionary %fieldnode_34 [%i : i32] : dictionary<i32, i32> -> i32
  %fieldnode_36 = sdql.access_record %orders "o_custkey" : record<"o_orderkey": dictionary<i32, i32>, "o_custkey": dictionary<i32, i32>, "o_orderstatus": dictionary<i32, memref<1xi8>>, "o_totalprice": dictionary<i32, f64>, "o_orderdate": dictionary<i32, i32>, "o_orderpriority": dictionary<i32, memref<15xi8>>, "o_clerk": dictionary<i32, memref<15xi8>>, "o_shippriority": dictionary<i32, i32>, "o_comment": dictionary<i32, memref<79xi8>>, "size": i32> -> dictionary<i32, i32>
  %get_35 = sdql.lookup_dictionary %fieldnode_36 [%i : i32] : dictionary<i32, i32> -> i32
  %fieldnode_38 = sdql.access_record %orders "o_orderstatus" : record<"o_orderkey": dictionary<i32, i32>, "o_custkey": dictionary<i32, i32>, "o_orderstatus": dictionary<i32, memref<1xi8>>, "o_totalprice": dictionary<i32, f64>, "o_orderdate": dictionary<i32, i32>, "o_orderpriority": dictionary<i32, memref<15xi8>>, "o_clerk": dictionary<i32, memref<15xi8>>, "o_shippriority": dictionary<i32, i32>, "o_comment": dictionary<i32, memref<79xi8>>, "size": i32> -> dictionary<i32, memref<1xi8>>
  %get_37 = sdql.lookup_dictionary %fieldnode_38 [%i : i32] : dictionary<i32, memref<1xi8>> -> memref<1xi8>
  %fieldnode_40 = sdql.access_record %orders "o_totalprice" : record<"o_orderkey": dictionary<i32, i32>, "o_custkey": dictionary<i32, i32>, "o_orderstatus": dictionary<i32, memref<1xi8>>, "o_totalprice": dictionary<i32, f64>, "o_orderdate": dictionary<i32, i32>, "o_orderpriority": dictionary<i32, memref<15xi8>>, "o_clerk": dictionary<i32, memref<15xi8>>, "o_shippriority": dictionary<i32, i32>, "o_comment": dictionary<i32, memref<79xi8>>, "size": i32> -> dictionary<i32, f64>
  %get_39 = sdql.lookup_dictionary %fieldnode_40 [%i : i32] : dictionary<i32, f64> -> f64
  %fieldnode_42 = sdql.access_record %orders "o_orderdate" : record<"o_orderkey": dictionary<i32, i32>, "o_custkey": dictionary<i32, i32>, "o_orderstatus": dictionary<i32, memref<1xi8>>, "o_totalprice": dictionary<i32, f64>, "o_orderdate": dictionary<i32, i32>, "o_orderpriority": dictionary<i32, memref<15xi8>>, "o_clerk": dictionary<i32, memref<15xi8>>, "o_shippriority": dictionary<i32, i32>, "o_comment": dictionary<i32, memref<79xi8>>, "size": i32> -> dictionary<i32, i32>
  %get_41 = sdql.lookup_dictionary %fieldnode_42 [%i : i32] : dictionary<i32, i32> -> i32
  %fieldnode_44 = sdql.access_record %orders "o_orderpriority" : record<"o_orderkey": dictionary<i32, i32>, "o_custkey": dictionary<i32, i32>, "o_orderstatus": dictionary<i32, memref<1xi8>>, "o_totalprice": dictionary<i32, f64>, "o_orderdate": dictionary<i32, i32>, "o_orderpriority": dictionary<i32, memref<15xi8>>, "o_clerk": dictionary<i32, memref<15xi8>>, "o_shippriority": dictionary<i32, i32>, "o_comment": dictionary<i32, memref<79xi8>>, "size": i32> -> dictionary<i32, memref<15xi8>>
  %get_43 = sdql.lookup_dictionary %fieldnode_44 [%i : i32] : dictionary<i32, memref<15xi8>> -> memref<15xi8>
  %fieldnode_46 = sdql.access_record %orders "o_clerk" : record<"o_orderkey": dictionary<i32, i32>, "o_custkey": dictionary<i32, i32>, "o_orderstatus": dictionary<i32, memref<1xi8>>, "o_totalprice": dictionary<i32, f64>, "o_orderdate": dictionary<i32, i32>, "o_orderpriority": dictionary<i32, memref<15xi8>>, "o_clerk": dictionary<i32, memref<15xi8>>, "o_shippriority": dictionary<i32, i32>, "o_comment": dictionary<i32, memref<79xi8>>, "size": i32> -> dictionary<i32, memref<15xi8>>
  %get_45 = sdql.lookup_dictionary %fieldnode_46 [%i : i32] : dictionary<i32, memref<15xi8>> -> memref<15xi8>
  %fieldnode_48 = sdql.access_record %orders "o_shippriority" : record<"o_orderkey": dictionary<i32, i32>, "o_custkey": dictionary<i32, i32>, "o_orderstatus": dictionary<i32, memref<1xi8>>, "o_totalprice": dictionary<i32, f64>, "o_orderdate": dictionary<i32, i32>, "o_orderpriority": dictionary<i32, memref<15xi8>>, "o_clerk": dictionary<i32, memref<15xi8>>, "o_shippriority": dictionary<i32, i32>, "o_comment": dictionary<i32, memref<79xi8>>, "size": i32> -> dictionary<i32, i32>
  %get_47 = sdql.lookup_dictionary %fieldnode_48 [%i : i32] : dictionary<i32, i32> -> i32
  %fieldnode_50 = sdql.access_record %orders "o_comment" : record<"o_orderkey": dictionary<i32, i32>, "o_custkey": dictionary<i32, i32>, "o_orderstatus": dictionary<i32, memref<1xi8>>, "o_totalprice": dictionary<i32, f64>, "o_orderdate": dictionary<i32, i32>, "o_orderpriority": dictionary<i32, memref<15xi8>>, "o_clerk": dictionary<i32, memref<15xi8>>, "o_shippriority": dictionary<i32, i32>, "o_comment": dictionary<i32, memref<79xi8>>, "size": i32> -> dictionary<i32, memref<79xi8>>
  %get_49 = sdql.lookup_dictionary %fieldnode_50 [%i : i32] : dictionary<i32, memref<79xi8>> -> memref<79xi8>
  %o = sdql.create_record {fields = ["o_orderkey", "o_custkey", "o_orderstatus", "o_totalprice", "o_orderdate", "o_orderpriority", "o_clerk", "o_shippriority", "o_comment"]} %get_33, %get_35, %get_37, %get_39, %get_41, %get_43, %get_45, %get_47, %get_49 : i32, i32, memref<1xi8>, f64, i32, memref<15xi8>, memref<15xi8>, i32, memref<79xi8> -> record<"o_orderkey": i32, "o_custkey": i32, "o_orderstatus": memref<1xi8>, "o_totalprice": f64, "o_orderdate": i32, "o_orderpriority": memref<15xi8>, "o_clerk": memref<15xi8>, "o_shippriority": i32, "o_comment": memref<79xi8>>
  %fieldnode_51 = sdql.access_record %o "o_orderdate" : record<"o_orderkey": i32, "o_custkey": i32, "o_orderstatus": memref<1xi8>, "o_totalprice": f64, "o_orderdate": i32, "o_orderpriority": memref<15xi8>, "o_clerk": memref<15xi8>, "o_shippriority": i32, "o_comment": memref<79xi8>> -> i32
  %constda_52 = "arith.constant"() <{value = 19950315 : i32}> : () -> i32
  %cmpi_53 = "arith.cmpi"(%fieldnode_51, %constda_52) <{predicate = 2}> : (i32, i32) -> i1
  %if_54 = "scf.if"(%cmpi_53) ({
    %fieldnode_58 = sdql.access_record %o "o_custkey" : record<"o_orderkey": i32, "o_custkey": i32, "o_orderstatus": memref<1xi8>, "o_totalprice": f64, "o_orderdate": i32, "o_orderpriority": memref<15xi8>, "o_clerk": memref<15xi8>, "o_shippriority": i32, "o_comment": memref<79xi8>> -> i32
    %get_57 = sdql.lookup_dictionary %c_h [%fieldnode_58 : i32] : dictionary<i32, record<"_" : i32>> -> record<"_" : i32>
    %dict_59 = sdql.empty_dictionary : record<"_" : i32>
    %cmp_60 = sdql.cmp %get_57, %dict_59 : record<"_" : i32>, record<"_" : i32> -> i1
    %zero_55 = "arith.constant"() <{value = 0 : i1}> : () -> i1
    %neg_56 = "arith.cmpi"(%cmp_60, %zero_55) <{predicate = 0}> : (i1, i1) -> i1
    "scf.yield"(%neg_56) : (i1) -> ()
  }, {
    %constv_61 = "arith.constant"() <{value = 0 : i1}> : () -> i1
    "scf.yield"(%constv_61) : (i1) -> ()
  }) : (i1) -> i1
  %if_62 = "scf.if"(%if_54) ({
    %fieldnode_65 = sdql.access_record %o "o_orderkey" : record<"o_orderkey": i32, "o_custkey": i32, "o_orderstatus": memref<1xi8>, "o_totalprice": f64, "o_orderdate": i32, "o_orderpriority": memref<15xi8>, "o_clerk": memref<15xi8>, "o_shippriority": i32, "o_comment": memref<79xi8>> -> i32
    %uniq_64 = sdql.unique %fieldnode_65 : i32 -> i32
    %fieldnode_66 = sdql.access_record %o "o_orderdate" : record<"o_orderkey": i32, "o_custkey": i32, "o_orderstatus": memref<1xi8>, "o_totalprice": f64, "o_orderdate": i32, "o_orderpriority": memref<15xi8>, "o_clerk": memref<15xi8>, "o_shippriority": i32, "o_comment": memref<79xi8>> -> i32
    %fieldnode_67 = sdql.access_record %o "o_shippriority" : record<"o_orderkey": i32, "o_custkey": i32, "o_orderstatus": memref<1xi8>, "o_totalprice": f64, "o_orderdate": i32, "o_orderpriority": memref<15xi8>, "o_clerk": memref<15xi8>, "o_shippriority": i32, "o_comment": memref<79xi8>> -> i32
    %recnode_68 = sdql.create_record {fields = ["_", "_"]} %fieldnode_66, %fieldnode_67 : i32, i32 -> record<"_": i32, "_": i32>
    %dict_63 = sdql.create_dictionary %uniq_64, %recnode_68 : i32, record<"_" : i32, "_" : i32> -> dictionary<i32, record<"_" : i32, "_" : i32>>
    "scf.yield"(%dict_63) : (dictionary<i32, record<"_" : i32, "_" : i32>>) -> ()
  }, {
    %dict_69 = sdql.empty_dictionary : dictionary<i32, record<"_" : i32, "_" : i32>>
    "scf.yield"(%dict_69) : (dictionary<i32, record<"_" : i32, "_" : i32>>) -> ()
  }) : (i1) -> dictionary<i32, record<"_" : i32, "_" : i32>>
  sdql.yield %if_62 : dictionary<i32, record<"_" : i32, "_" : i32>>
}
%fieldnode_70 = sdql.access_record %lineitem "size" : record<"l_orderkey": dictionary<i32, i32>, "l_partkey": dictionary<i32, i32>, "l_suppkey": dictionary<i32, i32>, "l_linenumber": dictionary<i32, i32>, "l_quantity": dictionary<i32, f64>, "l_extendedprice": dictionary<i32, f64>, "l_discount": dictionary<i32, f64>, "l_tax": dictionary<i32, f64>, "l_returnflag": dictionary<i32, memref<1xi8>>, "l_linestatus": dictionary<i32, memref<1xi8>>, "l_shipdate": dictionary<i32, i32>, "l_commitdate": dictionary<i32, i32>, "l_receiptdate": dictionary<i32, i32>, "l_shipinstruct": dictionary<i32, memref<25xi8>>, "l_shipmode": dictionary<i32, memref<10xi8>>, "l_comment": dictionary<i32, memref<44xi8>>, "size": i32> -> i32
%rangenode_71 = "func.call"(%fieldnode_70) <{callee = @range_builtin}> : (i32) -> dictionary<i32, i32>
%l_h = sdql.sum %rangenode_71 : dictionary<i32, i32> -> dictionary<record<"l_orderkey" : i32, "o_orderdate" : i32, "o_shippriority" : i32>, record<"revenue" : f64>> {
^bb_72(%i: i32, %_: i32):
  %fieldnode_74 = sdql.access_record %lineitem "l_orderkey" : record<"l_orderkey": dictionary<i32, i32>, "l_partkey": dictionary<i32, i32>, "l_suppkey": dictionary<i32, i32>, "l_linenumber": dictionary<i32, i32>, "l_quantity": dictionary<i32, f64>, "l_extendedprice": dictionary<i32, f64>, "l_discount": dictionary<i32, f64>, "l_tax": dictionary<i32, f64>, "l_returnflag": dictionary<i32, memref<1xi8>>, "l_linestatus": dictionary<i32, memref<1xi8>>, "l_shipdate": dictionary<i32, i32>, "l_commitdate": dictionary<i32, i32>, "l_receiptdate": dictionary<i32, i32>, "l_shipinstruct": dictionary<i32, memref<25xi8>>, "l_shipmode": dictionary<i32, memref<10xi8>>, "l_comment": dictionary<i32, memref<44xi8>>, "size": i32> -> dictionary<i32, i32>
  %get_73 = sdql.lookup_dictionary %fieldnode_74 [%i : i32] : dictionary<i32, i32> -> i32
  %fieldnode_76 = sdql.access_record %lineitem "l_partkey" : record<"l_orderkey": dictionary<i32, i32>, "l_partkey": dictionary<i32, i32>, "l_suppkey": dictionary<i32, i32>, "l_linenumber": dictionary<i32, i32>, "l_quantity": dictionary<i32, f64>, "l_extendedprice": dictionary<i32, f64>, "l_discount": dictionary<i32, f64>, "l_tax": dictionary<i32, f64>, "l_returnflag": dictionary<i32, memref<1xi8>>, "l_linestatus": dictionary<i32, memref<1xi8>>, "l_shipdate": dictionary<i32, i32>, "l_commitdate": dictionary<i32, i32>, "l_receiptdate": dictionary<i32, i32>, "l_shipinstruct": dictionary<i32, memref<25xi8>>, "l_shipmode": dictionary<i32, memref<10xi8>>, "l_comment": dictionary<i32, memref<44xi8>>, "size": i32> -> dictionary<i32, i32>
  %get_75 = sdql.lookup_dictionary %fieldnode_76 [%i : i32] : dictionary<i32, i32> -> i32
  %fieldnode_78 = sdql.access_record %lineitem "l_suppkey" : record<"l_orderkey": dictionary<i32, i32>, "l_partkey": dictionary<i32, i32>, "l_suppkey": dictionary<i32, i32>, "l_linenumber": dictionary<i32, i32>, "l_quantity": dictionary<i32, f64>, "l_extendedprice": dictionary<i32, f64>, "l_discount": dictionary<i32, f64>, "l_tax": dictionary<i32, f64>, "l_returnflag": dictionary<i32, memref<1xi8>>, "l_linestatus": dictionary<i32, memref<1xi8>>, "l_shipdate": dictionary<i32, i32>, "l_commitdate": dictionary<i32, i32>, "l_receiptdate": dictionary<i32, i32>, "l_shipinstruct": dictionary<i32, memref<25xi8>>, "l_shipmode": dictionary<i32, memref<10xi8>>, "l_comment": dictionary<i32, memref<44xi8>>, "size": i32> -> dictionary<i32, i32>
  %get_77 = sdql.lookup_dictionary %fieldnode_78 [%i : i32] : dictionary<i32, i32> -> i32
  %fieldnode_80 = sdql.access_record %lineitem "l_linenumber" : record<"l_orderkey": dictionary<i32, i32>, "l_partkey": dictionary<i32, i32>, "l_suppkey": dictionary<i32, i32>, "l_linenumber": dictionary<i32, i32>, "l_quantity": dictionary<i32, f64>, "l_extendedprice": dictionary<i32, f64>, "l_discount": dictionary<i32, f64>, "l_tax": dictionary<i32, f64>, "l_returnflag": dictionary<i32, memref<1xi8>>, "l_linestatus": dictionary<i32, memref<1xi8>>, "l_shipdate": dictionary<i32, i32>, "l_commitdate": dictionary<i32, i32>, "l_receiptdate": dictionary<i32, i32>, "l_shipinstruct": dictionary<i32, memref<25xi8>>, "l_shipmode": dictionary<i32, memref<10xi8>>, "l_comment": dictionary<i32, memref<44xi8>>, "size": i32> -> dictionary<i32, i32>
  %get_79 = sdql.lookup_dictionary %fieldnode_80 [%i : i32] : dictionary<i32, i32> -> i32
  %fieldnode_82 = sdql.access_record %lineitem "l_quantity" : record<"l_orderkey": dictionary<i32, i32>, "l_partkey": dictionary<i32, i32>, "l_suppkey": dictionary<i32, i32>, "l_linenumber": dictionary<i32, i32>, "l_quantity": dictionary<i32, f64>, "l_extendedprice": dictionary<i32, f64>, "l_discount": dictionary<i32, f64>, "l_tax": dictionary<i32, f64>, "l_returnflag": dictionary<i32, memref<1xi8>>, "l_linestatus": dictionary<i32, memref<1xi8>>, "l_shipdate": dictionary<i32, i32>, "l_commitdate": dictionary<i32, i32>, "l_receiptdate": dictionary<i32, i32>, "l_shipinstruct": dictionary<i32, memref<25xi8>>, "l_shipmode": dictionary<i32, memref<10xi8>>, "l_comment": dictionary<i32, memref<44xi8>>, "size": i32> -> dictionary<i32, f64>
  %get_81 = sdql.lookup_dictionary %fieldnode_82 [%i : i32] : dictionary<i32, f64> -> f64
  %fieldnode_84 = sdql.access_record %lineitem "l_extendedprice" : record<"l_orderkey": dictionary<i32, i32>, "l_partkey": dictionary<i32, i32>, "l_suppkey": dictionary<i32, i32>, "l_linenumber": dictionary<i32, i32>, "l_quantity": dictionary<i32, f64>, "l_extendedprice": dictionary<i32, f64>, "l_discount": dictionary<i32, f64>, "l_tax": dictionary<i32, f64>, "l_returnflag": dictionary<i32, memref<1xi8>>, "l_linestatus": dictionary<i32, memref<1xi8>>, "l_shipdate": dictionary<i32, i32>, "l_commitdate": dictionary<i32, i32>, "l_receiptdate": dictionary<i32, i32>, "l_shipinstruct": dictionary<i32, memref<25xi8>>, "l_shipmode": dictionary<i32, memref<10xi8>>, "l_comment": dictionary<i32, memref<44xi8>>, "size": i32> -> dictionary<i32, f64>
  %get_83 = sdql.lookup_dictionary %fieldnode_84 [%i : i32] : dictionary<i32, f64> -> f64
  %fieldnode_86 = sdql.access_record %lineitem "l_discount" : record<"l_orderkey": dictionary<i32, i32>, "l_partkey": dictionary<i32, i32>, "l_suppkey": dictionary<i32, i32>, "l_linenumber": dictionary<i32, i32>, "l_quantity": dictionary<i32, f64>, "l_extendedprice": dictionary<i32, f64>, "l_discount": dictionary<i32, f64>, "l_tax": dictionary<i32, f64>, "l_returnflag": dictionary<i32, memref<1xi8>>, "l_linestatus": dictionary<i32, memref<1xi8>>, "l_shipdate": dictionary<i32, i32>, "l_commitdate": dictionary<i32, i32>, "l_receiptdate": dictionary<i32, i32>, "l_shipinstruct": dictionary<i32, memref<25xi8>>, "l_shipmode": dictionary<i32, memref<10xi8>>, "l_comment": dictionary<i32, memref<44xi8>>, "size": i32> -> dictionary<i32, f64>
  %get_85 = sdql.lookup_dictionary %fieldnode_86 [%i : i32] : dictionary<i32, f64> -> f64
  %fieldnode_88 = sdql.access_record %lineitem "l_tax" : record<"l_orderkey": dictionary<i32, i32>, "l_partkey": dictionary<i32, i32>, "l_suppkey": dictionary<i32, i32>, "l_linenumber": dictionary<i32, i32>, "l_quantity": dictionary<i32, f64>, "l_extendedprice": dictionary<i32, f64>, "l_discount": dictionary<i32, f64>, "l_tax": dictionary<i32, f64>, "l_returnflag": dictionary<i32, memref<1xi8>>, "l_linestatus": dictionary<i32, memref<1xi8>>, "l_shipdate": dictionary<i32, i32>, "l_commitdate": dictionary<i32, i32>, "l_receiptdate": dictionary<i32, i32>, "l_shipinstruct": dictionary<i32, memref<25xi8>>, "l_shipmode": dictionary<i32, memref<10xi8>>, "l_comment": dictionary<i32, memref<44xi8>>, "size": i32> -> dictionary<i32, f64>
  %get_87 = sdql.lookup_dictionary %fieldnode_88 [%i : i32] : dictionary<i32, f64> -> f64
  %fieldnode_90 = sdql.access_record %lineitem "l_returnflag" : record<"l_orderkey": dictionary<i32, i32>, "l_partkey": dictionary<i32, i32>, "l_suppkey": dictionary<i32, i32>, "l_linenumber": dictionary<i32, i32>, "l_quantity": dictionary<i32, f64>, "l_extendedprice": dictionary<i32, f64>, "l_discount": dictionary<i32, f64>, "l_tax": dictionary<i32, f64>, "l_returnflag": dictionary<i32, memref<1xi8>>, "l_linestatus": dictionary<i32, memref<1xi8>>, "l_shipdate": dictionary<i32, i32>, "l_commitdate": dictionary<i32, i32>, "l_receiptdate": dictionary<i32, i32>, "l_shipinstruct": dictionary<i32, memref<25xi8>>, "l_shipmode": dictionary<i32, memref<10xi8>>, "l_comment": dictionary<i32, memref<44xi8>>, "size": i32> -> dictionary<i32, memref<1xi8>>
  %get_89 = sdql.lookup_dictionary %fieldnode_90 [%i : i32] : dictionary<i32, memref<1xi8>> -> memref<1xi8>
  %fieldnode_92 = sdql.access_record %lineitem "l_linestatus" : record<"l_orderkey": dictionary<i32, i32>, "l_partkey": dictionary<i32, i32>, "l_suppkey": dictionary<i32, i32>, "l_linenumber": dictionary<i32, i32>, "l_quantity": dictionary<i32, f64>, "l_extendedprice": dictionary<i32, f64>, "l_discount": dictionary<i32, f64>, "l_tax": dictionary<i32, f64>, "l_returnflag": dictionary<i32, memref<1xi8>>, "l_linestatus": dictionary<i32, memref<1xi8>>, "l_shipdate": dictionary<i32, i32>, "l_commitdate": dictionary<i32, i32>, "l_receiptdate": dictionary<i32, i32>, "l_shipinstruct": dictionary<i32, memref<25xi8>>, "l_shipmode": dictionary<i32, memref<10xi8>>, "l_comment": dictionary<i32, memref<44xi8>>, "size": i32> -> dictionary<i32, memref<1xi8>>
  %get_91 = sdql.lookup_dictionary %fieldnode_92 [%i : i32] : dictionary<i32, memref<1xi8>> -> memref<1xi8>
  %fieldnode_94 = sdql.access_record %lineitem "l_shipdate" : record<"l_orderkey": dictionary<i32, i32>, "l_partkey": dictionary<i32, i32>, "l_suppkey": dictionary<i32, i32>, "l_linenumber": dictionary<i32, i32>, "l_quantity": dictionary<i32, f64>, "l_extendedprice": dictionary<i32, f64>, "l_discount": dictionary<i32, f64>, "l_tax": dictionary<i32, f64>, "l_returnflag": dictionary<i32, memref<1xi8>>, "l_linestatus": dictionary<i32, memref<1xi8>>, "l_shipdate": dictionary<i32, i32>, "l_commitdate": dictionary<i32, i32>, "l_receiptdate": dictionary<i32, i32>, "l_shipinstruct": dictionary<i32, memref<25xi8>>, "l_shipmode": dictionary<i32, memref<10xi8>>, "l_comment": dictionary<i32, memref<44xi8>>, "size": i32> -> dictionary<i32, i32>
  %get_93 = sdql.lookup_dictionary %fieldnode_94 [%i : i32] : dictionary<i32, i32> -> i32
  %fieldnode_96 = sdql.access_record %lineitem "l_commitdate" : record<"l_orderkey": dictionary<i32, i32>, "l_partkey": dictionary<i32, i32>, "l_suppkey": dictionary<i32, i32>, "l_linenumber": dictionary<i32, i32>, "l_quantity": dictionary<i32, f64>, "l_extendedprice": dictionary<i32, f64>, "l_discount": dictionary<i32, f64>, "l_tax": dictionary<i32, f64>, "l_returnflag": dictionary<i32, memref<1xi8>>, "l_linestatus": dictionary<i32, memref<1xi8>>, "l_shipdate": dictionary<i32, i32>, "l_commitdate": dictionary<i32, i32>, "l_receiptdate": dictionary<i32, i32>, "l_shipinstruct": dictionary<i32, memref<25xi8>>, "l_shipmode": dictionary<i32, memref<10xi8>>, "l_comment": dictionary<i32, memref<44xi8>>, "size": i32> -> dictionary<i32, i32>
  %get_95 = sdql.lookup_dictionary %fieldnode_96 [%i : i32] : dictionary<i32, i32> -> i32
  %fieldnode_98 = sdql.access_record %lineitem "l_receiptdate" : record<"l_orderkey": dictionary<i32, i32>, "l_partkey": dictionary<i32, i32>, "l_suppkey": dictionary<i32, i32>, "l_linenumber": dictionary<i32, i32>, "l_quantity": dictionary<i32, f64>, "l_extendedprice": dictionary<i32, f64>, "l_discount": dictionary<i32, f64>, "l_tax": dictionary<i32, f64>, "l_returnflag": dictionary<i32, memref<1xi8>>, "l_linestatus": dictionary<i32, memref<1xi8>>, "l_shipdate": dictionary<i32, i32>, "l_commitdate": dictionary<i32, i32>, "l_receiptdate": dictionary<i32, i32>, "l_shipinstruct": dictionary<i32, memref<25xi8>>, "l_shipmode": dictionary<i32, memref<10xi8>>, "l_comment": dictionary<i32, memref<44xi8>>, "size": i32> -> dictionary<i32, i32>
  %get_97 = sdql.lookup_dictionary %fieldnode_98 [%i : i32] : dictionary<i32, i32> -> i32
  %fieldnode_100 = sdql.access_record %lineitem "l_shipinstruct" : record<"l_orderkey": dictionary<i32, i32>, "l_partkey": dictionary<i32, i32>, "l_suppkey": dictionary<i32, i32>, "l_linenumber": dictionary<i32, i32>, "l_quantity": dictionary<i32, f64>, "l_extendedprice": dictionary<i32, f64>, "l_discount": dictionary<i32, f64>, "l_tax": dictionary<i32, f64>, "l_returnflag": dictionary<i32, memref<1xi8>>, "l_linestatus": dictionary<i32, memref<1xi8>>, "l_shipdate": dictionary<i32, i32>, "l_commitdate": dictionary<i32, i32>, "l_receiptdate": dictionary<i32, i32>, "l_shipinstruct": dictionary<i32, memref<25xi8>>, "l_shipmode": dictionary<i32, memref<10xi8>>, "l_comment": dictionary<i32, memref<44xi8>>, "size": i32> -> dictionary<i32, memref<25xi8>>
  %get_99 = sdql.lookup_dictionary %fieldnode_100 [%i : i32] : dictionary<i32, memref<25xi8>> -> memref<25xi8>
  %fieldnode_102 = sdql.access_record %lineitem "l_shipmode" : record<"l_orderkey": dictionary<i32, i32>, "l_partkey": dictionary<i32, i32>, "l_suppkey": dictionary<i32, i32>, "l_linenumber": dictionary<i32, i32>, "l_quantity": dictionary<i32, f64>, "l_extendedprice": dictionary<i32, f64>, "l_discount": dictionary<i32, f64>, "l_tax": dictionary<i32, f64>, "l_returnflag": dictionary<i32, memref<1xi8>>, "l_linestatus": dictionary<i32, memref<1xi8>>, "l_shipdate": dictionary<i32, i32>, "l_commitdate": dictionary<i32, i32>, "l_receiptdate": dictionary<i32, i32>, "l_shipinstruct": dictionary<i32, memref<25xi8>>, "l_shipmode": dictionary<i32, memref<10xi8>>, "l_comment": dictionary<i32, memref<44xi8>>, "size": i32> -> dictionary<i32, memref<10xi8>>
  %get_101 = sdql.lookup_dictionary %fieldnode_102 [%i : i32] : dictionary<i32, memref<10xi8>> -> memref<10xi8>
  %fieldnode_104 = sdql.access_record %lineitem "l_comment" : record<"l_orderkey": dictionary<i32, i32>, "l_partkey": dictionary<i32, i32>, "l_suppkey": dictionary<i32, i32>, "l_linenumber": dictionary<i32, i32>, "l_quantity": dictionary<i32, f64>, "l_extendedprice": dictionary<i32, f64>, "l_discount": dictionary<i32, f64>, "l_tax": dictionary<i32, f64>, "l_returnflag": dictionary<i32, memref<1xi8>>, "l_linestatus": dictionary<i32, memref<1xi8>>, "l_shipdate": dictionary<i32, i32>, "l_commitdate": dictionary<i32, i32>, "l_receiptdate": dictionary<i32, i32>, "l_shipinstruct": dictionary<i32, memref<25xi8>>, "l_shipmode": dictionary<i32, memref<10xi8>>, "l_comment": dictionary<i32, memref<44xi8>>, "size": i32> -> dictionary<i32, memref<44xi8>>
  %get_103 = sdql.lookup_dictionary %fieldnode_104 [%i : i32] : dictionary<i32, memref<44xi8>> -> memref<44xi8>
  %l = sdql.create_record {fields = ["l_orderkey", "l_partkey", "l_suppkey", "l_linenumber", "l_quantity", "l_extendedprice", "l_discount", "l_tax", "l_returnflag", "l_linestatus", "l_shipdate", "l_commitdate", "l_receiptdate", "l_shipinstruct", "l_shipmode", "l_comment"]} %get_73, %get_75, %get_77, %get_79, %get_81, %get_83, %get_85, %get_87, %get_89, %get_91, %get_93, %get_95, %get_97, %get_99, %get_101, %get_103 : i32, i32, i32, i32, f64, f64, f64, f64, memref<1xi8>, memref<1xi8>, i32, i32, i32, memref<25xi8>, memref<10xi8>, memref<44xi8> -> record<"l_orderkey": i32, "l_partkey": i32, "l_suppkey": i32, "l_linenumber": i32, "l_quantity": f64, "l_extendedprice": f64, "l_discount": f64, "l_tax": f64, "l_returnflag": memref<1xi8>, "l_linestatus": memref<1xi8>, "l_shipdate": i32, "l_commitdate": i32, "l_receiptdate": i32, "l_shipinstruct": memref<25xi8>, "l_shipmode": memref<10xi8>, "l_comment": memref<44xi8>>
  %constda_105 = "arith.constant"() <{value = 19950315 : i32}> : () -> i32
  %fieldnode_106 = sdql.access_record %l "l_shipdate" : record<"l_orderkey": i32, "l_partkey": i32, "l_suppkey": i32, "l_linenumber": i32, "l_quantity": f64, "l_extendedprice": f64, "l_discount": f64, "l_tax": f64, "l_returnflag": memref<1xi8>, "l_linestatus": memref<1xi8>, "l_shipdate": i32, "l_commitdate": i32, "l_receiptdate": i32, "l_shipinstruct": memref<25xi8>, "l_shipmode": memref<10xi8>, "l_comment": memref<44xi8>> -> i32
  %cmpi_107 = "arith.cmpi"(%constda_105, %fieldnode_106) <{predicate = 2}> : (i32, i32) -> i1
  %if_108 = "scf.if"(%cmpi_107) ({
    %fieldnode_112 = sdql.access_record %l "l_orderkey" : record<"l_orderkey": i32, "l_partkey": i32, "l_suppkey": i32, "l_linenumber": i32, "l_quantity": f64, "l_extendedprice": f64, "l_discount": f64, "l_tax": f64, "l_returnflag": memref<1xi8>, "l_linestatus": memref<1xi8>, "l_shipdate": i32, "l_commitdate": i32, "l_receiptdate": i32, "l_shipinstruct": memref<25xi8>, "l_shipmode": memref<10xi8>, "l_comment": memref<44xi8>> -> i32
    %get_111 = sdql.lookup_dictionary %o_h [%fieldnode_112 : i32] : dictionary<i32, record<"_" : i32, "_" : i32>> -> record<"_" : i32, "_" : i32>
    %dict_113 = sdql.empty_dictionary : record<"_" : i32, "_" : i32>
    %cmp_114 = sdql.cmp %get_111, %dict_113 : record<"_" : i32, "_" : i32>, record<"_" : i32, "_" : i32> -> i1
    %zero_109 = "arith.constant"() <{value = 0 : i1}> : () -> i1
    %neg_110 = "arith.cmpi"(%cmp_114, %zero_109) <{predicate = 0}> : (i1, i1) -> i1
    "scf.yield"(%neg_110) : (i1) -> ()
  }, {
    %constv_115 = "arith.constant"() <{value = 0 : i1}> : () -> i1
    "scf.yield"(%constv_115) : (i1) -> ()
  }) : (i1) -> i1
  %if_116 = "scf.if"(%if_108) ({
    %fieldnode_118 = sdql.access_record %l "l_orderkey" : record<"l_orderkey": i32, "l_partkey": i32, "l_suppkey": i32, "l_linenumber": i32, "l_quantity": f64, "l_extendedprice": f64, "l_discount": f64, "l_tax": f64, "l_returnflag": memref<1xi8>, "l_linestatus": memref<1xi8>, "l_shipdate": i32, "l_commitdate": i32, "l_receiptdate": i32, "l_shipinstruct": memref<25xi8>, "l_shipmode": memref<10xi8>, "l_comment": memref<44xi8>> -> i32
    %fieldnode_121 = sdql.access_record %l "l_orderkey" : record<"l_orderkey": i32, "l_partkey": i32, "l_suppkey": i32, "l_linenumber": i32, "l_quantity": f64, "l_extendedprice": f64, "l_discount": f64, "l_tax": f64, "l_returnflag": memref<1xi8>, "l_linestatus": memref<1xi8>, "l_shipdate": i32, "l_commitdate": i32, "l_receiptdate": i32, "l_shipinstruct": memref<25xi8>, "l_shipmode": memref<10xi8>, "l_comment": memref<44xi8>> -> i32
    %get_120 = sdql.lookup_dictionary %o_h [%fieldnode_121 : i32] : dictionary<i32, record<"_" : i32, "_" : i32>> -> record<"_" : i32, "_" : i32>
    %consti_122 = "arith.constant"() <{value = 0 : i32}> : () -> i32
    %get_119 = sdql.access_record %get_120 "%consti_122" : record<"_" : i32, "_" : i32> -> i32
    %fieldnode_125 = sdql.access_record %l "l_orderkey" : record<"l_orderkey": i32, "l_partkey": i32, "l_suppkey": i32, "l_linenumber": i32, "l_quantity": f64, "l_extendedprice": f64, "l_discount": f64, "l_tax": f64, "l_returnflag": memref<1xi8>, "l_linestatus": memref<1xi8>, "l_shipdate": i32, "l_commitdate": i32, "l_receiptdate": i32, "l_shipinstruct": memref<25xi8>, "l_shipmode": memref<10xi8>, "l_comment": memref<44xi8>> -> i32
    %get_124 = sdql.lookup_dictionary %o_h [%fieldnode_125 : i32] : dictionary<i32, record<"_" : i32, "_" : i32>> -> record<"_" : i32, "_" : i32>
    %consti_126 = "arith.constant"() <{value = 1 : i32}> : () -> i32
    %get_123 = sdql.access_record %get_124 "%consti_126" : record<"_" : i32, "_" : i32> -> i32
    %recnode_127 = sdql.create_record {fields = ["l_orderkey", "o_orderdate", "o_shippriority"]} %fieldnode_118, %get_119, %get_123 : i32, i32, i32 -> record<"l_orderkey": i32, "o_orderdate": i32, "o_shippriority": i32>
    %fieldnode_129 = sdql.access_record %l "l_extendedprice" : record<"l_orderkey": i32, "l_partkey": i32, "l_suppkey": i32, "l_linenumber": i32, "l_quantity": f64, "l_extendedprice": f64, "l_discount": f64, "l_tax": f64, "l_returnflag": memref<1xi8>, "l_linestatus": memref<1xi8>, "l_shipdate": i32, "l_commitdate": i32, "l_receiptdate": i32, "l_shipinstruct": memref<25xi8>, "l_shipmode": memref<10xi8>, "l_comment": memref<44xi8>> -> f64
    %consti_131 = "arith.constant"() <{value = 1 : i32}> : () -> i32
    %fieldnode_133 = sdql.access_record %l "l_discount" : record<"l_orderkey": i32, "l_partkey": i32, "l_suppkey": i32, "l_linenumber": i32, "l_quantity": f64, "l_extendedprice": f64, "l_discount": f64, "l_tax": f64, "l_returnflag": memref<1xi8>, "l_linestatus": memref<1xi8>, "l_shipdate": i32, "l_commitdate": i32, "l_receiptdate": i32, "l_shipinstruct": memref<25xi8>, "l_shipmode": memref<10xi8>, "l_comment": memref<44xi8>> -> f64
    %zero_134 = "arith.constant"() <{value = 0.0 : f64}> : () -> f64
    %negf_132 = "arith.subf"(%zero_134, %fieldnode_133) <{fastmath = #arith.fastmath<none>}> : (f64, f64) -> f64
    %sitofp_135 = "arith.sitofp"(%consti_131) : (i32) -> f64
    %addf_130 = "arith.addf"(%sitofp_135, %negf_132) <{fastmath = #arith.fastmath<none>}> : (f64, f64) -> f64
    %multf_128 = "arith.mulf"(%fieldnode_129, %addf_130) <{fastmath = #arith.fastmath<none>}> : (f64, f64) -> f64
    %recnode_136 = sdql.create_record {fields = ["revenue"]} %multf_128 : f64 -> record<"revenue": f64>
    %dict_117 = sdql.create_dictionary %recnode_127, %recnode_136 : record<"l_orderkey" : i32, "o_orderdate" : i32, "o_shippriority" : i32>, record<"revenue" : f64> -> dictionary<record<"l_orderkey" : i32, "o_orderdate" : i32, "o_shippriority" : i32>, record<"revenue" : f64>>
    "scf.yield"(%dict_117) : (dictionary<record<"l_orderkey" : i32, "o_orderdate" : i32, "o_shippriority" : i32>, record<"revenue" : f64>>) -> ()
  }, {
    %dict_137 = sdql.empty_dictionary : dictionary<record<"l_orderkey" : i32, "o_orderdate" : i32, "o_shippriority" : i32>, record<"revenue" : f64>>
    "scf.yield"(%dict_137) : (dictionary<record<"l_orderkey" : i32, "o_orderdate" : i32, "o_shippriority" : i32>, record<"revenue" : f64>>) -> ()
  }) : (i1) -> dictionary<record<"l_orderkey" : i32, "o_orderdate" : i32, "o_shippriority" : i32>, record<"revenue" : f64>>
  sdql.yield %if_116 : dictionary<record<"l_orderkey" : i32, "o_orderdate" : i32, "o_shippriority" : i32>, record<"revenue" : f64>>
}
%sum_138 = sdql.sum %l_h : dictionary<record<"l_orderkey" : i32, "o_orderdate" : i32, "o_shippriority" : i32>, record<"revenue" : f64>> -> dictionary<record<"l_orderkey" : i32, "o_orderdate" : i32, "o_shippriority" : i32, "revenue" : f64>, i32> {
^bb_139(%k: record<"l_orderkey" : i32, "o_orderdate" : i32, "o_shippriority" : i32>, %v: record<"revenue" : f64>):
  %concat_142 = sdql.concat %k, %v : record<"l_orderkey" : i32, "o_orderdate" : i32, "o_shippriority" : i32>, record<"revenue" : f64> -> record<"l_orderkey" : i32, "o_orderdate" : i32, "o_shippriority" : i32, "revenue" : f64>
  %uniq_141 = sdql.unique %concat_142 : record<"l_orderkey" : i32, "o_orderdate" : i32, "o_shippriority" : i32, "revenue" : f64> -> record<"l_orderkey" : i32, "o_orderdate" : i32, "o_shippriority" : i32, "revenue" : f64>
  %consti_143 = "arith.constant"() <{value = 1 : i32}> : () -> i32
  %dict_140 = sdql.create_dictionary %uniq_141, %consti_143 : record<"l_orderkey" : i32, "o_orderdate" : i32, "o_shippriority" : i32, "revenue" : f64>, i32 -> dictionary<record<"l_orderkey" : i32, "o_orderdate" : i32, "o_shippriority" : i32, "revenue" : f64>, i32>
  sdql.yield %dict_140 : dictionary<record<"l_orderkey" : i32, "o_orderdate" : i32, "o_shippriority" : i32, "revenue" : f64>, i32>
}
