func.func @range_builtin(%n: i32) -> dictionary<i32, i32> {
  %zero = "arith.constant"() <{value = 0}> : () -> i32
  %is_terminal = "arith.cmpi"(%n, %zero) <{"predicate" = 3}> : (i32, i32) -> i1
  %res = "scf.if"(%is_terminal) ({
    %empty = sdql.empty_dictionary : dictionary<i32, i32>
    "scf.yield"(%empty) : (dictionary<i32, i32>) -> ()
  }, {
    %one = "arith.constant"() <{value = 1}> : () -> i32
    %smaller_n = "arith.subi"(%n, %one) : (i32, i32) -> i32
    %prev_range = "func.call"(%smaller_n) <{callee = @range}> : (i32) -> dictionary<i32, i32>
    %true = "arith.constant"() <{value = 1}> : () -> i32
    %extension = sdql.create_dictionary %smaller_n, %true : i32, i32 -> dictionary<i32, i32>

    // return %extension + %prev_range
    %added = sdql.dictionary_add %extension %prev_range : dictionary<i32, i32>, dictionary<i32, i32> -> dictionary<i32, i32>
    "scf.yield"(%added) : (dictionary<i32, i32>) -> ()
  }) : (i1) -> dictionary<i32, i32>
  func.return %res : dictionary<i32, i32>
}
%lineitem = sdql.load "datasets/tpch/lineitem.tbl" : record<"l_orderkey" : dictionary<i32, i32>, "l_partkey" : dictionary<i32, i32>, "l_suppkey" : dictionary<i32, i32>, "l_linenumber" : dictionary<i32, i32>, "l_quantity" : dictionary<i32, f64>, "l_extendedprice" : dictionary<i32, f64>, "l_discount" : dictionary<i32, f64>, "l_tax" : dictionary<i32, f64>, "l_returnflag" : dictionary<i32, memref<1xi8>>, "l_linestatus" : dictionary<i32, memref<1xi8>>, "l_shipdate" : dictionary<i32, i32>, "l_commitdate" : dictionary<i32, i32>, "l_receiptdate" : dictionary<i32, i32>, "l_shipinstruct" : dictionary<i32, memref<25xi8>>, "l_shipmode" : dictionary<i32, memref<10xi8>>, "l_comment" : dictionary<i32, memref<44xi8>>, "size" : i32>
%fieldnode_0 = sdql.access_record %lineitem "size" : record<"l_orderkey": dictionary<i32, i32>, "l_partkey": dictionary<i32, i32>, "l_suppkey": dictionary<i32, i32>, "l_linenumber": dictionary<i32, i32>, "l_quantity": dictionary<i32, f64>, "l_extendedprice": dictionary<i32, f64>, "l_discount": dictionary<i32, f64>, "l_tax": dictionary<i32, f64>, "l_returnflag": dictionary<i32, memref<1xi8>>, "l_linestatus": dictionary<i32, memref<1xi8>>, "l_shipdate": dictionary<i32, i32>, "l_commitdate": dictionary<i32, i32>, "l_receiptdate": dictionary<i32, i32>, "l_shipinstruct": dictionary<i32, memref<25xi8>>, "l_shipmode": dictionary<i32, memref<10xi8>>, "l_comment": dictionary<i32, memref<44xi8>>, "size": i32> -> i32
%rangenode_1 = "func.call"(%fieldnode_0) <{callee = @range_builtin}> : (i32) -> dictionary<i32, i32>
%sum_2 = sdql.sum %rangenode_1 : dictionary<i32, i32> -> f64 {
^bb_3(%i: i32, %_: i32):
  %fieldnode_5 = sdql.access_record %lineitem "l_orderkey" : record<"l_orderkey": dictionary<i32, i32>, "l_partkey": dictionary<i32, i32>, "l_suppkey": dictionary<i32, i32>, "l_linenumber": dictionary<i32, i32>, "l_quantity": dictionary<i32, f64>, "l_extendedprice": dictionary<i32, f64>, "l_discount": dictionary<i32, f64>, "l_tax": dictionary<i32, f64>, "l_returnflag": dictionary<i32, memref<1xi8>>, "l_linestatus": dictionary<i32, memref<1xi8>>, "l_shipdate": dictionary<i32, i32>, "l_commitdate": dictionary<i32, i32>, "l_receiptdate": dictionary<i32, i32>, "l_shipinstruct": dictionary<i32, memref<25xi8>>, "l_shipmode": dictionary<i32, memref<10xi8>>, "l_comment": dictionary<i32, memref<44xi8>>, "size": i32> -> dictionary<i32, i32>
  %get_4 = sdql.lookup_dictionary %fieldnode_5 [%i : i32] : dictionary<i32, i32> -> i32
  %fieldnode_7 = sdql.access_record %lineitem "l_partkey" : record<"l_orderkey": dictionary<i32, i32>, "l_partkey": dictionary<i32, i32>, "l_suppkey": dictionary<i32, i32>, "l_linenumber": dictionary<i32, i32>, "l_quantity": dictionary<i32, f64>, "l_extendedprice": dictionary<i32, f64>, "l_discount": dictionary<i32, f64>, "l_tax": dictionary<i32, f64>, "l_returnflag": dictionary<i32, memref<1xi8>>, "l_linestatus": dictionary<i32, memref<1xi8>>, "l_shipdate": dictionary<i32, i32>, "l_commitdate": dictionary<i32, i32>, "l_receiptdate": dictionary<i32, i32>, "l_shipinstruct": dictionary<i32, memref<25xi8>>, "l_shipmode": dictionary<i32, memref<10xi8>>, "l_comment": dictionary<i32, memref<44xi8>>, "size": i32> -> dictionary<i32, i32>
  %get_6 = sdql.lookup_dictionary %fieldnode_7 [%i : i32] : dictionary<i32, i32> -> i32
  %fieldnode_9 = sdql.access_record %lineitem "l_suppkey" : record<"l_orderkey": dictionary<i32, i32>, "l_partkey": dictionary<i32, i32>, "l_suppkey": dictionary<i32, i32>, "l_linenumber": dictionary<i32, i32>, "l_quantity": dictionary<i32, f64>, "l_extendedprice": dictionary<i32, f64>, "l_discount": dictionary<i32, f64>, "l_tax": dictionary<i32, f64>, "l_returnflag": dictionary<i32, memref<1xi8>>, "l_linestatus": dictionary<i32, memref<1xi8>>, "l_shipdate": dictionary<i32, i32>, "l_commitdate": dictionary<i32, i32>, "l_receiptdate": dictionary<i32, i32>, "l_shipinstruct": dictionary<i32, memref<25xi8>>, "l_shipmode": dictionary<i32, memref<10xi8>>, "l_comment": dictionary<i32, memref<44xi8>>, "size": i32> -> dictionary<i32, i32>
  %get_8 = sdql.lookup_dictionary %fieldnode_9 [%i : i32] : dictionary<i32, i32> -> i32
  %fieldnode_11 = sdql.access_record %lineitem "l_linenumber" : record<"l_orderkey": dictionary<i32, i32>, "l_partkey": dictionary<i32, i32>, "l_suppkey": dictionary<i32, i32>, "l_linenumber": dictionary<i32, i32>, "l_quantity": dictionary<i32, f64>, "l_extendedprice": dictionary<i32, f64>, "l_discount": dictionary<i32, f64>, "l_tax": dictionary<i32, f64>, "l_returnflag": dictionary<i32, memref<1xi8>>, "l_linestatus": dictionary<i32, memref<1xi8>>, "l_shipdate": dictionary<i32, i32>, "l_commitdate": dictionary<i32, i32>, "l_receiptdate": dictionary<i32, i32>, "l_shipinstruct": dictionary<i32, memref<25xi8>>, "l_shipmode": dictionary<i32, memref<10xi8>>, "l_comment": dictionary<i32, memref<44xi8>>, "size": i32> -> dictionary<i32, i32>
  %get_10 = sdql.lookup_dictionary %fieldnode_11 [%i : i32] : dictionary<i32, i32> -> i32
  %fieldnode_13 = sdql.access_record %lineitem "l_quantity" : record<"l_orderkey": dictionary<i32, i32>, "l_partkey": dictionary<i32, i32>, "l_suppkey": dictionary<i32, i32>, "l_linenumber": dictionary<i32, i32>, "l_quantity": dictionary<i32, f64>, "l_extendedprice": dictionary<i32, f64>, "l_discount": dictionary<i32, f64>, "l_tax": dictionary<i32, f64>, "l_returnflag": dictionary<i32, memref<1xi8>>, "l_linestatus": dictionary<i32, memref<1xi8>>, "l_shipdate": dictionary<i32, i32>, "l_commitdate": dictionary<i32, i32>, "l_receiptdate": dictionary<i32, i32>, "l_shipinstruct": dictionary<i32, memref<25xi8>>, "l_shipmode": dictionary<i32, memref<10xi8>>, "l_comment": dictionary<i32, memref<44xi8>>, "size": i32> -> dictionary<i32, f64>
  %get_12 = sdql.lookup_dictionary %fieldnode_13 [%i : i32] : dictionary<i32, f64> -> f64
  %fieldnode_15 = sdql.access_record %lineitem "l_extendedprice" : record<"l_orderkey": dictionary<i32, i32>, "l_partkey": dictionary<i32, i32>, "l_suppkey": dictionary<i32, i32>, "l_linenumber": dictionary<i32, i32>, "l_quantity": dictionary<i32, f64>, "l_extendedprice": dictionary<i32, f64>, "l_discount": dictionary<i32, f64>, "l_tax": dictionary<i32, f64>, "l_returnflag": dictionary<i32, memref<1xi8>>, "l_linestatus": dictionary<i32, memref<1xi8>>, "l_shipdate": dictionary<i32, i32>, "l_commitdate": dictionary<i32, i32>, "l_receiptdate": dictionary<i32, i32>, "l_shipinstruct": dictionary<i32, memref<25xi8>>, "l_shipmode": dictionary<i32, memref<10xi8>>, "l_comment": dictionary<i32, memref<44xi8>>, "size": i32> -> dictionary<i32, f64>
  %get_14 = sdql.lookup_dictionary %fieldnode_15 [%i : i32] : dictionary<i32, f64> -> f64
  %fieldnode_17 = sdql.access_record %lineitem "l_discount" : record<"l_orderkey": dictionary<i32, i32>, "l_partkey": dictionary<i32, i32>, "l_suppkey": dictionary<i32, i32>, "l_linenumber": dictionary<i32, i32>, "l_quantity": dictionary<i32, f64>, "l_extendedprice": dictionary<i32, f64>, "l_discount": dictionary<i32, f64>, "l_tax": dictionary<i32, f64>, "l_returnflag": dictionary<i32, memref<1xi8>>, "l_linestatus": dictionary<i32, memref<1xi8>>, "l_shipdate": dictionary<i32, i32>, "l_commitdate": dictionary<i32, i32>, "l_receiptdate": dictionary<i32, i32>, "l_shipinstruct": dictionary<i32, memref<25xi8>>, "l_shipmode": dictionary<i32, memref<10xi8>>, "l_comment": dictionary<i32, memref<44xi8>>, "size": i32> -> dictionary<i32, f64>
  %get_16 = sdql.lookup_dictionary %fieldnode_17 [%i : i32] : dictionary<i32, f64> -> f64
  %fieldnode_19 = sdql.access_record %lineitem "l_tax" : record<"l_orderkey": dictionary<i32, i32>, "l_partkey": dictionary<i32, i32>, "l_suppkey": dictionary<i32, i32>, "l_linenumber": dictionary<i32, i32>, "l_quantity": dictionary<i32, f64>, "l_extendedprice": dictionary<i32, f64>, "l_discount": dictionary<i32, f64>, "l_tax": dictionary<i32, f64>, "l_returnflag": dictionary<i32, memref<1xi8>>, "l_linestatus": dictionary<i32, memref<1xi8>>, "l_shipdate": dictionary<i32, i32>, "l_commitdate": dictionary<i32, i32>, "l_receiptdate": dictionary<i32, i32>, "l_shipinstruct": dictionary<i32, memref<25xi8>>, "l_shipmode": dictionary<i32, memref<10xi8>>, "l_comment": dictionary<i32, memref<44xi8>>, "size": i32> -> dictionary<i32, f64>
  %get_18 = sdql.lookup_dictionary %fieldnode_19 [%i : i32] : dictionary<i32, f64> -> f64
  %fieldnode_21 = sdql.access_record %lineitem "l_returnflag" : record<"l_orderkey": dictionary<i32, i32>, "l_partkey": dictionary<i32, i32>, "l_suppkey": dictionary<i32, i32>, "l_linenumber": dictionary<i32, i32>, "l_quantity": dictionary<i32, f64>, "l_extendedprice": dictionary<i32, f64>, "l_discount": dictionary<i32, f64>, "l_tax": dictionary<i32, f64>, "l_returnflag": dictionary<i32, memref<1xi8>>, "l_linestatus": dictionary<i32, memref<1xi8>>, "l_shipdate": dictionary<i32, i32>, "l_commitdate": dictionary<i32, i32>, "l_receiptdate": dictionary<i32, i32>, "l_shipinstruct": dictionary<i32, memref<25xi8>>, "l_shipmode": dictionary<i32, memref<10xi8>>, "l_comment": dictionary<i32, memref<44xi8>>, "size": i32> -> dictionary<i32, memref<1xi8>>
  %get_20 = sdql.lookup_dictionary %fieldnode_21 [%i : i32] : dictionary<i32, memref<1xi8>> -> memref<1xi8>
  %fieldnode_23 = sdql.access_record %lineitem "l_linestatus" : record<"l_orderkey": dictionary<i32, i32>, "l_partkey": dictionary<i32, i32>, "l_suppkey": dictionary<i32, i32>, "l_linenumber": dictionary<i32, i32>, "l_quantity": dictionary<i32, f64>, "l_extendedprice": dictionary<i32, f64>, "l_discount": dictionary<i32, f64>, "l_tax": dictionary<i32, f64>, "l_returnflag": dictionary<i32, memref<1xi8>>, "l_linestatus": dictionary<i32, memref<1xi8>>, "l_shipdate": dictionary<i32, i32>, "l_commitdate": dictionary<i32, i32>, "l_receiptdate": dictionary<i32, i32>, "l_shipinstruct": dictionary<i32, memref<25xi8>>, "l_shipmode": dictionary<i32, memref<10xi8>>, "l_comment": dictionary<i32, memref<44xi8>>, "size": i32> -> dictionary<i32, memref<1xi8>>
  %get_22 = sdql.lookup_dictionary %fieldnode_23 [%i : i32] : dictionary<i32, memref<1xi8>> -> memref<1xi8>
  %fieldnode_25 = sdql.access_record %lineitem "l_shipdate" : record<"l_orderkey": dictionary<i32, i32>, "l_partkey": dictionary<i32, i32>, "l_suppkey": dictionary<i32, i32>, "l_linenumber": dictionary<i32, i32>, "l_quantity": dictionary<i32, f64>, "l_extendedprice": dictionary<i32, f64>, "l_discount": dictionary<i32, f64>, "l_tax": dictionary<i32, f64>, "l_returnflag": dictionary<i32, memref<1xi8>>, "l_linestatus": dictionary<i32, memref<1xi8>>, "l_shipdate": dictionary<i32, i32>, "l_commitdate": dictionary<i32, i32>, "l_receiptdate": dictionary<i32, i32>, "l_shipinstruct": dictionary<i32, memref<25xi8>>, "l_shipmode": dictionary<i32, memref<10xi8>>, "l_comment": dictionary<i32, memref<44xi8>>, "size": i32> -> dictionary<i32, i32>
  %get_24 = sdql.lookup_dictionary %fieldnode_25 [%i : i32] : dictionary<i32, i32> -> i32
  %fieldnode_27 = sdql.access_record %lineitem "l_commitdate" : record<"l_orderkey": dictionary<i32, i32>, "l_partkey": dictionary<i32, i32>, "l_suppkey": dictionary<i32, i32>, "l_linenumber": dictionary<i32, i32>, "l_quantity": dictionary<i32, f64>, "l_extendedprice": dictionary<i32, f64>, "l_discount": dictionary<i32, f64>, "l_tax": dictionary<i32, f64>, "l_returnflag": dictionary<i32, memref<1xi8>>, "l_linestatus": dictionary<i32, memref<1xi8>>, "l_shipdate": dictionary<i32, i32>, "l_commitdate": dictionary<i32, i32>, "l_receiptdate": dictionary<i32, i32>, "l_shipinstruct": dictionary<i32, memref<25xi8>>, "l_shipmode": dictionary<i32, memref<10xi8>>, "l_comment": dictionary<i32, memref<44xi8>>, "size": i32> -> dictionary<i32, i32>
  %get_26 = sdql.lookup_dictionary %fieldnode_27 [%i : i32] : dictionary<i32, i32> -> i32
  %fieldnode_29 = sdql.access_record %lineitem "l_receiptdate" : record<"l_orderkey": dictionary<i32, i32>, "l_partkey": dictionary<i32, i32>, "l_suppkey": dictionary<i32, i32>, "l_linenumber": dictionary<i32, i32>, "l_quantity": dictionary<i32, f64>, "l_extendedprice": dictionary<i32, f64>, "l_discount": dictionary<i32, f64>, "l_tax": dictionary<i32, f64>, "l_returnflag": dictionary<i32, memref<1xi8>>, "l_linestatus": dictionary<i32, memref<1xi8>>, "l_shipdate": dictionary<i32, i32>, "l_commitdate": dictionary<i32, i32>, "l_receiptdate": dictionary<i32, i32>, "l_shipinstruct": dictionary<i32, memref<25xi8>>, "l_shipmode": dictionary<i32, memref<10xi8>>, "l_comment": dictionary<i32, memref<44xi8>>, "size": i32> -> dictionary<i32, i32>
  %get_28 = sdql.lookup_dictionary %fieldnode_29 [%i : i32] : dictionary<i32, i32> -> i32
  %fieldnode_31 = sdql.access_record %lineitem "l_shipinstruct" : record<"l_orderkey": dictionary<i32, i32>, "l_partkey": dictionary<i32, i32>, "l_suppkey": dictionary<i32, i32>, "l_linenumber": dictionary<i32, i32>, "l_quantity": dictionary<i32, f64>, "l_extendedprice": dictionary<i32, f64>, "l_discount": dictionary<i32, f64>, "l_tax": dictionary<i32, f64>, "l_returnflag": dictionary<i32, memref<1xi8>>, "l_linestatus": dictionary<i32, memref<1xi8>>, "l_shipdate": dictionary<i32, i32>, "l_commitdate": dictionary<i32, i32>, "l_receiptdate": dictionary<i32, i32>, "l_shipinstruct": dictionary<i32, memref<25xi8>>, "l_shipmode": dictionary<i32, memref<10xi8>>, "l_comment": dictionary<i32, memref<44xi8>>, "size": i32> -> dictionary<i32, memref<25xi8>>
  %get_30 = sdql.lookup_dictionary %fieldnode_31 [%i : i32] : dictionary<i32, memref<25xi8>> -> memref<25xi8>
  %fieldnode_33 = sdql.access_record %lineitem "l_shipmode" : record<"l_orderkey": dictionary<i32, i32>, "l_partkey": dictionary<i32, i32>, "l_suppkey": dictionary<i32, i32>, "l_linenumber": dictionary<i32, i32>, "l_quantity": dictionary<i32, f64>, "l_extendedprice": dictionary<i32, f64>, "l_discount": dictionary<i32, f64>, "l_tax": dictionary<i32, f64>, "l_returnflag": dictionary<i32, memref<1xi8>>, "l_linestatus": dictionary<i32, memref<1xi8>>, "l_shipdate": dictionary<i32, i32>, "l_commitdate": dictionary<i32, i32>, "l_receiptdate": dictionary<i32, i32>, "l_shipinstruct": dictionary<i32, memref<25xi8>>, "l_shipmode": dictionary<i32, memref<10xi8>>, "l_comment": dictionary<i32, memref<44xi8>>, "size": i32> -> dictionary<i32, memref<10xi8>>
  %get_32 = sdql.lookup_dictionary %fieldnode_33 [%i : i32] : dictionary<i32, memref<10xi8>> -> memref<10xi8>
  %fieldnode_35 = sdql.access_record %lineitem "l_comment" : record<"l_orderkey": dictionary<i32, i32>, "l_partkey": dictionary<i32, i32>, "l_suppkey": dictionary<i32, i32>, "l_linenumber": dictionary<i32, i32>, "l_quantity": dictionary<i32, f64>, "l_extendedprice": dictionary<i32, f64>, "l_discount": dictionary<i32, f64>, "l_tax": dictionary<i32, f64>, "l_returnflag": dictionary<i32, memref<1xi8>>, "l_linestatus": dictionary<i32, memref<1xi8>>, "l_shipdate": dictionary<i32, i32>, "l_commitdate": dictionary<i32, i32>, "l_receiptdate": dictionary<i32, i32>, "l_shipinstruct": dictionary<i32, memref<25xi8>>, "l_shipmode": dictionary<i32, memref<10xi8>>, "l_comment": dictionary<i32, memref<44xi8>>, "size": i32> -> dictionary<i32, memref<44xi8>>
  %get_34 = sdql.lookup_dictionary %fieldnode_35 [%i : i32] : dictionary<i32, memref<44xi8>> -> memref<44xi8>
  %l = sdql.create_record {fields = ["l_orderkey", "l_partkey", "l_suppkey", "l_linenumber", "l_quantity", "l_extendedprice", "l_discount", "l_tax", "l_returnflag", "l_linestatus", "l_shipdate", "l_commitdate", "l_receiptdate", "l_shipinstruct", "l_shipmode", "l_comment"]} %get_4, %get_6, %get_8, %get_10, %get_12, %get_14, %get_16, %get_18, %get_20, %get_22, %get_24, %get_26, %get_28, %get_30, %get_32, %get_34 : i32, i32, i32, i32, f64, f64, f64, f64, memref<1xi8>, memref<1xi8>, i32, i32, i32, memref<25xi8>, memref<10xi8>, memref<44xi8> -> record<"l_orderkey": i32, "l_partkey": i32, "l_suppkey": i32, "l_linenumber": i32, "l_quantity": f64, "l_extendedprice": f64, "l_discount": f64, "l_tax": f64, "l_returnflag": memref<1xi8>, "l_linestatus": memref<1xi8>, "l_shipdate": i32, "l_commitdate": i32, "l_receiptdate": i32, "l_shipinstruct": memref<25xi8>, "l_shipmode": memref<10xi8>, "l_comment": memref<44xi8>>
  %constd_36 = "arith.constant"() <{value = 0.05  : f64}> : () -> f64
  %fieldnode_37 = sdql.access_record %l "l_discount" : record<"l_orderkey": i32, "l_partkey": i32, "l_suppkey": i32, "l_linenumber": i32, "l_quantity": f64, "l_extendedprice": f64, "l_discount": f64, "l_tax": f64, "l_returnflag": memref<1xi8>, "l_linestatus": memref<1xi8>, "l_shipdate": i32, "l_commitdate": i32, "l_receiptdate": i32, "l_shipinstruct": memref<25xi8>, "l_shipmode": memref<10xi8>, "l_comment": memref<44xi8>> -> f64
  %cmpf_38 = "arith.cmpf"(%constd_36, %fieldnode_37) <{fastmath = #arith.fastmath<none>, predicate = 5}> : (f64, f64) -> i1
  %if_39 = "scf.if"(%cmpf_38) ({
    %fieldnode_40 = sdql.access_record %l "l_discount" : record<"l_orderkey": i32, "l_partkey": i32, "l_suppkey": i32, "l_linenumber": i32, "l_quantity": f64, "l_extendedprice": f64, "l_discount": f64, "l_tax": f64, "l_returnflag": memref<1xi8>, "l_linestatus": memref<1xi8>, "l_shipdate": i32, "l_commitdate": i32, "l_receiptdate": i32, "l_shipinstruct": memref<25xi8>, "l_shipmode": memref<10xi8>, "l_comment": memref<44xi8>> -> f64
    %constd_41 = "arith.constant"() <{value = 0.07  : f64}> : () -> f64
    %cmpf_42 = "arith.cmpf"(%fieldnode_40, %constd_41) <{fastmath = #arith.fastmath<none>, predicate = 5}> : (f64, f64) -> i1
    "scf.yield"(%cmpf_42) : (i1) -> ()
  }, {
    %constv_43 = "arith.constant"() <{value = 0 : i1}> : () -> i1
    "scf.yield"(%constv_43) : (i1) -> ()
  }) : (i1) -> i1
  %if_44 = "scf.if"(%if_39) ({
    %fieldnode_45 = sdql.access_record %l "l_quantity" : record<"l_orderkey": i32, "l_partkey": i32, "l_suppkey": i32, "l_linenumber": i32, "l_quantity": f64, "l_extendedprice": f64, "l_discount": f64, "l_tax": f64, "l_returnflag": memref<1xi8>, "l_linestatus": memref<1xi8>, "l_shipdate": i32, "l_commitdate": i32, "l_receiptdate": i32, "l_shipinstruct": memref<25xi8>, "l_shipmode": memref<10xi8>, "l_comment": memref<44xi8>> -> f64
    %consti_46 = "arith.constant"() <{value = 24 : i32}> : () -> i32
    %cmpf_47 = "arith.cmpf"(%fieldnode_45, %consti_46) <{fastmath = #arith.fastmath<none>, predicate = 4}> : (f64, i32) -> i1
    "scf.yield"(%cmpf_47) : (i1) -> ()
  }, {
    %constv_48 = "arith.constant"() <{value = 0 : i1}> : () -> i1
    "scf.yield"(%constv_48) : (i1) -> ()
  }) : (i1) -> i1
  %if_49 = "scf.if"(%if_44) ({
    %constda_50 = "arith.constant"() <{value = 19940101 : i32}> : () -> i32
    %fieldnode_51 = sdql.access_record %l "l_shipdate" : record<"l_orderkey": i32, "l_partkey": i32, "l_suppkey": i32, "l_linenumber": i32, "l_quantity": f64, "l_extendedprice": f64, "l_discount": f64, "l_tax": f64, "l_returnflag": memref<1xi8>, "l_linestatus": memref<1xi8>, "l_shipdate": i32, "l_commitdate": i32, "l_receiptdate": i32, "l_shipinstruct": memref<25xi8>, "l_shipmode": memref<10xi8>, "l_comment": memref<44xi8>> -> i32
    %cmpi_52 = "arith.cmpi"(%constda_50, %fieldnode_51) <{predicate = 3}> : (i32, i32) -> i1
    "scf.yield"(%cmpi_52) : (i1) -> ()
  }, {
    %constv_53 = "arith.constant"() <{value = 0 : i1}> : () -> i1
    "scf.yield"(%constv_53) : (i1) -> ()
  }) : (i1) -> i1
  %if_54 = "scf.if"(%if_49) ({
    %fieldnode_55 = sdql.access_record %l "l_shipdate" : record<"l_orderkey": i32, "l_partkey": i32, "l_suppkey": i32, "l_linenumber": i32, "l_quantity": f64, "l_extendedprice": f64, "l_discount": f64, "l_tax": f64, "l_returnflag": memref<1xi8>, "l_linestatus": memref<1xi8>, "l_shipdate": i32, "l_commitdate": i32, "l_receiptdate": i32, "l_shipinstruct": memref<25xi8>, "l_shipmode": memref<10xi8>, "l_comment": memref<44xi8>> -> i32
    %constda_56 = "arith.constant"() <{value = 19950101 : i32}> : () -> i32
    %cmpi_57 = "arith.cmpi"(%fieldnode_55, %constda_56) <{predicate = 2}> : (i32, i32) -> i1
    "scf.yield"(%cmpi_57) : (i1) -> ()
  }, {
    %constv_58 = "arith.constant"() <{value = 0 : i1}> : () -> i1
    "scf.yield"(%constv_58) : (i1) -> ()
  }) : (i1) -> i1
  %if_59 = "scf.if"(%if_54) ({
    %fieldnode_61 = sdql.access_record %l "l_extendedprice" : record<"l_orderkey": i32, "l_partkey": i32, "l_suppkey": i32, "l_linenumber": i32, "l_quantity": f64, "l_extendedprice": f64, "l_discount": f64, "l_tax": f64, "l_returnflag": memref<1xi8>, "l_linestatus": memref<1xi8>, "l_shipdate": i32, "l_commitdate": i32, "l_receiptdate": i32, "l_shipinstruct": memref<25xi8>, "l_shipmode": memref<10xi8>, "l_comment": memref<44xi8>> -> f64
    %fieldnode_62 = sdql.access_record %l "l_discount" : record<"l_orderkey": i32, "l_partkey": i32, "l_suppkey": i32, "l_linenumber": i32, "l_quantity": f64, "l_extendedprice": f64, "l_discount": f64, "l_tax": f64, "l_returnflag": memref<1xi8>, "l_linestatus": memref<1xi8>, "l_shipdate": i32, "l_commitdate": i32, "l_receiptdate": i32, "l_shipinstruct": memref<25xi8>, "l_shipmode": memref<10xi8>, "l_comment": memref<44xi8>> -> f64
    %multf_60 = "arith.mulf"(%fieldnode_61, %fieldnode_62) <{fastmath = #arith.fastmath<none>}> : (f64, f64) -> f64
    "scf.yield"(%multf_60) : (f64) -> ()
  }, {
    %consti_63 = "arith.constant"() <{value = 0 : i32}> : () -> i32
    %sitofp_64 = "arith.sitofp"(%consti_63) : (i32) -> f64
    "scf.yield"(%sitofp_64) : (f64) -> ()
  }) : (i1) -> f64
  sdql.yield %if_59 : f64
}
