func.func @range_builtin(%n: i32) -> dictionary<i32, i32> {
  %zero = "arith.constant"() <{value = 0}> : () -> i32
  %is_terminal = "arith.cmpi"(%n, %zero) <{"predicate" = 3}> : (i32, i32) -> i1
  %res = "scf.if"(%is_terminal) ({
    %empty = sdql.empty_dictionary : dictionary<i32, i32>
    "scf.yield"(%empty) : (dictionary<i32, i32>) -> ()
  }, {
    %one = "arith.constant"() <{value = 1}> : () -> i32
    %smaller_n = "arith.subi"(%n, %one) : (i32, i32) -> i32
    %prev_range = "func.call"(%smaller_n) <{callee = @range}> : (i32) -> dictionary<i32, i32>
    %true = "arith.constant"() <{value = 1}> : () -> i32
    %extension = sdql.create_dictionary %smaller_n, %true : i32, i32 -> dictionary<i32, i32>

    // return %extension + %prev_range
    %added = sdql.dictionary_add %extension %prev_range : dictionary<i32, i32>, dictionary<i32, i32> -> dictionary<i32, i32>
    "scf.yield"(%added) : (dictionary<i32, i32>) -> ()
  }) : (i1) -> dictionary<i32, i32>
  func.return %res : dictionary<i32, i32>
}
%part = sdql.load "datasets/tpch/part.tbl" : record<"p_partkey" : dictionary<i32, i32>, "p_name" : dictionary<i32, memref<55xi8>>, "p_mfgr" : dictionary<i32, memref<25xi8>>, "p_brand" : dictionary<i32, memref<10xi8>>, "p_type" : dictionary<i32, memref<25xi8>>, "p_size" : dictionary<i32, i32>, "p_container" : dictionary<i32, memref<10xi8>>, "p_retailprice" : dictionary<i32, f64>, "p_comment" : dictionary<i32, memref<23xi8>>, "size" : i32>
%supplier = sdql.load "datasets/tpch/supplier.tbl" : record<"s_suppkey" : dictionary<i32, i32>, "s_name" : dictionary<i32, memref<25xi8>>, "s_address" : dictionary<i32, memref<40xi8>>, "s_nationkey" : dictionary<i32, i32>, "s_phone" : dictionary<i32, memref<15xi8>>, "s_acctbal" : dictionary<i32, f64>, "s_comment" : dictionary<i32, memref<101xi8>>, "size" : i32>
%lineitem = sdql.load "datasets/tpch/lineitem.tbl" : record<"l_orderkey" : dictionary<i32, i32>, "l_partkey" : dictionary<i32, i32>, "l_suppkey" : dictionary<i32, i32>, "l_linenumber" : dictionary<i32, i32>, "l_quantity" : dictionary<i32, f64>, "l_extendedprice" : dictionary<i32, f64>, "l_discount" : dictionary<i32, f64>, "l_tax" : dictionary<i32, f64>, "l_returnflag" : dictionary<i32, memref<1xi8>>, "l_linestatus" : dictionary<i32, memref<1xi8>>, "l_shipdate" : dictionary<i32, i32>, "l_commitdate" : dictionary<i32, i32>, "l_receiptdate" : dictionary<i32, i32>, "l_shipinstruct" : dictionary<i32, memref<25xi8>>, "l_shipmode" : dictionary<i32, memref<10xi8>>, "l_comment" : dictionary<i32, memref<44xi8>>, "size" : i32>
%partsupp = sdql.load "datasets/tpch/partsupp.tbl" : record<"ps_partkey" : dictionary<i32, i32>, "ps_suppkey" : dictionary<i32, i32>, "ps_availqty" : dictionary<i32, f64>, "ps_supplycost" : dictionary<i32, f64>, "ps_comment" : dictionary<i32, memref<199xi8>>, "size" : i32>
%orders = sdql.load "datasets/tpch/orders.tbl" : record<"o_orderkey" : dictionary<i32, i32>, "o_custkey" : dictionary<i32, i32>, "o_orderstatus" : dictionary<i32, memref<1xi8>>, "o_totalprice" : dictionary<i32, f64>, "o_orderdate" : dictionary<i32, i32>, "o_orderpriority" : dictionary<i32, memref<15xi8>>, "o_clerk" : dictionary<i32, memref<15xi8>>, "o_shippriority" : dictionary<i32, i32>, "o_comment" : dictionary<i32, memref<79xi8>>, "size" : i32>
%nation = sdql.load "datasets/tpch/nation.tbl" : record<"n_nationkey" : dictionary<i32, i32>, "n_name" : dictionary<i32, memref<25xi8>>, "n_regionkey" : dictionary<i32, i32>, "n_comment" : dictionary<i32, memref<152xi8>>, "size" : i32>
// green
%constds_0 = "arith.constant"() <{value = dense<[103, 114, 101, 101, 110]> : memref<?xi8>}> : () -> memref<?xi8>
%consti_1 = "arith.constant"() <{value = 6 : i32}> : () -> i32
%green = sdql.external "ConstantString", %constds_0, %consti_1 : memref<?xi8>, i32 -> memref<5xi8>
%fieldnode_2 = sdql.access_record %nation "size" : record<"n_nationkey": dictionary<i32, i32>, "n_name": dictionary<i32, memref<25xi8>>, "n_regionkey": dictionary<i32, i32>, "n_comment": dictionary<i32, memref<152xi8>>, "size": i32> -> i32
%rangenode_3 = "func.call"(%fieldnode_2) <{callee = @range_builtin}> : (i32) -> dictionary<i32, i32>
%n_h = sdql.sum %rangenode_3 : dictionary<i32, i32> -> dictionary<i32, record<"_" : memref<25xi8>>> {
^bb_4(%i: i32, %_: i32):
  %fieldnode_6 = sdql.access_record %nation "n_nationkey" : record<"n_nationkey": dictionary<i32, i32>, "n_name": dictionary<i32, memref<25xi8>>, "n_regionkey": dictionary<i32, i32>, "n_comment": dictionary<i32, memref<152xi8>>, "size": i32> -> dictionary<i32, i32>
  %get_5 = sdql.lookup_dictionary %fieldnode_6 [%i : i32] : dictionary<i32, i32> -> i32
  %fieldnode_8 = sdql.access_record %nation "n_name" : record<"n_nationkey": dictionary<i32, i32>, "n_name": dictionary<i32, memref<25xi8>>, "n_regionkey": dictionary<i32, i32>, "n_comment": dictionary<i32, memref<152xi8>>, "size": i32> -> dictionary<i32, memref<25xi8>>
  %get_7 = sdql.lookup_dictionary %fieldnode_8 [%i : i32] : dictionary<i32, memref<25xi8>> -> memref<25xi8>
  %fieldnode_10 = sdql.access_record %nation "n_regionkey" : record<"n_nationkey": dictionary<i32, i32>, "n_name": dictionary<i32, memref<25xi8>>, "n_regionkey": dictionary<i32, i32>, "n_comment": dictionary<i32, memref<152xi8>>, "size": i32> -> dictionary<i32, i32>
  %get_9 = sdql.lookup_dictionary %fieldnode_10 [%i : i32] : dictionary<i32, i32> -> i32
  %fieldnode_12 = sdql.access_record %nation "n_comment" : record<"n_nationkey": dictionary<i32, i32>, "n_name": dictionary<i32, memref<25xi8>>, "n_regionkey": dictionary<i32, i32>, "n_comment": dictionary<i32, memref<152xi8>>, "size": i32> -> dictionary<i32, memref<152xi8>>
  %get_11 = sdql.lookup_dictionary %fieldnode_12 [%i : i32] : dictionary<i32, memref<152xi8>> -> memref<152xi8>
  %n = sdql.create_record {fields = ["n_nationkey", "n_name", "n_regionkey", "n_comment"]} %get_5, %get_7, %get_9, %get_11 : i32, memref<25xi8>, i32, memref<152xi8> -> record<"n_nationkey": i32, "n_name": memref<25xi8>, "n_regionkey": i32, "n_comment": memref<152xi8>>
  %fieldnode_15 = sdql.access_record %n "n_nationkey" : record<"n_nationkey": i32, "n_name": memref<25xi8>, "n_regionkey": i32, "n_comment": memref<152xi8>> -> i32
  %uniq_14 = sdql.unique %fieldnode_15 : i32 -> i32
  %fieldnode_16 = sdql.access_record %n "n_name" : record<"n_nationkey": i32, "n_name": memref<25xi8>, "n_regionkey": i32, "n_comment": memref<152xi8>> -> memref<25xi8>
  %recnode_17 = sdql.create_record {fields = ["_"]} %fieldnode_16 : memref<25xi8> -> record<"_": memref<25xi8>>
  %dict_13 = sdql.create_dictionary %uniq_14, %recnode_17 : i32, record<"_" : memref<25xi8>> -> dictionary<i32, record<"_" : memref<25xi8>>>
  sdql.yield %dict_13 : dictionary<i32, record<"_" : memref<25xi8>>>
}
%fieldnode_18 = sdql.access_record %supplier "size" : record<"s_suppkey": dictionary<i32, i32>, "s_name": dictionary<i32, memref<25xi8>>, "s_address": dictionary<i32, memref<40xi8>>, "s_nationkey": dictionary<i32, i32>, "s_phone": dictionary<i32, memref<15xi8>>, "s_acctbal": dictionary<i32, f64>, "s_comment": dictionary<i32, memref<101xi8>>, "size": i32> -> i32
%rangenode_19 = "func.call"(%fieldnode_18) <{callee = @range_builtin}> : (i32) -> dictionary<i32, i32>
%s_h = sdql.sum %rangenode_19 : dictionary<i32, i32> -> dictionary<i32, memref<25xi8>> {
^bb_20(%i: i32, %_: i32):
  %fieldnode_22 = sdql.access_record %supplier "s_suppkey" : record<"s_suppkey": dictionary<i32, i32>, "s_name": dictionary<i32, memref<25xi8>>, "s_address": dictionary<i32, memref<40xi8>>, "s_nationkey": dictionary<i32, i32>, "s_phone": dictionary<i32, memref<15xi8>>, "s_acctbal": dictionary<i32, f64>, "s_comment": dictionary<i32, memref<101xi8>>, "size": i32> -> dictionary<i32, i32>
  %get_21 = sdql.lookup_dictionary %fieldnode_22 [%i : i32] : dictionary<i32, i32> -> i32
  %fieldnode_24 = sdql.access_record %supplier "s_name" : record<"s_suppkey": dictionary<i32, i32>, "s_name": dictionary<i32, memref<25xi8>>, "s_address": dictionary<i32, memref<40xi8>>, "s_nationkey": dictionary<i32, i32>, "s_phone": dictionary<i32, memref<15xi8>>, "s_acctbal": dictionary<i32, f64>, "s_comment": dictionary<i32, memref<101xi8>>, "size": i32> -> dictionary<i32, memref<25xi8>>
  %get_23 = sdql.lookup_dictionary %fieldnode_24 [%i : i32] : dictionary<i32, memref<25xi8>> -> memref<25xi8>
  %fieldnode_26 = sdql.access_record %supplier "s_address" : record<"s_suppkey": dictionary<i32, i32>, "s_name": dictionary<i32, memref<25xi8>>, "s_address": dictionary<i32, memref<40xi8>>, "s_nationkey": dictionary<i32, i32>, "s_phone": dictionary<i32, memref<15xi8>>, "s_acctbal": dictionary<i32, f64>, "s_comment": dictionary<i32, memref<101xi8>>, "size": i32> -> dictionary<i32, memref<40xi8>>
  %get_25 = sdql.lookup_dictionary %fieldnode_26 [%i : i32] : dictionary<i32, memref<40xi8>> -> memref<40xi8>
  %fieldnode_28 = sdql.access_record %supplier "s_nationkey" : record<"s_suppkey": dictionary<i32, i32>, "s_name": dictionary<i32, memref<25xi8>>, "s_address": dictionary<i32, memref<40xi8>>, "s_nationkey": dictionary<i32, i32>, "s_phone": dictionary<i32, memref<15xi8>>, "s_acctbal": dictionary<i32, f64>, "s_comment": dictionary<i32, memref<101xi8>>, "size": i32> -> dictionary<i32, i32>
  %get_27 = sdql.lookup_dictionary %fieldnode_28 [%i : i32] : dictionary<i32, i32> -> i32
  %fieldnode_30 = sdql.access_record %supplier "s_phone" : record<"s_suppkey": dictionary<i32, i32>, "s_name": dictionary<i32, memref<25xi8>>, "s_address": dictionary<i32, memref<40xi8>>, "s_nationkey": dictionary<i32, i32>, "s_phone": dictionary<i32, memref<15xi8>>, "s_acctbal": dictionary<i32, f64>, "s_comment": dictionary<i32, memref<101xi8>>, "size": i32> -> dictionary<i32, memref<15xi8>>
  %get_29 = sdql.lookup_dictionary %fieldnode_30 [%i : i32] : dictionary<i32, memref<15xi8>> -> memref<15xi8>
  %fieldnode_32 = sdql.access_record %supplier "s_acctbal" : record<"s_suppkey": dictionary<i32, i32>, "s_name": dictionary<i32, memref<25xi8>>, "s_address": dictionary<i32, memref<40xi8>>, "s_nationkey": dictionary<i32, i32>, "s_phone": dictionary<i32, memref<15xi8>>, "s_acctbal": dictionary<i32, f64>, "s_comment": dictionary<i32, memref<101xi8>>, "size": i32> -> dictionary<i32, f64>
  %get_31 = sdql.lookup_dictionary %fieldnode_32 [%i : i32] : dictionary<i32, f64> -> f64
  %fieldnode_34 = sdql.access_record %supplier "s_comment" : record<"s_suppkey": dictionary<i32, i32>, "s_name": dictionary<i32, memref<25xi8>>, "s_address": dictionary<i32, memref<40xi8>>, "s_nationkey": dictionary<i32, i32>, "s_phone": dictionary<i32, memref<15xi8>>, "s_acctbal": dictionary<i32, f64>, "s_comment": dictionary<i32, memref<101xi8>>, "size": i32> -> dictionary<i32, memref<101xi8>>
  %get_33 = sdql.lookup_dictionary %fieldnode_34 [%i : i32] : dictionary<i32, memref<101xi8>> -> memref<101xi8>
  %s = sdql.create_record {fields = ["s_suppkey", "s_name", "s_address", "s_nationkey", "s_phone", "s_acctbal", "s_comment"]} %get_21, %get_23, %get_25, %get_27, %get_29, %get_31, %get_33 : i32, memref<25xi8>, memref<40xi8>, i32, memref<15xi8>, f64, memref<101xi8> -> record<"s_suppkey": i32, "s_name": memref<25xi8>, "s_address": memref<40xi8>, "s_nationkey": i32, "s_phone": memref<15xi8>, "s_acctbal": f64, "s_comment": memref<101xi8>>
  %fieldnode_37 = sdql.access_record %s "s_suppkey" : record<"s_suppkey": i32, "s_name": memref<25xi8>, "s_address": memref<40xi8>, "s_nationkey": i32, "s_phone": memref<15xi8>, "s_acctbal": f64, "s_comment": memref<101xi8>> -> i32
  %uniq_36 = sdql.unique %fieldnode_37 : i32 -> i32
  %fieldnode_40 = sdql.access_record %s "s_nationkey" : record<"s_suppkey": i32, "s_name": memref<25xi8>, "s_address": memref<40xi8>, "s_nationkey": i32, "s_phone": memref<15xi8>, "s_acctbal": f64, "s_comment": memref<101xi8>> -> i32
  %get_39 = sdql.lookup_dictionary %n_h [%fieldnode_40 : i32] : dictionary<i32, record<"_" : memref<25xi8>>> -> record<"_" : memref<25xi8>>
  %consti_41 = "arith.constant"() <{value = 0 : i32}> : () -> i32
  %get_38 = sdql.access_record %get_39 "%consti_41" : record<"_" : memref<25xi8>> -> memref<25xi8>
  %dict_35 = sdql.create_dictionary %uniq_36, %get_38 : i32, memref<25xi8> -> dictionary<i32, memref<25xi8>>
  sdql.yield %dict_35 : dictionary<i32, memref<25xi8>>
}
%fieldnode_42 = sdql.access_record %part "size" : record<"p_partkey": dictionary<i32, i32>, "p_name": dictionary<i32, memref<55xi8>>, "p_mfgr": dictionary<i32, memref<25xi8>>, "p_brand": dictionary<i32, memref<10xi8>>, "p_type": dictionary<i32, memref<25xi8>>, "p_size": dictionary<i32, i32>, "p_container": dictionary<i32, memref<10xi8>>, "p_retailprice": dictionary<i32, f64>, "p_comment": dictionary<i32, memref<23xi8>>, "size": i32> -> i32
%rangenode_43 = "func.call"(%fieldnode_42) <{callee = @range_builtin}> : (i32) -> dictionary<i32, i32>
%p_h = sdql.sum %rangenode_43 : dictionary<i32, i32> -> dictionary<i32, record<"_" : i32>> {
^bb_44(%i: i32, %_: i32):
  %fieldnode_46 = sdql.access_record %part "p_partkey" : record<"p_partkey": dictionary<i32, i32>, "p_name": dictionary<i32, memref<55xi8>>, "p_mfgr": dictionary<i32, memref<25xi8>>, "p_brand": dictionary<i32, memref<10xi8>>, "p_type": dictionary<i32, memref<25xi8>>, "p_size": dictionary<i32, i32>, "p_container": dictionary<i32, memref<10xi8>>, "p_retailprice": dictionary<i32, f64>, "p_comment": dictionary<i32, memref<23xi8>>, "size": i32> -> dictionary<i32, i32>
  %get_45 = sdql.lookup_dictionary %fieldnode_46 [%i : i32] : dictionary<i32, i32> -> i32
  %fieldnode_48 = sdql.access_record %part "p_name" : record<"p_partkey": dictionary<i32, i32>, "p_name": dictionary<i32, memref<55xi8>>, "p_mfgr": dictionary<i32, memref<25xi8>>, "p_brand": dictionary<i32, memref<10xi8>>, "p_type": dictionary<i32, memref<25xi8>>, "p_size": dictionary<i32, i32>, "p_container": dictionary<i32, memref<10xi8>>, "p_retailprice": dictionary<i32, f64>, "p_comment": dictionary<i32, memref<23xi8>>, "size": i32> -> dictionary<i32, memref<55xi8>>
  %get_47 = sdql.lookup_dictionary %fieldnode_48 [%i : i32] : dictionary<i32, memref<55xi8>> -> memref<55xi8>
  %fieldnode_50 = sdql.access_record %part "p_mfgr" : record<"p_partkey": dictionary<i32, i32>, "p_name": dictionary<i32, memref<55xi8>>, "p_mfgr": dictionary<i32, memref<25xi8>>, "p_brand": dictionary<i32, memref<10xi8>>, "p_type": dictionary<i32, memref<25xi8>>, "p_size": dictionary<i32, i32>, "p_container": dictionary<i32, memref<10xi8>>, "p_retailprice": dictionary<i32, f64>, "p_comment": dictionary<i32, memref<23xi8>>, "size": i32> -> dictionary<i32, memref<25xi8>>
  %get_49 = sdql.lookup_dictionary %fieldnode_50 [%i : i32] : dictionary<i32, memref<25xi8>> -> memref<25xi8>
  %fieldnode_52 = sdql.access_record %part "p_brand" : record<"p_partkey": dictionary<i32, i32>, "p_name": dictionary<i32, memref<55xi8>>, "p_mfgr": dictionary<i32, memref<25xi8>>, "p_brand": dictionary<i32, memref<10xi8>>, "p_type": dictionary<i32, memref<25xi8>>, "p_size": dictionary<i32, i32>, "p_container": dictionary<i32, memref<10xi8>>, "p_retailprice": dictionary<i32, f64>, "p_comment": dictionary<i32, memref<23xi8>>, "size": i32> -> dictionary<i32, memref<10xi8>>
  %get_51 = sdql.lookup_dictionary %fieldnode_52 [%i : i32] : dictionary<i32, memref<10xi8>> -> memref<10xi8>
  %fieldnode_54 = sdql.access_record %part "p_type" : record<"p_partkey": dictionary<i32, i32>, "p_name": dictionary<i32, memref<55xi8>>, "p_mfgr": dictionary<i32, memref<25xi8>>, "p_brand": dictionary<i32, memref<10xi8>>, "p_type": dictionary<i32, memref<25xi8>>, "p_size": dictionary<i32, i32>, "p_container": dictionary<i32, memref<10xi8>>, "p_retailprice": dictionary<i32, f64>, "p_comment": dictionary<i32, memref<23xi8>>, "size": i32> -> dictionary<i32, memref<25xi8>>
  %get_53 = sdql.lookup_dictionary %fieldnode_54 [%i : i32] : dictionary<i32, memref<25xi8>> -> memref<25xi8>
  %fieldnode_56 = sdql.access_record %part "p_size" : record<"p_partkey": dictionary<i32, i32>, "p_name": dictionary<i32, memref<55xi8>>, "p_mfgr": dictionary<i32, memref<25xi8>>, "p_brand": dictionary<i32, memref<10xi8>>, "p_type": dictionary<i32, memref<25xi8>>, "p_size": dictionary<i32, i32>, "p_container": dictionary<i32, memref<10xi8>>, "p_retailprice": dictionary<i32, f64>, "p_comment": dictionary<i32, memref<23xi8>>, "size": i32> -> dictionary<i32, i32>
  %get_55 = sdql.lookup_dictionary %fieldnode_56 [%i : i32] : dictionary<i32, i32> -> i32
  %fieldnode_58 = sdql.access_record %part "p_container" : record<"p_partkey": dictionary<i32, i32>, "p_name": dictionary<i32, memref<55xi8>>, "p_mfgr": dictionary<i32, memref<25xi8>>, "p_brand": dictionary<i32, memref<10xi8>>, "p_type": dictionary<i32, memref<25xi8>>, "p_size": dictionary<i32, i32>, "p_container": dictionary<i32, memref<10xi8>>, "p_retailprice": dictionary<i32, f64>, "p_comment": dictionary<i32, memref<23xi8>>, "size": i32> -> dictionary<i32, memref<10xi8>>
  %get_57 = sdql.lookup_dictionary %fieldnode_58 [%i : i32] : dictionary<i32, memref<10xi8>> -> memref<10xi8>
  %fieldnode_60 = sdql.access_record %part "p_retailprice" : record<"p_partkey": dictionary<i32, i32>, "p_name": dictionary<i32, memref<55xi8>>, "p_mfgr": dictionary<i32, memref<25xi8>>, "p_brand": dictionary<i32, memref<10xi8>>, "p_type": dictionary<i32, memref<25xi8>>, "p_size": dictionary<i32, i32>, "p_container": dictionary<i32, memref<10xi8>>, "p_retailprice": dictionary<i32, f64>, "p_comment": dictionary<i32, memref<23xi8>>, "size": i32> -> dictionary<i32, f64>
  %get_59 = sdql.lookup_dictionary %fieldnode_60 [%i : i32] : dictionary<i32, f64> -> f64
  %fieldnode_62 = sdql.access_record %part "p_comment" : record<"p_partkey": dictionary<i32, i32>, "p_name": dictionary<i32, memref<55xi8>>, "p_mfgr": dictionary<i32, memref<25xi8>>, "p_brand": dictionary<i32, memref<10xi8>>, "p_type": dictionary<i32, memref<25xi8>>, "p_size": dictionary<i32, i32>, "p_container": dictionary<i32, memref<10xi8>>, "p_retailprice": dictionary<i32, f64>, "p_comment": dictionary<i32, memref<23xi8>>, "size": i32> -> dictionary<i32, memref<23xi8>>
  %get_61 = sdql.lookup_dictionary %fieldnode_62 [%i : i32] : dictionary<i32, memref<23xi8>> -> memref<23xi8>
  %p = sdql.create_record {fields = ["p_partkey", "p_name", "p_mfgr", "p_brand", "p_type", "p_size", "p_container", "p_retailprice", "p_comment"]} %get_45, %get_47, %get_49, %get_51, %get_53, %get_55, %get_57, %get_59, %get_61 : i32, memref<55xi8>, memref<25xi8>, memref<10xi8>, memref<25xi8>, i32, memref<10xi8>, f64, memref<23xi8> -> record<"p_partkey": i32, "p_name": memref<55xi8>, "p_mfgr": memref<25xi8>, "p_brand": memref<10xi8>, "p_type": memref<25xi8>, "p_size": i32, "p_container": memref<10xi8>, "p_retailprice": f64, "p_comment": memref<23xi8>>
  %fieldnode_63 = sdql.access_record %p "p_name" : record<"p_partkey": i32, "p_name": memref<55xi8>, "p_mfgr": memref<25xi8>, "p_brand": memref<10xi8>, "p_type": memref<25xi8>, "p_size": i32, "p_container": memref<10xi8>, "p_retailprice": f64, "p_comment": memref<23xi8>> -> memref<55xi8>
  %external_64 = sdql.external "StrContains", %fieldnode_63, %green : memref<55xi8>, memref<5xi8> -> i1
  %if_65 = "scf.if"(%external_64) ({
    %fieldnode_68 = sdql.access_record %p "p_partkey" : record<"p_partkey": i32, "p_name": memref<55xi8>, "p_mfgr": memref<25xi8>, "p_brand": memref<10xi8>, "p_type": memref<25xi8>, "p_size": i32, "p_container": memref<10xi8>, "p_retailprice": f64, "p_comment": memref<23xi8>> -> i32
    %uniq_67 = sdql.unique %fieldnode_68 : i32 -> i32
    %fieldnode_69 = sdql.access_record %p "p_partkey" : record<"p_partkey": i32, "p_name": memref<55xi8>, "p_mfgr": memref<25xi8>, "p_brand": memref<10xi8>, "p_type": memref<25xi8>, "p_size": i32, "p_container": memref<10xi8>, "p_retailprice": f64, "p_comment": memref<23xi8>> -> i32
    %recnode_70 = sdql.create_record {fields = ["_"]} %fieldnode_69 : i32 -> record<"_": i32>
    %dict_66 = sdql.create_dictionary %uniq_67, %recnode_70 : i32, record<"_" : i32> -> dictionary<i32, record<"_" : i32>>
    "scf.yield"(%dict_66) : (dictionary<i32, record<"_" : i32>>) -> ()
  }, {
    %dict_71 = sdql.empty_dictionary : dictionary<i32, record<"_" : i32>>
    "scf.yield"(%dict_71) : (dictionary<i32, record<"_" : i32>>) -> ()
  }) : (i1) -> dictionary<i32, record<"_" : i32>>
  sdql.yield %if_65 : dictionary<i32, record<"_" : i32>>
}
%fieldnode_72 = sdql.access_record %partsupp "size" : record<"ps_partkey": dictionary<i32, i32>, "ps_suppkey": dictionary<i32, i32>, "ps_availqty": dictionary<i32, f64>, "ps_supplycost": dictionary<i32, f64>, "ps_comment": dictionary<i32, memref<199xi8>>, "size": i32> -> i32
%rangenode_73 = "func.call"(%fieldnode_72) <{callee = @range_builtin}> : (i32) -> dictionary<i32, i32>
%ps_h = sdql.sum %rangenode_73 : dictionary<i32, i32> -> dictionary<record<"_" : i32, "_" : i32>, record<"_" : memref<25xi8>, "_" : f64>> {
^bb_74(%i: i32, %_: i32):
  %fieldnode_76 = sdql.access_record %partsupp "ps_partkey" : record<"ps_partkey": dictionary<i32, i32>, "ps_suppkey": dictionary<i32, i32>, "ps_availqty": dictionary<i32, f64>, "ps_supplycost": dictionary<i32, f64>, "ps_comment": dictionary<i32, memref<199xi8>>, "size": i32> -> dictionary<i32, i32>
  %get_75 = sdql.lookup_dictionary %fieldnode_76 [%i : i32] : dictionary<i32, i32> -> i32
  %fieldnode_78 = sdql.access_record %partsupp "ps_suppkey" : record<"ps_partkey": dictionary<i32, i32>, "ps_suppkey": dictionary<i32, i32>, "ps_availqty": dictionary<i32, f64>, "ps_supplycost": dictionary<i32, f64>, "ps_comment": dictionary<i32, memref<199xi8>>, "size": i32> -> dictionary<i32, i32>
  %get_77 = sdql.lookup_dictionary %fieldnode_78 [%i : i32] : dictionary<i32, i32> -> i32
  %fieldnode_80 = sdql.access_record %partsupp "ps_availqty" : record<"ps_partkey": dictionary<i32, i32>, "ps_suppkey": dictionary<i32, i32>, "ps_availqty": dictionary<i32, f64>, "ps_supplycost": dictionary<i32, f64>, "ps_comment": dictionary<i32, memref<199xi8>>, "size": i32> -> dictionary<i32, f64>
  %get_79 = sdql.lookup_dictionary %fieldnode_80 [%i : i32] : dictionary<i32, f64> -> f64
  %fieldnode_82 = sdql.access_record %partsupp "ps_supplycost" : record<"ps_partkey": dictionary<i32, i32>, "ps_suppkey": dictionary<i32, i32>, "ps_availqty": dictionary<i32, f64>, "ps_supplycost": dictionary<i32, f64>, "ps_comment": dictionary<i32, memref<199xi8>>, "size": i32> -> dictionary<i32, f64>
  %get_81 = sdql.lookup_dictionary %fieldnode_82 [%i : i32] : dictionary<i32, f64> -> f64
  %fieldnode_84 = sdql.access_record %partsupp "ps_comment" : record<"ps_partkey": dictionary<i32, i32>, "ps_suppkey": dictionary<i32, i32>, "ps_availqty": dictionary<i32, f64>, "ps_supplycost": dictionary<i32, f64>, "ps_comment": dictionary<i32, memref<199xi8>>, "size": i32> -> dictionary<i32, memref<199xi8>>
  %get_83 = sdql.lookup_dictionary %fieldnode_84 [%i : i32] : dictionary<i32, memref<199xi8>> -> memref<199xi8>
  %ps = sdql.create_record {fields = ["ps_partkey", "ps_suppkey", "ps_availqty", "ps_supplycost", "ps_comment"]} %get_75, %get_77, %get_79, %get_81, %get_83 : i32, i32, f64, f64, memref<199xi8> -> record<"ps_partkey": i32, "ps_suppkey": i32, "ps_availqty": f64, "ps_supplycost": f64, "ps_comment": memref<199xi8>>
  %fieldnode_88 = sdql.access_record %ps "ps_partkey" : record<"ps_partkey": i32, "ps_suppkey": i32, "ps_availqty": f64, "ps_supplycost": f64, "ps_comment": memref<199xi8>> -> i32
  %get_87 = sdql.lookup_dictionary %p_h [%fieldnode_88 : i32] : dictionary<i32, record<"_" : i32>> -> record<"_" : i32>
  %dict_89 = sdql.empty_dictionary : record<"_" : i32>
  %cmp_90 = sdql.cmp %get_87, %dict_89 : record<"_" : i32>, record<"_" : i32> -> i1
  %zero_85 = "arith.constant"() <{value = 0 : i1}> : () -> i1
  %neg_86 = "arith.cmpi"(%cmp_90, %zero_85) <{predicate = 0}> : (i1, i1) -> i1
  %if_91 = "scf.if"(%neg_86) ({
    %fieldnode_94 = sdql.access_record %ps "ps_partkey" : record<"ps_partkey": i32, "ps_suppkey": i32, "ps_availqty": f64, "ps_supplycost": f64, "ps_comment": memref<199xi8>> -> i32
    %fieldnode_95 = sdql.access_record %ps "ps_suppkey" : record<"ps_partkey": i32, "ps_suppkey": i32, "ps_availqty": f64, "ps_supplycost": f64, "ps_comment": memref<199xi8>> -> i32
    %recnode_96 = sdql.create_record {fields = ["_", "_"]} %fieldnode_94, %fieldnode_95 : i32, i32 -> record<"_": i32, "_": i32>
    %uniq_93 = sdql.unique %recnode_96 : record<"_" : i32, "_" : i32> -> record<"_" : i32, "_" : i32>
    %fieldnode_98 = sdql.access_record %ps "ps_suppkey" : record<"ps_partkey": i32, "ps_suppkey": i32, "ps_availqty": f64, "ps_supplycost": f64, "ps_comment": memref<199xi8>> -> i32
    %get_97 = sdql.lookup_dictionary %s_h [%fieldnode_98 : i32] : dictionary<i32, memref<25xi8>> -> memref<25xi8>
    %fieldnode_99 = sdql.access_record %ps "ps_supplycost" : record<"ps_partkey": i32, "ps_suppkey": i32, "ps_availqty": f64, "ps_supplycost": f64, "ps_comment": memref<199xi8>> -> f64
    %recnode_100 = sdql.create_record {fields = ["_", "_"]} %get_97, %fieldnode_99 : memref<25xi8>, f64 -> record<"_": memref<25xi8>, "_": f64>
    %dict_92 = sdql.create_dictionary %uniq_93, %recnode_100 : record<"_" : i32, "_" : i32>, record<"_" : memref<25xi8>, "_" : f64> -> dictionary<record<"_" : i32, "_" : i32>, record<"_" : memref<25xi8>, "_" : f64>>
    "scf.yield"(%dict_92) : (dictionary<record<"_" : i32, "_" : i32>, record<"_" : memref<25xi8>, "_" : f64>>) -> ()
  }, {
    %dict_101 = sdql.empty_dictionary : dictionary<record<"_" : i32, "_" : i32>, record<"_" : memref<25xi8>, "_" : f64>>
    "scf.yield"(%dict_101) : (dictionary<record<"_" : i32, "_" : i32>, record<"_" : memref<25xi8>, "_" : f64>>) -> ()
  }) : (i1) -> dictionary<record<"_" : i32, "_" : i32>, record<"_" : memref<25xi8>, "_" : f64>>
  sdql.yield %if_91 : dictionary<record<"_" : i32, "_" : i32>, record<"_" : memref<25xi8>, "_" : f64>>
}
%fieldnode_102 = sdql.access_record %orders "size" : record<"o_orderkey": dictionary<i32, i32>, "o_custkey": dictionary<i32, i32>, "o_orderstatus": dictionary<i32, memref<1xi8>>, "o_totalprice": dictionary<i32, f64>, "o_orderdate": dictionary<i32, i32>, "o_orderpriority": dictionary<i32, memref<15xi8>>, "o_clerk": dictionary<i32, memref<15xi8>>, "o_shippriority": dictionary<i32, i32>, "o_comment": dictionary<i32, memref<79xi8>>, "size": i32> -> i32
%rangenode_103 = "func.call"(%fieldnode_102) <{callee = @range_builtin}> : (i32) -> dictionary<i32, i32>
%o_h = sdql.sum %rangenode_103 : dictionary<i32, i32> -> dictionary<i32, i32> {
^bb_104(%i: i32, %_: i32):
  %fieldnode_106 = sdql.access_record %orders "o_orderkey" : record<"o_orderkey": dictionary<i32, i32>, "o_custkey": dictionary<i32, i32>, "o_orderstatus": dictionary<i32, memref<1xi8>>, "o_totalprice": dictionary<i32, f64>, "o_orderdate": dictionary<i32, i32>, "o_orderpriority": dictionary<i32, memref<15xi8>>, "o_clerk": dictionary<i32, memref<15xi8>>, "o_shippriority": dictionary<i32, i32>, "o_comment": dictionary<i32, memref<79xi8>>, "size": i32> -> dictionary<i32, i32>
  %get_105 = sdql.lookup_dictionary %fieldnode_106 [%i : i32] : dictionary<i32, i32> -> i32
  %fieldnode_108 = sdql.access_record %orders "o_custkey" : record<"o_orderkey": dictionary<i32, i32>, "o_custkey": dictionary<i32, i32>, "o_orderstatus": dictionary<i32, memref<1xi8>>, "o_totalprice": dictionary<i32, f64>, "o_orderdate": dictionary<i32, i32>, "o_orderpriority": dictionary<i32, memref<15xi8>>, "o_clerk": dictionary<i32, memref<15xi8>>, "o_shippriority": dictionary<i32, i32>, "o_comment": dictionary<i32, memref<79xi8>>, "size": i32> -> dictionary<i32, i32>
  %get_107 = sdql.lookup_dictionary %fieldnode_108 [%i : i32] : dictionary<i32, i32> -> i32
  %fieldnode_110 = sdql.access_record %orders "o_orderstatus" : record<"o_orderkey": dictionary<i32, i32>, "o_custkey": dictionary<i32, i32>, "o_orderstatus": dictionary<i32, memref<1xi8>>, "o_totalprice": dictionary<i32, f64>, "o_orderdate": dictionary<i32, i32>, "o_orderpriority": dictionary<i32, memref<15xi8>>, "o_clerk": dictionary<i32, memref<15xi8>>, "o_shippriority": dictionary<i32, i32>, "o_comment": dictionary<i32, memref<79xi8>>, "size": i32> -> dictionary<i32, memref<1xi8>>
  %get_109 = sdql.lookup_dictionary %fieldnode_110 [%i : i32] : dictionary<i32, memref<1xi8>> -> memref<1xi8>
  %fieldnode_112 = sdql.access_record %orders "o_totalprice" : record<"o_orderkey": dictionary<i32, i32>, "o_custkey": dictionary<i32, i32>, "o_orderstatus": dictionary<i32, memref<1xi8>>, "o_totalprice": dictionary<i32, f64>, "o_orderdate": dictionary<i32, i32>, "o_orderpriority": dictionary<i32, memref<15xi8>>, "o_clerk": dictionary<i32, memref<15xi8>>, "o_shippriority": dictionary<i32, i32>, "o_comment": dictionary<i32, memref<79xi8>>, "size": i32> -> dictionary<i32, f64>
  %get_111 = sdql.lookup_dictionary %fieldnode_112 [%i : i32] : dictionary<i32, f64> -> f64
  %fieldnode_114 = sdql.access_record %orders "o_orderdate" : record<"o_orderkey": dictionary<i32, i32>, "o_custkey": dictionary<i32, i32>, "o_orderstatus": dictionary<i32, memref<1xi8>>, "o_totalprice": dictionary<i32, f64>, "o_orderdate": dictionary<i32, i32>, "o_orderpriority": dictionary<i32, memref<15xi8>>, "o_clerk": dictionary<i32, memref<15xi8>>, "o_shippriority": dictionary<i32, i32>, "o_comment": dictionary<i32, memref<79xi8>>, "size": i32> -> dictionary<i32, i32>
  %get_113 = sdql.lookup_dictionary %fieldnode_114 [%i : i32] : dictionary<i32, i32> -> i32
  %fieldnode_116 = sdql.access_record %orders "o_orderpriority" : record<"o_orderkey": dictionary<i32, i32>, "o_custkey": dictionary<i32, i32>, "o_orderstatus": dictionary<i32, memref<1xi8>>, "o_totalprice": dictionary<i32, f64>, "o_orderdate": dictionary<i32, i32>, "o_orderpriority": dictionary<i32, memref<15xi8>>, "o_clerk": dictionary<i32, memref<15xi8>>, "o_shippriority": dictionary<i32, i32>, "o_comment": dictionary<i32, memref<79xi8>>, "size": i32> -> dictionary<i32, memref<15xi8>>
  %get_115 = sdql.lookup_dictionary %fieldnode_116 [%i : i32] : dictionary<i32, memref<15xi8>> -> memref<15xi8>
  %fieldnode_118 = sdql.access_record %orders "o_clerk" : record<"o_orderkey": dictionary<i32, i32>, "o_custkey": dictionary<i32, i32>, "o_orderstatus": dictionary<i32, memref<1xi8>>, "o_totalprice": dictionary<i32, f64>, "o_orderdate": dictionary<i32, i32>, "o_orderpriority": dictionary<i32, memref<15xi8>>, "o_clerk": dictionary<i32, memref<15xi8>>, "o_shippriority": dictionary<i32, i32>, "o_comment": dictionary<i32, memref<79xi8>>, "size": i32> -> dictionary<i32, memref<15xi8>>
  %get_117 = sdql.lookup_dictionary %fieldnode_118 [%i : i32] : dictionary<i32, memref<15xi8>> -> memref<15xi8>
  %fieldnode_120 = sdql.access_record %orders "o_shippriority" : record<"o_orderkey": dictionary<i32, i32>, "o_custkey": dictionary<i32, i32>, "o_orderstatus": dictionary<i32, memref<1xi8>>, "o_totalprice": dictionary<i32, f64>, "o_orderdate": dictionary<i32, i32>, "o_orderpriority": dictionary<i32, memref<15xi8>>, "o_clerk": dictionary<i32, memref<15xi8>>, "o_shippriority": dictionary<i32, i32>, "o_comment": dictionary<i32, memref<79xi8>>, "size": i32> -> dictionary<i32, i32>
  %get_119 = sdql.lookup_dictionary %fieldnode_120 [%i : i32] : dictionary<i32, i32> -> i32
  %fieldnode_122 = sdql.access_record %orders "o_comment" : record<"o_orderkey": dictionary<i32, i32>, "o_custkey": dictionary<i32, i32>, "o_orderstatus": dictionary<i32, memref<1xi8>>, "o_totalprice": dictionary<i32, f64>, "o_orderdate": dictionary<i32, i32>, "o_orderpriority": dictionary<i32, memref<15xi8>>, "o_clerk": dictionary<i32, memref<15xi8>>, "o_shippriority": dictionary<i32, i32>, "o_comment": dictionary<i32, memref<79xi8>>, "size": i32> -> dictionary<i32, memref<79xi8>>
  %get_121 = sdql.lookup_dictionary %fieldnode_122 [%i : i32] : dictionary<i32, memref<79xi8>> -> memref<79xi8>
  %o = sdql.create_record {fields = ["o_orderkey", "o_custkey", "o_orderstatus", "o_totalprice", "o_orderdate", "o_orderpriority", "o_clerk", "o_shippriority", "o_comment"]} %get_105, %get_107, %get_109, %get_111, %get_113, %get_115, %get_117, %get_119, %get_121 : i32, i32, memref<1xi8>, f64, i32, memref<15xi8>, memref<15xi8>, i32, memref<79xi8> -> record<"o_orderkey": i32, "o_custkey": i32, "o_orderstatus": memref<1xi8>, "o_totalprice": f64, "o_orderdate": i32, "o_orderpriority": memref<15xi8>, "o_clerk": memref<15xi8>, "o_shippriority": i32, "o_comment": memref<79xi8>>
  %fieldnode_124 = sdql.access_record %o "o_orderkey" : record<"o_orderkey": i32, "o_custkey": i32, "o_orderstatus": memref<1xi8>, "o_totalprice": f64, "o_orderdate": i32, "o_orderpriority": memref<15xi8>, "o_clerk": memref<15xi8>, "o_shippriority": i32, "o_comment": memref<79xi8>> -> i32
  %fieldnode_125 = sdql.access_record %o "o_orderdate" : record<"o_orderkey": i32, "o_custkey": i32, "o_orderstatus": memref<1xi8>, "o_totalprice": f64, "o_orderdate": i32, "o_orderpriority": memref<15xi8>, "o_clerk": memref<15xi8>, "o_shippriority": i32, "o_comment": memref<79xi8>> -> i32
  %dict_123 = sdql.create_dictionary %fieldnode_124, %fieldnode_125 : i32, i32 -> dictionary<i32, i32>
  sdql.yield %dict_123 : dictionary<i32, i32>
}
%fieldnode_126 = sdql.access_record %lineitem "size" : record<"l_orderkey": dictionary<i32, i32>, "l_partkey": dictionary<i32, i32>, "l_suppkey": dictionary<i32, i32>, "l_linenumber": dictionary<i32, i32>, "l_quantity": dictionary<i32, f64>, "l_extendedprice": dictionary<i32, f64>, "l_discount": dictionary<i32, f64>, "l_tax": dictionary<i32, f64>, "l_returnflag": dictionary<i32, memref<1xi8>>, "l_linestatus": dictionary<i32, memref<1xi8>>, "l_shipdate": dictionary<i32, i32>, "l_commitdate": dictionary<i32, i32>, "l_receiptdate": dictionary<i32, i32>, "l_shipinstruct": dictionary<i32, memref<25xi8>>, "l_shipmode": dictionary<i32, memref<10xi8>>, "l_comment": dictionary<i32, memref<44xi8>>, "size": i32> -> i32
%rangenode_127 = "func.call"(%fieldnode_126) <{callee = @range_builtin}> : (i32) -> dictionary<i32, i32>
%l_h = sdql.sum %rangenode_127 : dictionary<i32, i32> -> dictionary<record<"nation" : memref<25xi8>, "o_year" : i32>, record<"um_profit" : f64>> {
^bb_128(%i: i32, %_: i32):
  %fieldnode_130 = sdql.access_record %lineitem "l_orderkey" : record<"l_orderkey": dictionary<i32, i32>, "l_partkey": dictionary<i32, i32>, "l_suppkey": dictionary<i32, i32>, "l_linenumber": dictionary<i32, i32>, "l_quantity": dictionary<i32, f64>, "l_extendedprice": dictionary<i32, f64>, "l_discount": dictionary<i32, f64>, "l_tax": dictionary<i32, f64>, "l_returnflag": dictionary<i32, memref<1xi8>>, "l_linestatus": dictionary<i32, memref<1xi8>>, "l_shipdate": dictionary<i32, i32>, "l_commitdate": dictionary<i32, i32>, "l_receiptdate": dictionary<i32, i32>, "l_shipinstruct": dictionary<i32, memref<25xi8>>, "l_shipmode": dictionary<i32, memref<10xi8>>, "l_comment": dictionary<i32, memref<44xi8>>, "size": i32> -> dictionary<i32, i32>
  %get_129 = sdql.lookup_dictionary %fieldnode_130 [%i : i32] : dictionary<i32, i32> -> i32
  %fieldnode_132 = sdql.access_record %lineitem "l_partkey" : record<"l_orderkey": dictionary<i32, i32>, "l_partkey": dictionary<i32, i32>, "l_suppkey": dictionary<i32, i32>, "l_linenumber": dictionary<i32, i32>, "l_quantity": dictionary<i32, f64>, "l_extendedprice": dictionary<i32, f64>, "l_discount": dictionary<i32, f64>, "l_tax": dictionary<i32, f64>, "l_returnflag": dictionary<i32, memref<1xi8>>, "l_linestatus": dictionary<i32, memref<1xi8>>, "l_shipdate": dictionary<i32, i32>, "l_commitdate": dictionary<i32, i32>, "l_receiptdate": dictionary<i32, i32>, "l_shipinstruct": dictionary<i32, memref<25xi8>>, "l_shipmode": dictionary<i32, memref<10xi8>>, "l_comment": dictionary<i32, memref<44xi8>>, "size": i32> -> dictionary<i32, i32>
  %get_131 = sdql.lookup_dictionary %fieldnode_132 [%i : i32] : dictionary<i32, i32> -> i32
  %fieldnode_134 = sdql.access_record %lineitem "l_suppkey" : record<"l_orderkey": dictionary<i32, i32>, "l_partkey": dictionary<i32, i32>, "l_suppkey": dictionary<i32, i32>, "l_linenumber": dictionary<i32, i32>, "l_quantity": dictionary<i32, f64>, "l_extendedprice": dictionary<i32, f64>, "l_discount": dictionary<i32, f64>, "l_tax": dictionary<i32, f64>, "l_returnflag": dictionary<i32, memref<1xi8>>, "l_linestatus": dictionary<i32, memref<1xi8>>, "l_shipdate": dictionary<i32, i32>, "l_commitdate": dictionary<i32, i32>, "l_receiptdate": dictionary<i32, i32>, "l_shipinstruct": dictionary<i32, memref<25xi8>>, "l_shipmode": dictionary<i32, memref<10xi8>>, "l_comment": dictionary<i32, memref<44xi8>>, "size": i32> -> dictionary<i32, i32>
  %get_133 = sdql.lookup_dictionary %fieldnode_134 [%i : i32] : dictionary<i32, i32> -> i32
  %fieldnode_136 = sdql.access_record %lineitem "l_linenumber" : record<"l_orderkey": dictionary<i32, i32>, "l_partkey": dictionary<i32, i32>, "l_suppkey": dictionary<i32, i32>, "l_linenumber": dictionary<i32, i32>, "l_quantity": dictionary<i32, f64>, "l_extendedprice": dictionary<i32, f64>, "l_discount": dictionary<i32, f64>, "l_tax": dictionary<i32, f64>, "l_returnflag": dictionary<i32, memref<1xi8>>, "l_linestatus": dictionary<i32, memref<1xi8>>, "l_shipdate": dictionary<i32, i32>, "l_commitdate": dictionary<i32, i32>, "l_receiptdate": dictionary<i32, i32>, "l_shipinstruct": dictionary<i32, memref<25xi8>>, "l_shipmode": dictionary<i32, memref<10xi8>>, "l_comment": dictionary<i32, memref<44xi8>>, "size": i32> -> dictionary<i32, i32>
  %get_135 = sdql.lookup_dictionary %fieldnode_136 [%i : i32] : dictionary<i32, i32> -> i32
  %fieldnode_138 = sdql.access_record %lineitem "l_quantity" : record<"l_orderkey": dictionary<i32, i32>, "l_partkey": dictionary<i32, i32>, "l_suppkey": dictionary<i32, i32>, "l_linenumber": dictionary<i32, i32>, "l_quantity": dictionary<i32, f64>, "l_extendedprice": dictionary<i32, f64>, "l_discount": dictionary<i32, f64>, "l_tax": dictionary<i32, f64>, "l_returnflag": dictionary<i32, memref<1xi8>>, "l_linestatus": dictionary<i32, memref<1xi8>>, "l_shipdate": dictionary<i32, i32>, "l_commitdate": dictionary<i32, i32>, "l_receiptdate": dictionary<i32, i32>, "l_shipinstruct": dictionary<i32, memref<25xi8>>, "l_shipmode": dictionary<i32, memref<10xi8>>, "l_comment": dictionary<i32, memref<44xi8>>, "size": i32> -> dictionary<i32, f64>
  %get_137 = sdql.lookup_dictionary %fieldnode_138 [%i : i32] : dictionary<i32, f64> -> f64
  %fieldnode_140 = sdql.access_record %lineitem "l_extendedprice" : record<"l_orderkey": dictionary<i32, i32>, "l_partkey": dictionary<i32, i32>, "l_suppkey": dictionary<i32, i32>, "l_linenumber": dictionary<i32, i32>, "l_quantity": dictionary<i32, f64>, "l_extendedprice": dictionary<i32, f64>, "l_discount": dictionary<i32, f64>, "l_tax": dictionary<i32, f64>, "l_returnflag": dictionary<i32, memref<1xi8>>, "l_linestatus": dictionary<i32, memref<1xi8>>, "l_shipdate": dictionary<i32, i32>, "l_commitdate": dictionary<i32, i32>, "l_receiptdate": dictionary<i32, i32>, "l_shipinstruct": dictionary<i32, memref<25xi8>>, "l_shipmode": dictionary<i32, memref<10xi8>>, "l_comment": dictionary<i32, memref<44xi8>>, "size": i32> -> dictionary<i32, f64>
  %get_139 = sdql.lookup_dictionary %fieldnode_140 [%i : i32] : dictionary<i32, f64> -> f64
  %fieldnode_142 = sdql.access_record %lineitem "l_discount" : record<"l_orderkey": dictionary<i32, i32>, "l_partkey": dictionary<i32, i32>, "l_suppkey": dictionary<i32, i32>, "l_linenumber": dictionary<i32, i32>, "l_quantity": dictionary<i32, f64>, "l_extendedprice": dictionary<i32, f64>, "l_discount": dictionary<i32, f64>, "l_tax": dictionary<i32, f64>, "l_returnflag": dictionary<i32, memref<1xi8>>, "l_linestatus": dictionary<i32, memref<1xi8>>, "l_shipdate": dictionary<i32, i32>, "l_commitdate": dictionary<i32, i32>, "l_receiptdate": dictionary<i32, i32>, "l_shipinstruct": dictionary<i32, memref<25xi8>>, "l_shipmode": dictionary<i32, memref<10xi8>>, "l_comment": dictionary<i32, memref<44xi8>>, "size": i32> -> dictionary<i32, f64>
  %get_141 = sdql.lookup_dictionary %fieldnode_142 [%i : i32] : dictionary<i32, f64> -> f64
  %fieldnode_144 = sdql.access_record %lineitem "l_tax" : record<"l_orderkey": dictionary<i32, i32>, "l_partkey": dictionary<i32, i32>, "l_suppkey": dictionary<i32, i32>, "l_linenumber": dictionary<i32, i32>, "l_quantity": dictionary<i32, f64>, "l_extendedprice": dictionary<i32, f64>, "l_discount": dictionary<i32, f64>, "l_tax": dictionary<i32, f64>, "l_returnflag": dictionary<i32, memref<1xi8>>, "l_linestatus": dictionary<i32, memref<1xi8>>, "l_shipdate": dictionary<i32, i32>, "l_commitdate": dictionary<i32, i32>, "l_receiptdate": dictionary<i32, i32>, "l_shipinstruct": dictionary<i32, memref<25xi8>>, "l_shipmode": dictionary<i32, memref<10xi8>>, "l_comment": dictionary<i32, memref<44xi8>>, "size": i32> -> dictionary<i32, f64>
  %get_143 = sdql.lookup_dictionary %fieldnode_144 [%i : i32] : dictionary<i32, f64> -> f64
  %fieldnode_146 = sdql.access_record %lineitem "l_returnflag" : record<"l_orderkey": dictionary<i32, i32>, "l_partkey": dictionary<i32, i32>, "l_suppkey": dictionary<i32, i32>, "l_linenumber": dictionary<i32, i32>, "l_quantity": dictionary<i32, f64>, "l_extendedprice": dictionary<i32, f64>, "l_discount": dictionary<i32, f64>, "l_tax": dictionary<i32, f64>, "l_returnflag": dictionary<i32, memref<1xi8>>, "l_linestatus": dictionary<i32, memref<1xi8>>, "l_shipdate": dictionary<i32, i32>, "l_commitdate": dictionary<i32, i32>, "l_receiptdate": dictionary<i32, i32>, "l_shipinstruct": dictionary<i32, memref<25xi8>>, "l_shipmode": dictionary<i32, memref<10xi8>>, "l_comment": dictionary<i32, memref<44xi8>>, "size": i32> -> dictionary<i32, memref<1xi8>>
  %get_145 = sdql.lookup_dictionary %fieldnode_146 [%i : i32] : dictionary<i32, memref<1xi8>> -> memref<1xi8>
  %fieldnode_148 = sdql.access_record %lineitem "l_linestatus" : record<"l_orderkey": dictionary<i32, i32>, "l_partkey": dictionary<i32, i32>, "l_suppkey": dictionary<i32, i32>, "l_linenumber": dictionary<i32, i32>, "l_quantity": dictionary<i32, f64>, "l_extendedprice": dictionary<i32, f64>, "l_discount": dictionary<i32, f64>, "l_tax": dictionary<i32, f64>, "l_returnflag": dictionary<i32, memref<1xi8>>, "l_linestatus": dictionary<i32, memref<1xi8>>, "l_shipdate": dictionary<i32, i32>, "l_commitdate": dictionary<i32, i32>, "l_receiptdate": dictionary<i32, i32>, "l_shipinstruct": dictionary<i32, memref<25xi8>>, "l_shipmode": dictionary<i32, memref<10xi8>>, "l_comment": dictionary<i32, memref<44xi8>>, "size": i32> -> dictionary<i32, memref<1xi8>>
  %get_147 = sdql.lookup_dictionary %fieldnode_148 [%i : i32] : dictionary<i32, memref<1xi8>> -> memref<1xi8>
  %fieldnode_150 = sdql.access_record %lineitem "l_shipdate" : record<"l_orderkey": dictionary<i32, i32>, "l_partkey": dictionary<i32, i32>, "l_suppkey": dictionary<i32, i32>, "l_linenumber": dictionary<i32, i32>, "l_quantity": dictionary<i32, f64>, "l_extendedprice": dictionary<i32, f64>, "l_discount": dictionary<i32, f64>, "l_tax": dictionary<i32, f64>, "l_returnflag": dictionary<i32, memref<1xi8>>, "l_linestatus": dictionary<i32, memref<1xi8>>, "l_shipdate": dictionary<i32, i32>, "l_commitdate": dictionary<i32, i32>, "l_receiptdate": dictionary<i32, i32>, "l_shipinstruct": dictionary<i32, memref<25xi8>>, "l_shipmode": dictionary<i32, memref<10xi8>>, "l_comment": dictionary<i32, memref<44xi8>>, "size": i32> -> dictionary<i32, i32>
  %get_149 = sdql.lookup_dictionary %fieldnode_150 [%i : i32] : dictionary<i32, i32> -> i32
  %fieldnode_152 = sdql.access_record %lineitem "l_commitdate" : record<"l_orderkey": dictionary<i32, i32>, "l_partkey": dictionary<i32, i32>, "l_suppkey": dictionary<i32, i32>, "l_linenumber": dictionary<i32, i32>, "l_quantity": dictionary<i32, f64>, "l_extendedprice": dictionary<i32, f64>, "l_discount": dictionary<i32, f64>, "l_tax": dictionary<i32, f64>, "l_returnflag": dictionary<i32, memref<1xi8>>, "l_linestatus": dictionary<i32, memref<1xi8>>, "l_shipdate": dictionary<i32, i32>, "l_commitdate": dictionary<i32, i32>, "l_receiptdate": dictionary<i32, i32>, "l_shipinstruct": dictionary<i32, memref<25xi8>>, "l_shipmode": dictionary<i32, memref<10xi8>>, "l_comment": dictionary<i32, memref<44xi8>>, "size": i32> -> dictionary<i32, i32>
  %get_151 = sdql.lookup_dictionary %fieldnode_152 [%i : i32] : dictionary<i32, i32> -> i32
  %fieldnode_154 = sdql.access_record %lineitem "l_receiptdate" : record<"l_orderkey": dictionary<i32, i32>, "l_partkey": dictionary<i32, i32>, "l_suppkey": dictionary<i32, i32>, "l_linenumber": dictionary<i32, i32>, "l_quantity": dictionary<i32, f64>, "l_extendedprice": dictionary<i32, f64>, "l_discount": dictionary<i32, f64>, "l_tax": dictionary<i32, f64>, "l_returnflag": dictionary<i32, memref<1xi8>>, "l_linestatus": dictionary<i32, memref<1xi8>>, "l_shipdate": dictionary<i32, i32>, "l_commitdate": dictionary<i32, i32>, "l_receiptdate": dictionary<i32, i32>, "l_shipinstruct": dictionary<i32, memref<25xi8>>, "l_shipmode": dictionary<i32, memref<10xi8>>, "l_comment": dictionary<i32, memref<44xi8>>, "size": i32> -> dictionary<i32, i32>
  %get_153 = sdql.lookup_dictionary %fieldnode_154 [%i : i32] : dictionary<i32, i32> -> i32
  %fieldnode_156 = sdql.access_record %lineitem "l_shipinstruct" : record<"l_orderkey": dictionary<i32, i32>, "l_partkey": dictionary<i32, i32>, "l_suppkey": dictionary<i32, i32>, "l_linenumber": dictionary<i32, i32>, "l_quantity": dictionary<i32, f64>, "l_extendedprice": dictionary<i32, f64>, "l_discount": dictionary<i32, f64>, "l_tax": dictionary<i32, f64>, "l_returnflag": dictionary<i32, memref<1xi8>>, "l_linestatus": dictionary<i32, memref<1xi8>>, "l_shipdate": dictionary<i32, i32>, "l_commitdate": dictionary<i32, i32>, "l_receiptdate": dictionary<i32, i32>, "l_shipinstruct": dictionary<i32, memref<25xi8>>, "l_shipmode": dictionary<i32, memref<10xi8>>, "l_comment": dictionary<i32, memref<44xi8>>, "size": i32> -> dictionary<i32, memref<25xi8>>
  %get_155 = sdql.lookup_dictionary %fieldnode_156 [%i : i32] : dictionary<i32, memref<25xi8>> -> memref<25xi8>
  %fieldnode_158 = sdql.access_record %lineitem "l_shipmode" : record<"l_orderkey": dictionary<i32, i32>, "l_partkey": dictionary<i32, i32>, "l_suppkey": dictionary<i32, i32>, "l_linenumber": dictionary<i32, i32>, "l_quantity": dictionary<i32, f64>, "l_extendedprice": dictionary<i32, f64>, "l_discount": dictionary<i32, f64>, "l_tax": dictionary<i32, f64>, "l_returnflag": dictionary<i32, memref<1xi8>>, "l_linestatus": dictionary<i32, memref<1xi8>>, "l_shipdate": dictionary<i32, i32>, "l_commitdate": dictionary<i32, i32>, "l_receiptdate": dictionary<i32, i32>, "l_shipinstruct": dictionary<i32, memref<25xi8>>, "l_shipmode": dictionary<i32, memref<10xi8>>, "l_comment": dictionary<i32, memref<44xi8>>, "size": i32> -> dictionary<i32, memref<10xi8>>
  %get_157 = sdql.lookup_dictionary %fieldnode_158 [%i : i32] : dictionary<i32, memref<10xi8>> -> memref<10xi8>
  %fieldnode_160 = sdql.access_record %lineitem "l_comment" : record<"l_orderkey": dictionary<i32, i32>, "l_partkey": dictionary<i32, i32>, "l_suppkey": dictionary<i32, i32>, "l_linenumber": dictionary<i32, i32>, "l_quantity": dictionary<i32, f64>, "l_extendedprice": dictionary<i32, f64>, "l_discount": dictionary<i32, f64>, "l_tax": dictionary<i32, f64>, "l_returnflag": dictionary<i32, memref<1xi8>>, "l_linestatus": dictionary<i32, memref<1xi8>>, "l_shipdate": dictionary<i32, i32>, "l_commitdate": dictionary<i32, i32>, "l_receiptdate": dictionary<i32, i32>, "l_shipinstruct": dictionary<i32, memref<25xi8>>, "l_shipmode": dictionary<i32, memref<10xi8>>, "l_comment": dictionary<i32, memref<44xi8>>, "size": i32> -> dictionary<i32, memref<44xi8>>
  %get_159 = sdql.lookup_dictionary %fieldnode_160 [%i : i32] : dictionary<i32, memref<44xi8>> -> memref<44xi8>
  %l = sdql.create_record {fields = ["l_orderkey", "l_partkey", "l_suppkey", "l_linenumber", "l_quantity", "l_extendedprice", "l_discount", "l_tax", "l_returnflag", "l_linestatus", "l_shipdate", "l_commitdate", "l_receiptdate", "l_shipinstruct", "l_shipmode", "l_comment"]} %get_129, %get_131, %get_133, %get_135, %get_137, %get_139, %get_141, %get_143, %get_145, %get_147, %get_149, %get_151, %get_153, %get_155, %get_157, %get_159 : i32, i32, i32, i32, f64, f64, f64, f64, memref<1xi8>, memref<1xi8>, i32, i32, i32, memref<25xi8>, memref<10xi8>, memref<44xi8> -> record<"l_orderkey": i32, "l_partkey": i32, "l_suppkey": i32, "l_linenumber": i32, "l_quantity": f64, "l_extendedprice": f64, "l_discount": f64, "l_tax": f64, "l_returnflag": memref<1xi8>, "l_linestatus": memref<1xi8>, "l_shipdate": i32, "l_commitdate": i32, "l_receiptdate": i32, "l_shipinstruct": memref<25xi8>, "l_shipmode": memref<10xi8>, "l_comment": memref<44xi8>>
  %fieldnode_164 = sdql.access_record %l "l_partkey" : record<"l_orderkey": i32, "l_partkey": i32, "l_suppkey": i32, "l_linenumber": i32, "l_quantity": f64, "l_extendedprice": f64, "l_discount": f64, "l_tax": f64, "l_returnflag": memref<1xi8>, "l_linestatus": memref<1xi8>, "l_shipdate": i32, "l_commitdate": i32, "l_receiptdate": i32, "l_shipinstruct": memref<25xi8>, "l_shipmode": memref<10xi8>, "l_comment": memref<44xi8>> -> i32
  %fieldnode_165 = sdql.access_record %l "l_suppkey" : record<"l_orderkey": i32, "l_partkey": i32, "l_suppkey": i32, "l_linenumber": i32, "l_quantity": f64, "l_extendedprice": f64, "l_discount": f64, "l_tax": f64, "l_returnflag": memref<1xi8>, "l_linestatus": memref<1xi8>, "l_shipdate": i32, "l_commitdate": i32, "l_receiptdate": i32, "l_shipinstruct": memref<25xi8>, "l_shipmode": memref<10xi8>, "l_comment": memref<44xi8>> -> i32
  %recnode_166 = sdql.create_record {fields = ["_", "_"]} %fieldnode_164, %fieldnode_165 : i32, i32 -> record<"_": i32, "_": i32>
  %get_163 = sdql.lookup_dictionary %ps_h [%recnode_166 : record<"_" : i32, "_" : i32>] : dictionary<record<"_" : i32, "_" : i32>, record<"_" : memref<25xi8>, "_" : f64>> -> record<"_" : memref<25xi8>, "_" : f64>
  %dict_167 = sdql.empty_dictionary : record<"_" : memref<25xi8>, "_" : f64>
  %cmp_168 = sdql.cmp %get_163, %dict_167 : record<"_" : memref<25xi8>, "_" : f64>, record<"_" : memref<25xi8>, "_" : f64> -> i1
  %zero_161 = "arith.constant"() <{value = 0 : i1}> : () -> i1
  %neg_162 = "arith.cmpi"(%cmp_168, %zero_161) <{predicate = 0}> : (i1, i1) -> i1
  %if_169 = "scf.if"(%neg_162) ({
    %fieldnode_173 = sdql.access_record %l "l_partkey" : record<"l_orderkey": i32, "l_partkey": i32, "l_suppkey": i32, "l_linenumber": i32, "l_quantity": f64, "l_extendedprice": f64, "l_discount": f64, "l_tax": f64, "l_returnflag": memref<1xi8>, "l_linestatus": memref<1xi8>, "l_shipdate": i32, "l_commitdate": i32, "l_receiptdate": i32, "l_shipinstruct": memref<25xi8>, "l_shipmode": memref<10xi8>, "l_comment": memref<44xi8>> -> i32
    %fieldnode_174 = sdql.access_record %l "l_suppkey" : record<"l_orderkey": i32, "l_partkey": i32, "l_suppkey": i32, "l_linenumber": i32, "l_quantity": f64, "l_extendedprice": f64, "l_discount": f64, "l_tax": f64, "l_returnflag": memref<1xi8>, "l_linestatus": memref<1xi8>, "l_shipdate": i32, "l_commitdate": i32, "l_receiptdate": i32, "l_shipinstruct": memref<25xi8>, "l_shipmode": memref<10xi8>, "l_comment": memref<44xi8>> -> i32
    %recnode_175 = sdql.create_record {fields = ["_", "_"]} %fieldnode_173, %fieldnode_174 : i32, i32 -> record<"_": i32, "_": i32>
    %get_172 = sdql.lookup_dictionary %ps_h [%recnode_175 : record<"_" : i32, "_" : i32>] : dictionary<record<"_" : i32, "_" : i32>, record<"_" : memref<25xi8>, "_" : f64>> -> record<"_" : memref<25xi8>, "_" : f64>
    %consti_176 = "arith.constant"() <{value = 0 : i32}> : () -> i32
    %get_171 = sdql.access_record %get_172 "%consti_176" : record<"_" : memref<25xi8>, "_" : f64> -> memref<25xi8>
    %fieldnode_179 = sdql.access_record %l "l_orderkey" : record<"l_orderkey": i32, "l_partkey": i32, "l_suppkey": i32, "l_linenumber": i32, "l_quantity": f64, "l_extendedprice": f64, "l_discount": f64, "l_tax": f64, "l_returnflag": memref<1xi8>, "l_linestatus": memref<1xi8>, "l_shipdate": i32, "l_commitdate": i32, "l_receiptdate": i32, "l_shipinstruct": memref<25xi8>, "l_shipmode": memref<10xi8>, "l_comment": memref<44xi8>> -> i32
    %get_178 = sdql.lookup_dictionary %o_h [%fieldnode_179 : i32] : dictionary<i32, i32> -> i32
    %consti_180 = "arith.constant"() <{value = 10000 : i32}> : () -> i32
    %external_181 = sdql.external "inv", %consti_180 : i32 -> i32
    %multi_177 = "arith.muli"(%get_178, %external_181) : (i32, i32) -> i32
    %recnode_182 = sdql.create_record {fields = ["nation", "o_year"]} %get_171, %multi_177 : memref<25xi8>, i32 -> record<"nation": memref<25xi8>, "o_year": i32>
    %fieldnode_185 = sdql.access_record %l "l_extendedprice" : record<"l_orderkey": i32, "l_partkey": i32, "l_suppkey": i32, "l_linenumber": i32, "l_quantity": f64, "l_extendedprice": f64, "l_discount": f64, "l_tax": f64, "l_returnflag": memref<1xi8>, "l_linestatus": memref<1xi8>, "l_shipdate": i32, "l_commitdate": i32, "l_receiptdate": i32, "l_shipinstruct": memref<25xi8>, "l_shipmode": memref<10xi8>, "l_comment": memref<44xi8>> -> f64
    %constd_187 = "arith.constant"() <{value = 1.0  : f64}> : () -> f64
    %fieldnode_189 = sdql.access_record %l "l_discount" : record<"l_orderkey": i32, "l_partkey": i32, "l_suppkey": i32, "l_linenumber": i32, "l_quantity": f64, "l_extendedprice": f64, "l_discount": f64, "l_tax": f64, "l_returnflag": memref<1xi8>, "l_linestatus": memref<1xi8>, "l_shipdate": i32, "l_commitdate": i32, "l_receiptdate": i32, "l_shipinstruct": memref<25xi8>, "l_shipmode": memref<10xi8>, "l_comment": memref<44xi8>> -> f64
    %zero_190 = "arith.constant"() <{value = 0.0 : f64}> : () -> f64
    %negf_188 = "arith.subf"(%zero_190, %fieldnode_189) <{fastmath = #arith.fastmath<none>}> : (f64, f64) -> f64
    %addf_186 = "arith.addf"(%constd_187, %negf_188) <{fastmath = #arith.fastmath<none>}> : (f64, f64) -> f64
    %multf_184 = "arith.mulf"(%fieldnode_185, %addf_186) <{fastmath = #arith.fastmath<none>}> : (f64, f64) -> f64
    %fieldnode_195 = sdql.access_record %l "l_partkey" : record<"l_orderkey": i32, "l_partkey": i32, "l_suppkey": i32, "l_linenumber": i32, "l_quantity": f64, "l_extendedprice": f64, "l_discount": f64, "l_tax": f64, "l_returnflag": memref<1xi8>, "l_linestatus": memref<1xi8>, "l_shipdate": i32, "l_commitdate": i32, "l_receiptdate": i32, "l_shipinstruct": memref<25xi8>, "l_shipmode": memref<10xi8>, "l_comment": memref<44xi8>> -> i32
    %fieldnode_196 = sdql.access_record %l "l_suppkey" : record<"l_orderkey": i32, "l_partkey": i32, "l_suppkey": i32, "l_linenumber": i32, "l_quantity": f64, "l_extendedprice": f64, "l_discount": f64, "l_tax": f64, "l_returnflag": memref<1xi8>, "l_linestatus": memref<1xi8>, "l_shipdate": i32, "l_commitdate": i32, "l_receiptdate": i32, "l_shipinstruct": memref<25xi8>, "l_shipmode": memref<10xi8>, "l_comment": memref<44xi8>> -> i32
    %recnode_197 = sdql.create_record {fields = ["_", "_"]} %fieldnode_195, %fieldnode_196 : i32, i32 -> record<"_": i32, "_": i32>
    %get_194 = sdql.lookup_dictionary %ps_h [%recnode_197 : record<"_" : i32, "_" : i32>] : dictionary<record<"_" : i32, "_" : i32>, record<"_" : memref<25xi8>, "_" : f64>> -> record<"_" : memref<25xi8>, "_" : f64>
    %consti_198 = "arith.constant"() <{value = 1 : i32}> : () -> i32
    %get_193 = sdql.access_record %get_194 "%consti_198" : record<"_" : memref<25xi8>, "_" : f64> -> f64
    %fieldnode_199 = sdql.access_record %l "l_quantity" : record<"l_orderkey": i32, "l_partkey": i32, "l_suppkey": i32, "l_linenumber": i32, "l_quantity": f64, "l_extendedprice": f64, "l_discount": f64, "l_tax": f64, "l_returnflag": memref<1xi8>, "l_linestatus": memref<1xi8>, "l_shipdate": i32, "l_commitdate": i32, "l_receiptdate": i32, "l_shipinstruct": memref<25xi8>, "l_shipmode": memref<10xi8>, "l_comment": memref<44xi8>> -> f64
    %multf_192 = "arith.mulf"(%get_193, %fieldnode_199) <{fastmath = #arith.fastmath<none>}> : (f64, f64) -> f64
    %zero_200 = "arith.constant"() <{value = 0.0 : f64}> : () -> f64
    %negf_191 = "arith.subf"(%zero_200, %multf_192) <{fastmath = #arith.fastmath<none>}> : (f64, f64) -> f64
    %addf_183 = "arith.addf"(%multf_184, %negf_191) <{fastmath = #arith.fastmath<none>}> : (f64, f64) -> f64
    %recnode_201 = sdql.create_record {fields = ["um_profit"]} %addf_183 : f64 -> record<"um_profit": f64>
    %dict_170 = sdql.create_dictionary %recnode_182, %recnode_201 : record<"nation" : memref<25xi8>, "o_year" : i32>, record<"um_profit" : f64> -> dictionary<record<"nation" : memref<25xi8>, "o_year" : i32>, record<"um_profit" : f64>>
    "scf.yield"(%dict_170) : (dictionary<record<"nation" : memref<25xi8>, "o_year" : i32>, record<"um_profit" : f64>>) -> ()
  }, {
    %dict_202 = sdql.empty_dictionary : dictionary<record<"nation" : memref<25xi8>, "o_year" : i32>, record<"um_profit" : f64>>
    "scf.yield"(%dict_202) : (dictionary<record<"nation" : memref<25xi8>, "o_year" : i32>, record<"um_profit" : f64>>) -> ()
  }) : (i1) -> dictionary<record<"nation" : memref<25xi8>, "o_year" : i32>, record<"um_profit" : f64>>
  sdql.yield %if_169 : dictionary<record<"nation" : memref<25xi8>, "o_year" : i32>, record<"um_profit" : f64>>
}
%sum_203 = sdql.sum %l_h : dictionary<record<"nation" : memref<25xi8>, "o_year" : i32>, record<"um_profit" : f64>> -> dictionary<record<"nation" : memref<25xi8>, "o_year" : i32, "um_profit" : f64>, i32> {
^bb_204(%k: record<"nation" : memref<25xi8>, "o_year" : i32>, %v: record<"um_profit" : f64>):
  %concat_207 = sdql.concat %k, %v : record<"nation" : memref<25xi8>, "o_year" : i32>, record<"um_profit" : f64> -> record<"nation" : memref<25xi8>, "o_year" : i32, "um_profit" : f64>
  %uniq_206 = sdql.unique %concat_207 : record<"nation" : memref<25xi8>, "o_year" : i32, "um_profit" : f64> -> record<"nation" : memref<25xi8>, "o_year" : i32, "um_profit" : f64>
  %consti_208 = "arith.constant"() <{value = 1 : i32}> : () -> i32
  %dict_205 = sdql.create_dictionary %uniq_206, %consti_208 : record<"nation" : memref<25xi8>, "o_year" : i32, "um_profit" : f64>, i32 -> dictionary<record<"nation" : memref<25xi8>, "o_year" : i32, "um_profit" : f64>, i32>
  sdql.yield %dict_205 : dictionary<record<"nation" : memref<25xi8>, "o_year" : i32, "um_profit" : f64>, i32>
}
